debate-mnist/models/judge_6px.pth (torch, 157033 bytes, 8 tensors)

features.0.weight f4 [16, 1, 3, 3]
0	0xc00df07f	-2.2178037
1	0xc00dd506	-2.216127
2	0xbe929a87	-0.2863352
3	0xc00de37a	-2.217009
4	0xc00dca30	-2.2154655
5	0xbf5577f2	-0.8338615
6	0xbfb9754d	-1.4488922
7	0xbfb97e94	-1.4491754
8	0xbcb76f1e	-0.022391852
9	0x3d691a0e	0.056909613
10	0x3f10cff1	0.56567293
11	0xbf1fa073	-0.623542
12	0xbdbc1309	-0.09183318
13	0xc05f7d7a	-3.4920335
14	0x3e7bb83f	0.24582003
15	0xbee40c86	-0.44540805
16	0x3f0417e0	0.5159893
17	0x3c713e43	0.014724317
18	0xbea8db32	-0.32979733
19	0xbf11ddd3	-0.569791
20	0x3f1375f6	0.5760187
21	0x3f150a8d	0.58219224
22	0xc0823e46	-4.0701017
23	0xbfd3e961	-1.6555597
24	0x3eaeda19	0.3415077
25	0xc01109e2	-2.2662282
26	0x3e9fbd80	0.31199265
27	0x3f057cd6	0.5214361
28	0xbf05271c	-0.520128
29	0x3df27c07	0.118400626
30	0x3f198fba	0.59984934
31	0xbeb68d17	-0.35654518
32	0xbd2ee51b	-0.04269896
33	0xbdf60a31	-0.120136626
34	0xbdbc2ebd	-0.09188602
35	0xbdc589c9	-0.09645421
36	0xbbab7fe6	-0.0052337525
37	0xbee8b629	-0.45451477
38	0xbbfe58f3	-0.0077620684
39	0xbe244caa	-0.1604487
40	0xbee4b567	-0.4466965
41	0xbe12f5d5	-0.1435159
42	0x3fbfad67	1.4974793
43	0x3ef29b93	0.4738432
44	0xbe2b53fb	-0.16731255
45	0xbf0ac599	-0.5420776
46	0x3f164dcc	0.5871246
47	0xbd8af336	-0.0678467
48	0xbfc8a6c9	-1.5675899
49	0x3ec0443e	0.37552065
50	0xbe13d2b1	-0.14435841
51	0x3f64adeb	0.8932788
52	0xbe9c9228	-0.30580258
53	0xbe942f6b	-0.28942427
54	0xbdc146ff	-0.094373696
55	0xbe9373fe	-0.28799433
56	0xbe9a4bdc	-0.30136
57	0xbda2f8da	-0.07957621
58	0x3f31f85c	0.6951959
59	0x3fa24679	1.2677757
60	0x3e668cd7	0.22514664
61	0xbfc74654	-1.5568337
62	0xbe593fad	-0.21215697
63	0xbda25796	-0.07926862
64	0xbf0d0b00	-0.5509491
65	0xbef37f1e	-0.4755792
66	0x3f43a60c	0.7642524
67	0xc060ae38	-3.5106335
68	0x3f430d9f	0.7619266
69	0xbf05431e	-0.5205554
70	0xbf0ecd53	-0.5578205
71	0xbe24b699	-0.1608528
72	0xbe0cfd3f	-0.1376848
73	0xbd1abadd	-0.037775863
74	0x3f1e28c9	0.61780983
75	0xbd0be661	-0.034155253
76	0x3e8ca16f	0.27466914
77	0x3ea63d40	0.32468605
78	0xbe051972	-0.12997988
79	0x3f88cd79	1.0687705
80	0xbf660902	-0.89857495
81	0x3bf3e91a	0.0074435594
82	0xbc6c2482	-0.014413001
83	0xbeb7882f	-0.35846087
84	0xbd86986f	-0.06572043
85	0xbe8ce302	-0.27516943
86	0xbe57da99	-0.21079482
87	0xbf08318b	-0.53200597
88	0x3fba4107	1.4551095
89	0x3ed5c09c	0.41748512
90	0x3d4c2adc	0.04984556
91	0xbef4daf7	-0.47823307
92	0xbdedb0fb	-0.11606022
93	0xbe95ef8d	-0.29284325
94	0xbfdc838a	-1.7227643
95	0x3ee539c4	0.44770634
96	0x3efea139	0.49732378
97	0x3dae3bd1	0.08507503
98	0xbd0017dd	-0.031272758
99	0x3e99fdd2	0.30076462
100	0xbeaa0c59	-0.33212546
101	0x3ea7ee09	0.32798794
102	0xbf3e88b0	-0.7442732
103	0xbf130443	-0.5742838
104	0xbfdd09ce	-1.7268617
105	0xbf2e5290	-0.6809473
106	0x3f339abd	0.70157987
107	0xbee326db	-0.44365582
108	0xbdc6f921	-0.09715486
109	0xbed64524	-0.41849625
110	0xbdf7a47f	-0.12091922
111	0x3e89db3f	0.26925084
112	0x3fbe0477	1.4845113
113	0xbec749dc	-0.38923538
114	0xbf551ff4	-0.8325188
115	0xbe2de089	-0.16980185
116	0xbdf31b2f	-0.11870419
117	0xbd959fbc	-0.073058575
118	0xbe0bfbb7	-0.1367024
119	0xbb10ae5a	-0.0022076578
120	0xbe6f1a69	-0.23349918
121	0x3f15bbf1	0.584899
122	0xbe2b5b37	-0.16734014
123	0x3efb2e16	0.49058598
124	0xbca98b43	-0.020696288
125	0x3ec83d9c	0.39109504
126	0x3e106947	0.1410266
127	0xc03952c6	-2.895677
128	0x3ef2b6fc	0.4740523
129	0x3eec6afd	0.46175376
130	0xc0237f78	-2.554655
131	0xbe947c7a	-0.29001218
132	0xbde90642	-0.11378147
133	0xbd85270f	-0.065015905
134	0x3d680288	0.05664304
135	0x3f4a7e59	0.7909904
136	0xc0807ffd	-4.0156236
137	0x3f8070eb	1.003446
138	0xbc97c4b5	-0.018526414
139	0xbea3474d	-0.31890336
140	0xbf068da2	-0.52559865
141	0xbe6ad57a	-0.22932997
142	0xbe57ca3d	-0.21073242
143	0xbe479813	-0.19491605

features.0.bias f4 [16]
0	0x3e767414	0.24067718
1	0x3d5e6eeb	0.054305
2	0x3a8d8947	0.0010798358
3	0x3e1d874d	0.15383644
4	0x3a72ace5	0.00092573307
5	0x3b4617d2	0.00302266
6	0x3a786053	0.00094748026
7	0x3a03a3ef	0.00050216814
8	0xba49bf6e	-0.0007696067
9	0x3b5f14df	0.003403954
10	0x3dd547ff	0.10414123
11	0x3aac340a	0.0013138067
12	0x3a5716a1	0.0008204971
13	0x3e062fbf	0.13104151
14	0x3dc79bbc	0.09746501
15	0xbd83c835	-0.06434671

features.3.weight f4 [32, 16, 3, 3]
0	0x3d29c4df	0.041447517
1	0xbd601c35	-0.0547144
2	0x3daee07d	0.085389115
3	0x3e37659b	0.17909853
4	0x3d54b4bc	0.051930174
5	0x3d14577f	0.036216255
6	0x3c521a4b	0.012823652
7	0xbdb6a579	-0.0891828
8	0x3d01308b	0.031540435
9	0xbe16a104	-0.1470986
10	0xbea48ada	-0.32137185
11	0xbdc620bf	-0.096742146
12	0xbd6ab2cc	-0.05729942
13	0xbd1ec903	-0.03876592
14	0x3dcecbe0	0.1009748
15	0x3df3bcbe	0.11901234
16	0x3e442555	0.19154866
17	0x3e39b489	0.18135275
18	0xbd51b5a6	-0.051198624
19	0xbf663030	-0.8991728
20	0xbe5e4214	-0.21704894
21	0xbd8aafe6	-0.06771831
22	0x3d6a241c	0.057163343
23	0x3d9dfb91	0.07713998
24	0xbd19fdea	-0.037595667
25	0x3dc9f59c	0.098612994
26	0xbe25a86e	-0.16177532
27	0x3df61261	0.12015224
28	0xbe9a4ca8	-0.3013661
29	0xbdb8dda7	-0.09026652
30	0x3dcfe6cb	0.10151442
31	0xbe09833b	-0.13428967
32	0x3e0710d5	0.13190015
33	0x3dd76062	0.105164304
34	0xbd230952	-0.03980381
35	0x3e50bfbe	0.20385644
36	0xbd31456d	-0.0432791
37	0xbf51f962	-0.8202115
38	0xbab89ba0	-0.0014084466
39	0xbaa158bc	-0.001230977
40	0xbdcc397a	-0.099719
41	0x3baa2b4a	0.0051931487
42	0x3ded285b	0.11579963
43	0x3cb7c6ae	0.022433605
44	0x3d1532ac	0.036425278
45	0x3d8cb8ac	0.06871161
46	0xbfe3687f	-1.7766265
47	0xbdebbcb6	-0.11510603
48	0xbe89e057	-0.2692897
49	0xbdfbb1fe	-0.12289809
50	0x3dbf78bf	0.09349202
51	0x3cd587e0	0.026065767
52	0x3d94a7f2	0.072585955
53	0x3da261c6	0.07928805
54	0xbe6283c9	-0.22120585
55	0xbf498fe5	-0.7873519
56	0x3e17be52	0.14818695
57	0xbedbf2c7	-0.42958662
58	0x3e097912	0.13425091
59	0x3e307440	0.17231846
60	0x3e06905e	0.13141009
61	0x3dda7019	0.10665912
62	0xbe44c7d3	-0.19216852
63	0x3dad2dd1	0.084560044
64	0xbf8aeb49	-1.0853053
65	0xbe468dae	-0.19389984
66	0xbd801ad3	-0.06255116
67	0x3cd43475	0.02590392
68	0x3e282a63	0.16422419
69	0x3cf2c7d9	0.02963631
70	0x3e2d597d	0.16928668
71	0xbd060b31	-0.032725517
72	0xbf65f52f	-0.89827245
73	0xbf04d9b5	-0.51894695
74	0x3de7baba	0.11314912
75	0x3d92c9f6	0.07167427
76	0xbd278a6d	-0.040903497
77	0xbd0e18f6	-0.034691773
78	0x3deaa7a2	0.11457755
79	0x3d02cb96	0.031932436
80	0xbe87f114	-0.26551116
81	0xbf3aa142	-0.7290231
82	0xbdc009c0	-0.0937686
83	0xbd84949f	-0.0647366
84	0x3d7aaf1c	0.061202154
85	0x3c862137	0.01637326
86	0xbd837adf	-0.0641992
87	0x3d85683e	0.06514023
88	0x3c83c026	0.016082834
89	0x3ed0f413	0.40811214
90	0xbd2e1197	-0.042497244
91	0xbe632098	-0.22180402
92	0x3d1010e7	0.03517237
93	0x3d8e48e5	0.06947497
94	0xbcaecb1c	-0.021337084
95	0x3e13cd7c	0.14433855
96	0x3d8fce3a	0.070217565
97	0x3cfe5cde	0.031050142
98	0x3dff9f77	0.124815874
99	0xbe98952b	-0.29801306
100	0xbf49e4f8	-0.78865004
101	0xbcfaedab	-0.030630907
102	0x3bf707f8	0.0075387917
103	0xbd992791	-0.0747825
104	0x3e0f2fba	0.1398305
105	0xbc9c0077	-0.01904319
106	0x3de90f1f	0.11379837
107	0x3e4cf0a1	0.20013668
108	0xbcbc29bd	-0.022969121
109	0xc00378b3	-2.054242
110	0xbe8fb7cc	-0.28069913
111	0xbef6c896	-0.4819991
112	0xbe12e804	-0.1434632
113	0x3e78872a	0.24270311
114	0x3d35c8ee	0.044381075
115	0x3e491f23	0.19640784
116	0x3e1503eb	0.14552276
117	0x3d84e81f	0.06489586
118	0xbe150b16	-0.1455501
119	0x3e077769	0.13229145
120	0x3d734328	0.059390217
121	0x3d0d3616	0.03447541
122	0x3dd153fb	0.10221096
123	0x3e4d4e46	0.2004939
124	0x3d173a5e	0.036920898
125	0x3e48e7bc	0.1961965
126	0xbd19d26a	-0.037554182
127	0xbe4308e3	-0.19046359
128	0xbc65f4c2	-0.014035406
129	0x3c4d26a3	0.012521419
130	0x3bb5090f	0.0055247615
131	0x3df417cc	0.119186014
132	0x3e168802	0.1470032
133	0x3cf8661a	0.030322123
134	0x3db78c27	0.08962279
135	0xbdd2bdcc	-0.10290107
136	0xbdff859e	-0.12476657
137	0xbf039e8e	-0.5141381
138	0xbebc2e60	-0.3675413
139	0x3d81036f	0.06299483
140	0xbebb33f9	-0.3656309
141	0x3e17943a	0.14802638
142	0xbd354f74	-0.044265226
143	0xbde6e67c	-0.1127443
144	0x3e00cb47	0.12577544
145	0x3ec2a144	0.3801366
146	0x3daad4fb	0.08341404
147	0xbde14f48	-0.1100145
148	0x3ea80cd6	0.32822293
149	0xbd4c869e	-0.04993307
150	0x3d4c2927	0.049843933
151	0x3def7f9f	0.11694264
152	0xbda637da	-0.081161216
153	0xbd24c773	-0.040229272
154	0x3e1898ea	0.14902082
155	0xbd566b37	-0.05234834
156	0xbde1ff44	-0.11035016
157	0x3bac99e6	0.0052673696
158	0x3e009f17	0.12560688
159	0xbc0192e6	-0.0079085585
160	0xbe296267	-0.16541444
161	0xbe148316	-0.1450313
162	0x3d4fc172	0.050721593
163	0xbd8729fc	-0.06599805
164	0xbe0e92ca	-0.13923183
165	0xbe588952	-0.21146134
166	0xbf7864c0	-0.9702873
167	0xbd925597	-0.07145231
168	0x3d1e9f58	0.03872618
169	0xbfc5d420	-1.545536
170	0xbc923516	-0.017847579
171	0x3c45d746	0.012075251
172	0x3e0ec19b	0.13941042
173	0x3dbe82d0	0.09302294
174	0xbdba6614	-0.09101501
175	0x3d1c5c91	0.038174216
176	0xbda67310	-0.08127415
177	0x3d516b47	0.0511277
178	0xbdb58001	-0.088623054
179	0xbe1345d9	-0.14382114
180	0xbd260387	-0.040530708
181	0xbe113df7	-0.14183794
182	0xbd320733	-0.043463897
183	0x3cb5fd9a	0.022215653
184	0xbfc6bdaf	-1.5526637
185	0xbdf5a003	-0.119934104
186	0x3d9f8e56	0.0779082
187	0xbf08ca15	-0.5343335
188	0xbee64a16	-0.44978398
189	0x3d56185b	0.05226932
190	0xbc90d8f9	-0.017681586
191	0xbe0a7b5c	-0.1352362
192	0x3e0b2ecd	0.13592072
193	0xbf142cd2	-0.5788089
194	0xbd68ee6d	-0.056868006
195	0x3e2a7db1	0.1664951
196	0xbf232d39	-0.6374088
197	0xbe4db36e	-0.20087978
198	0x3e1618ac	0.14657849
199	0x3cbdf231	0.023186775
200	0x3ce7c8af	0.028293936
201	0xbe132821	-0.14370777
202	0xbfebd29a	-1.8423645
203	0x3dca5f7f	0.09881496
204	0x3ca37bda	0.019956518
205	0xbfa395f2	-1.2780135
206	0xbd1afa02	-0.037836082
207	0x3e2a722a	0.16645113
208	0x3dbc8f84	0.09207061
209	0xbddf9086	-0.109162375
210	0xbee14c15	-0.44003358
211	0xc00143f4	-2.0197725
212	0x3db988e7	0.09059315
213	0x3c927ea5	0.017882654
214	0xbfc36f46	-1.5268333
215	0xbe01ecbc	-0.12687963
216	0xbb476f74	-0.0030431421
217	0x3d31087e	0.04322099
218	0x3d87218c	0.065981954
219	0x3d5492cf	0.05189782
220	0xbea1ad3d	-0.31577483
221	0x3d178667	0.03699341
222	0xbd471d5c	-0.048611984
223	0xbf54b40b	-0.83087224
224	0x3e09220b	0.13391893
225	0xbdad36d1	-0.08457721
226	0x3dd512c2	0.104039684
227	0x3da8eac1	0.08247901
228	0xbd42170d	-0.047385264
229	0xbf70f935	-0.9413026
230	0x3d48b8cf	0.049004372
231	0xbb4fc6f3	-0.0031704276
232	0xbf0a9010	-0.5412607
233	0xbd83c636	-0.0643429
234	0x3c0ac40c	0.008469593
235	0x3e7c6fdf	0.2465205
236	0x3c52797b	0.012846346
237	0xbe106e5f	-0.14104603
238	0xbdb13159	-0.086519904
239	0xbaa8dfa6	-0.0012884035
240	0x3de36b8d	0.11104498
241	0xbd73de2d	-0.059538055
242	0xbe0c7fb9	-0.13720597
243	0xbd44d11f	-0.048050996
244	0x3a9709bf	0.001152329
245	0xbe4af4f9	-0.19820012
246	0x3d4fa589	0.050694976
247	0xbda1ea5d	-0.079060294
248	0xbd87eb72	-0.066367045
249	0x3dee9bb2	0.1165079
250	0xbf7dc2f7	-0.9912562
251	0x3c8ce3d5	0.017198483
252	0x3e1f76e2	0.15572694
253	0x3d4044b2	0.046940513
254	0xbc87af7f	-0.016563175
255	0xbd044817	-0.032295313

features.3.bias f4 [32]
0	0x3bcde7e4	0.006283747
1	0x3e5065fe	0.20351407
2	0xbddbe834	-0.107376486
3	0xbde2069d	-0.11036418
4	0xbe93e1cb	-0.28883204
5	0xbd93bd1b	-0.072138034
6	0xbd368388	-0.04455903
7	0x3c95eb7e	0.018300768
8	0xbd5ddc65	-0.054165263
9	0x3d6da903	0.05802251
10	0xbdf365b7	-0.11884635
11	0xbd96ea0c	-0.0736886
12	0x3d9aa848	0.07551628
13	0xbd6babf6	-0.05753704
14	0xbd07542f	-0.033039268
15	0xbda9b342	-0.08286144
16	0x3e0638ee	0.13107654
17	0xbd04066d	-0.03223269
18	0xbd50cc01	-0.050975803
19	0xbc84a8ad	-0.016193712
20	0xbdab1535	-0.08353654
21	0x3ccd3131	0.02504787
22	0xbdf9d84f	-0.12199461
23	0xbdb4282a	-0.08796723
24	0xbccfae81	-0.025351765
25	0xbcdd4e97	-0.027015014
26	0xbdb65932	-0.089037314
27	0xbd68e1df	-0.056856032
28	0xbdcf58c9	-0.10124356
29	0x3cd5cde2	0.02609915
30	0xbcce4e5b	-0.025183847
31	0xbd4e807c	-0.0504155

classifier.1.weight f4 [64, 512]
0	0x3cebd603	0.028788572
1	0x3d32bab1	0.043635074
2	0x3d7c66af	0.061621364
3	0x3ce6afe5	0.028160045
4	0xbc4c0fd8	-0.012454949
5	0x3b8f9bac	0.004382571
6	0x3cb30853	0.021854555
7	0x3d2cd6dd	0.042197097
8	0x3d304349	0.043032918
9	0x3cab65ef	0.02092263
10	0x3daec44a	0.08533533
11	0xbd07f57f	-0.033193108
12	0xbcb0bd33	-0.021574592
13	0xbe20871e	-0.15676543
14	0x3d8aa0c2	0.06768943
15	0xbeb249a6	-0.34821814
16	0xbd67ae62	-0.05656279
17	0x3d4e4b24	0.05036463
18	0x3eaee325	0.34157673
19	0x3e2545e8	0.16139948
20	0xbc88b229	-0.016686516
21	0xbde3d47b	-0.11124512
22	0xbe240a51	-0.1601956
23	0xbce056a8	-0.02738507
24	0xbc79a4a5	-0.015237008
25	0x3de475da	0.11155291
26	0xbda13965	-0.07872275
27	0x3b621487	0.0034497099
28	0xbcaeece7	-0.021353198
29	0xbd35b9d3	-0.04436667
30	0x3e028702	0.12746814
31	0x3e028f6a	0.1275002
32	0x3da6ae85	0.08138756
33	0xbc5d0b26	-0.0134914275
34	0x3cbd081a	0.023075152
35	0x3c2f690c	0.0107061975
36	0x3e0b9f32	0.13634947
37	0xbd1e385c	-0.038627967
38	0xbdac62af	-0.0841726
39	0xbad80a10	-0.0016482491
40	0x3e2a08b9	0.1660489
41	0x3d89d836	0.06730692
42	0xbd191eda	-0.037382938
43	0x3e1aaedb	0.15105765
44	0xbebba221	-0.36647132
45	0x3e4e617d	0.20154376
46	0x3e60f745	0.21969326
47	0xbec03f90	-0.37548494
48	0xbe130e99	-0.14361037
49	0xbd9d20df	-0.07672285
50	0x3dd3a4e2	0.10334183
51	0xbe8fe1ee	-0.28102058
52	0x3e2c4e48	0.16826737
53	0xbca7127b	-0.020394554
54	0x3df4fa14	0.11961761
55	0x3d11e8d7	0.035622444
56	0xbdfd23fb	-0.12360378
57	0x3dd88d7f	0.10573863
58	0xbd95941f	-0.073036425
59	0x3d0b4baf	0.034007724
60	0x3e341880	0.17587471
61	0x3d96cc6f	0.07363211
62	0xbc697c60	-0.014250845
63	0x3d93fc5e	0.072258696
64	0xbdb5a4d9	-0.08869333
65	0x3e1ab92d	0.15109701
66	0x3e6745f3	0.22585277
67	0x3c2b0734	0.010438729
68	0x3d838f53	0.06423821
69	0x3dc06f37	0.093962125
70	0x3c4d9cae	0.012549562
71	0x3d87bfc2	0.06628372
72	0x3c4bfbdd	0.012450186
73	0x3d9180f3	0.07104673
74	0x3ad34ff5	0.0016121852
75	0x3cc69090	0.024238855
76	0xbee22bd8	-0.44174075
77	0xbc431824	-0.011907611
78	0x3e07aab9	0.1324872
79	0x3e4cd6b2	0.20003775
80	0x3dfa8def	0.12234103
81	0xbdf863d1	-0.121284135
82	0xbde6b17a	-0.1126432
83	0x3d8c0fb1	0.068389304
84	0xbd950d7b	-0.07277962
85	0x3b735f0e	0.0037135514
86	0xbbf1b901	-0.0073767905
87	0x3ccb1add	0.024793083
88	0x3d6102e3	0.054934394
89	0xbdda7eec	-0.1066874
90	0x3cc42b7f	0.023946522
91	0x3d27040d	0.040775348
92	0xbd80f6d0	-0.06297076
93	0xbe1e7e15	-0.15477784
94	0x3cc6733b	0.024224868
95	0x3dcd33a9	0.10019619
96	0xbe97c03a	-0.29638845
97	0xbdc60ddc	-0.09670612
98	0xbcc24f9c	-0.023719601
99	0xbe8712f4	-0.26381648
100	0x3dcd3bb4	0.10021153
101	0xbdb887d3	-0.090102814
102	0xbd400bf8	-0.046886414
103	0xbc3cb28c	-0.011517178
104	0x3e0fa47f	0.14027594
105	0x3d02c96e	0.03193038
106	0xbd9145b5	-0.07093374
107	0xbb91382d	-0.0044317455
108	0xbe1d8bab	-0.1538531
109	0xbd23ba8b	-0.039972823
110	0xbc99c607	-0.018771185
111	0x3dca1f1d	0.09869216
112	0x3dd1ed46	0.102503344
113	0x3d09ec23	0.033672463
114	0x3d119a3e	0.035547487
115	0x3da3b2cd	0.07993088
116	0xbce63c8f	-0.028105048
117	0x3d18c82e	0.03730028
118	0xbd133e3c	-0.035948023
119	0xbc1b8f1d	-0.00949457
120	0x3e250920	0.16116762
121	0x3db78427	0.08960753
122	0x3d182a7f	0.037149902
123	0xbc57b382	-0.013165357
124	0xbe84a2d5	-0.2590548
125	0x3e930c93	0.2872053
126	0xbe012133	-0.12610321
127	0x3d3f1cd8	0.046658367
128	0x3e3535fa	0.17696372
129	0xbdededcd	-0.116176225
130	0xbd62a81e	-0.05533611
131	0xbe51a1c3	-0.20471863
132	0xbde69711	-0.112592824
133	0xbd254060	-0.040344596
134	0xbd6cdd23	-0.05782808
135	0x3d1209f3	0.03565402
136	0x3d993a85	0.07481865
137	0x3ddc05c0	0.10743284
138	0x3cfa04cf	0.030519871
139	0x3ec7b880	0.3900795
140	0x3e75d80e	0.240082
141	0x3b0cc552	0.0021479917
142	0xbe9dfd9a	-0.30857545
143	0xbe9fd10c	-0.31214178
144	0xbe5066fd	-0.20351787
145	0x3e22e101	0.15906145
146	0x3dcca263	0.0999191
147	0xbde5efac	-0.112273544
148	0x3cc50ca8	0.024053887
149	0x3e0cf194	0.1376403
150	0xbd4d068d	-0.050055075
151	0x3de64109	0.11242873
152	0xbd8a6134	-0.06756821
153	0xbdf632ef	-0.120214336
154	0x3b3a99d2	0.0028473032
155	0x3c88ed3b	0.016714683
156	0x3cf213e5	0.029550502
157	0x3d7288aa	0.059212364
158	0x3e1a2b14	0.15055496
159	0xbd58bf53	-0.052916836
160	0x3e234ccc	0.15947264
161	0xbe716bbb	-0.23576252
162	0xbd4728ee	-0.048623018
163	0xbe3a5ab9	-0.1819867
164	0x3cc52af7	0.024068339
165	0xbce2d314	-0.02768854
166	0x3d337c49	0.0438197
167	0x3d2af1b4	0.041734412
168	0x3d8fa84b	0.07014521
169	0xbd8f1596	-0.06986539
170	0xbd0c214f	-0.034211453
171	0xbd9449c0	-0.07240629
172	0x3e5b8558	0.21437585
173	0x3dffa4fe	0.12482642
174	0x3d4c0958	0.0498136
175	0xbe9bd189	-0.304333
176	0xbe95abaf	-0.29232547
177	0x3d44db7b	0.048060875
178	0xbdbf12da	-0.093297675
179	0xbf4cf798	-0.800653
180	0x3d9c770e	0.076398954
181	0x3d63add1	0.055585686
182	0xbe06fc16	-0.131821
183	0x3e48a940	0.19595814
184	0xbc3277a9	-0.010892787
185	0x3d0c1f3d	0.03420948
186	0x3dbfa43d	0.09357498
187	0x3e953b5b	0.29146847
188	0x3c4b6e4f	0.012416436
189	0x3d26369c	0.040579423
190	0x3df65c87	0.12029367
191	0xbdcc27f2	-0.099685565
192	0x3d3ffadc	0.046870098
193	0xbccc35d2	-0.024928007
194	0xbc1e7edc	-0.0096738
195	0xbe12c17c	-0.14331621
196	0xbd31ea7e	-0.04343652
197	0xbd9e42c3	-0.077275775
198	0x3d2d0a23	0.042245995
199	0x3cf43a07	0.029812826
200	0xbd6358f7	-0.055504765
201	0x3d9d7aaa	0.07689412
202	0x3da78c11	0.081810124
203	0x3ed6222f	0.41822955
204	0xbd7cbf7b	-0.061706048
205	0xbd9e60a4	-0.077332765
206	0x3a404aba	0.0007335354
207	0xbdbf1a51	-0.09331191
208	0xbd7355a0	-0.05940783
209	0x3dbc88f7	0.092058115
210	0x3dfa8461	0.122322805
211	0xbc85ead5	-0.016347328
212	0x3e113d4f	0.14183544
213	0xbca43349	-0.020043986
214	0xbc91f394	-0.017816342
215	0x3db33695	0.08750645
216	0xbd693209	-0.056932483
217	0xbbcd4ddd	-0.0062653855
218	0xbad41c73	-0.0016182795
219	0xbd8c0604	-0.06837085
220	0x3e9bf1d1	0.3045793
221	0x3e8f7636	0.28019875
222	0x3de82155	0.113344826
223	0xbd876065	-0.06610183
224	0xbd6abde1	-0.05730999
225	0x3dd3913b	0.10330435
226	0xbb21b547	-0.00246747
227	0xbd1e45bf	-0.038640734
228	0x3d2fa7c4	0.042884603
229	0x3d68801d	0.056762803
230	0x3e04fe8a	0.12987724
231	0x3dd74f28	0.10513145
232	0xbd902906	-0.070390746
233	0xbdf66b89	-0.120322295
234	0xbdd7e2cb	-0.10541304
235	0xbd563bb8	-0.052303046
236	0x3cdb4beb	0.026769599
237	0x3d6d3ed9	0.057921264
238	0x3e3eff01	0.18651964
239	0xbd24b76a	-0.04021398
240	0xbe64243a	-0.22279444
241	0x3e0317a2	0.12801984
242	0x3e7ada55	0.2449735
243	0xbdf6b2bc	-0.120458096
244	0x3d602d2d	0.054730583
245	0x3dfaa6c7	0.122388415
246	0x3dac021c	0.0839884
247	0x3da2252c	0.07917246
248	0x3d9fcb43	0.07802441
249	0xbd95ef47	-0.07321029
250	0xbd940928	-0.07228309
251	0xbe248517	-0.16066395
252	0xbec1aa66	-0.37825316
253	0x3e07795d	0.1322989
254	0x3da5bf1d	0.080930926
255	0xbe0837bd	-0.13302512

classifier.1.bias f4 [64]
0	0x3d9da59b	0.07697602
1	0xbd7e6cba	-0.06211541
2	0x3d642eba	0.055708624
3	0xbc839dd8	-0.016066477
4	0xbc475bcc	-0.012167882
5	0xbd54d824	-0.05196394
6	0x3cedec75	0.029043416
7	0xbd080fac	-0.03321807
8	0xbcb0bbaf	-0.02157387
9	0xbd59af83	-0.053145897
10	0x3ab09bb0	0.0013474133
11	0x3d755357	0.059893932
12	0xbce5c7a3	-0.028049296
13	0x3df81ba8	0.1211465
14	0xba724b5a	-0.00092427956
15	0xbbc2b183	-0.005941571
16	0x3cd7fe83	0.026366478
17	0x3e35b59c	0.1774506
18	0x3da812cf	0.082067125
19	0xbd371330	-0.044696033
20	0x3dcdb949	0.10045106
21	0xbc0627cb	-0.008188198
22	0x3da0373a	0.07823034
23	0x3dcdebdb	0.100547515
24	0x3c3014f3	0.010747182
25	0x3d8c1b16	0.06841104
26	0xbd0fbeb6	-0.035093985
27	0xbd6edcdc	-0.058316097
28	0xbd24b313	-0.04020984
29	0x3e3547b0	0.17703128
30	0x3d2efb0a	0.04271988
31	0x3c448159	0.0119937295
32	0xbcd7cc64	-0.026342578
33	0x3d88067a	0.0664186
34	0xbd154aa5	-0.03644814
35	0xbd318d83	-0.043347847
36	0x3b6d8f6a	0.0036248812
37	0xbd69806b	-0.057007235
38	0xbcd4a453	-0.025957262
39	0xbd14c51b	-0.036320787
40	0xbaa7928f	-0.0012784767
41	0xbced251d	-0.028948361
42	0xbdfdf873	-0.124009036
43	0x3d6e62d0	0.058199704
44	0x3d363b2d	0.04449003
45	0xbcddf28a	-0.02709319
46	0xbaf26452	-0.0018493033
47	0xbce56d7e	-0.028006312
48	0x3dd54224	0.10413006
49	0xbca7db7b	-0.020490399
50	0xbd4e4209	-0.050355945
51	0x3d17a5bc	0.03702329
52	0x3de9d1a1	0.11416937
53	0x3c3812de	0.011234967
54	0xbd5a3345	-0.05327155
55	0xbd181036	-0.037124835
56	0xbcd59324	-0.026071139
57	0x3c7ae4d3	0.015313345
58	0x3e25316c	0.16132134
59	0xbd64c5ac	-0.055852577
60	0x3e218e05	0.15776832
61	0x3d09e1f7	0.033662762
62	0x3d2a985b	0.041649204
63	0x3b0f2a85	0.0021845412

classifier.3.weight f4 [10, 64]
0	0x3e4bc574	0.19899541
1	0xbd72afaf	-0.059249576
2	0x3e0830a0	0.13299799
3	0x3d371c0e	0.04470449
4	0x3db3be44	0.08776525
5	0x3db43989	0.088000365
6	0xbc2fdf3b	-0.010734375
7	0x3cba22d2	0.022721682
8	0xbc78c9fd	-0.0151848765
9	0x3df22121	0.11822725
10	0x3db135ba	0.08652826
11	0x3e2909c0	0.16507626
12	0xbdfc4d33	-0.12319412
13	0xbe8f32b5	-0.27968374
14	0x3e4ebc8f	0.20189117
15	0xbcaddbaf	-0.021222917
16	0xbdf1add2	-0.11800732
17	0xbe5f4f25	-0.21807535
18	0xbe09468f	-0.13405822
19	0x3daaaeca	0.083341196
20	0x3dc045ca	0.09388311
21	0xbdd70a70	-0.10500038
22	0xbe59dab1	-0.2127483
23	0x3d0d4402	0.034488685
24	0xbba862f5	-0.0051387497
25	0xbe176619	-0.14785041
26	0xbbab2d07	-0.0052238735
27	0xbd2cd60d	-0.042196322
28	0xbdde30b8	-0.10849136
29	0xbe7b64a0	-0.24550104
30	0x3dccc7f9	0.09999079
31	0xbe7fe5e8	-0.24990046
32	0xbd1f0451	-0.038822476
33	0xbe000b6e	-0.1250436
34	0xbdfb0c1a	-0.122581676
35	0x3de24cf5	0.11049835
36	0xbcc86c81	-0.024465801
37	0x3db5df11	0.08880437
38	0x3de8dd43	0.11370327
39	0x3ca213f4	0.019784905
40	0x3d7bf3b8	0.061511725
41	0x3d7d21b9	0.06179974
42	0xbe18d387	-0.14924441
43	0xbddac4d8	-0.10682076
44	0x3c09db1e	0.008414058
45	0xbd575448	-0.05257061
46	0xbcd114f6	-0.02552269
47	0x3d49cc96	0.049267374
48	0xbd9bab18	-0.07600993
49	0x3dc2b111	0.09506429
50	0xbd4c3b99	-0.049861524
51	0x3dd3d6f5	0.10343734
52	0x3cb58df2	0.022162411
53	0x3c80816c	0.015686713
54	0xbc8cfe7d	-0.017211193
55	0x3cf13568	0.029444411
56	0xbd54dfdd	-0.051971305
57	0xbe12ece5	-0.1434818
58	0xbeba4f57	-0.36388656
59	0xbd369480	-0.044575214
60	0xbdc9760a	-0.09836967
61	0xbe676934	-0.22598726
62	0x3e1978f1	0.14987542
63	0x3c1a9ed1	0.009437279
64	0x3bfa1efc	0.007633088
65	0xbdff53a0	-0.12467122
66	0xbe877c3c	-0.2646197
67	0x3d961810	0.07328808
68	0x3e26cb43	0.16288476
69	0x3bba4eab	0.0056856475
70	0x3d55f140	0.052232027
71	0x3c84a5c9	0.016192334
72	0x3d948d36	0.07253496
73	0xbe4ac399	-0.19801177
74	0xbcff5517	-0.031168504
75	0x3d9b39b7	0.075793676
76	0x3e534742	0.20632651
77	0x3f32893b	0.6974065
78	0xbdb9c914	-0.09071556
79	0x3e22e6be	0.15908334
80	0xbe4d8490	-0.200701
81	0x3f2258c5	0.634167
82	0x3e490b5c	0.1963324
83	0x3d20de9c	0.039274797
84	0x3d0a2a4e	0.03373175
85	0x3c98ba7d	0.018643612
86	0xbe7d1649	-0.24715532
87	0xbe2d3f1d	-0.16918607
88	0xbdc46b98	-0.095908344
89	0xbe7b354a	-0.24532047
90	0xbd3c464b	-0.045965474
91	0x3d6a1b4d	0.057154942
92	0x3d174a7c	0.03693627
93	0x3f5aa61f	0.8540973
94	0xbe3095ee	-0.17244694
95	0x3c708d81	0.014682175
96	0xbe545d38	-0.20738685
97	0x3de2d274	0.11075297
98	0xbd89b620	-0.06724191
99	0xba628143	-0.00086404773
100	0xbdb6479c	-0.08900377
101	0xbdf21477	-0.118203096
102	0x3d3fc9c0	0.046823263
103	0xbd1588b3	-0.03650732
104	0xbc5c8e2d	-0.013461632
105	0x3d766af8	0.060160607
106	0xbe2bbae1	-0.16770507
107	0x3ed4f5aa	0.41593677
108	0x3ea5afb9	0.32360628
109	0xbcf76c02	-0.03020287
110	0xbec27a9d	-0.37984172
111	0xbde7e6b3	-0.11323299
112	0x3d3d44c2	0.04620815
113	0xbd9489d2	-0.0725285
114	0xbcd78ccc	-0.026312254
115	0xbe2eca66	-0.17069396
116	0x3d30ff6a	0.04321233
117	0x3c6fc10a	0.014633426
118	0xbd24585a	-0.04012332
119	0x3e002a9b	0.12516253
120	0xbe04742f	-0.12934946
121	0xbe7014da	-0.23445454
122	0x3e347804	0.17623907
123	0xbc60508c	-0.013691079
124	0x3d25d078	0.040482014
125	0x3dad8c71	0.08474053
126	0xbe7f8baa	-0.24955621
127	0x3d8e566a	0.06950076
128	0xbd643b7b	-0.055720787
129	0xbe03335e	-0.12812564
130	0x3cfefc79	0.031126248
131	0x3cde6d03	0.02715159
132	0x3e696deb	0.22795837
133	0x3d89e768	0.0673359
134	0x3d411f20	0.047148824
135	0xbdf59c14	-0.1199266
136	0xbd1d5426	-0.03841033
137	0x3d62a96a	0.055337347
138	0x3e7e2f50	0.24822736
139	0xbdd9bc42	-0.106316105
140	0x3d3225d7	0.043493118
141	0xbe2a0f68	-0.1660744
142	0x3e3392d3	0.17536478
143	0xbdcb7ea1	-0.09936262
144	0x3e2db35d	0.16962953
145	0xbe6e3cf9	-0.23265447
146	0xbd86bec7	-0.06579357
147	0x3d60e863	0.05490912
148	0xbe7f9ee0	-0.2496295
149	0xbda1b0be	-0.07895039
150	0xbcf7ae0c	-0.03023436
151	0x3bc073ee	0.005873195
152	0xbdd7cad0	-0.1053673
153	0xbe3a3b16	-0.18186602
154	0x3d124d26	0.035718106
155	0x3d9a6124	0.07538059
156	0x3b30c584	0.0026973197
157	0xbe55e0e2	-0.20886567
158	0x3df3c60c	0.11903009
159	0xbd9c9b48	-0.07646805
160	0x3e0e8c9b	0.13920824
161	0x3e301b08	0.17197812
162	0xbd2eb982	-0.042657383
163	0x3ddad594	0.10685268
164	0x3d836423	0.06415584
165	0x3d9d50d3	0.076814316
166	0xbc203bd2	-0.009779887
167	0x3daaa1f6	0.08331673
168	0x3deb0877	0.11476224
169	0x3d4d4bef	0.050121244
170	0x3da962e3	0.08270814
171	0x3dac69b3	0.08418598
172	0xbcb315d0	-0.021860987
173	0xbdfe57b3	-0.12419071
174	0xbd9b279e	-0.07575916
175	0xbddb9dcd	-0.107234575
176	0xbd38c122	-0.04510606
177	0x3dcf40ce	0.101197824
178	0x3d5e467f	0.05426645
179	0xbe00cdeb	-0.12578551
180	0xbd305d46	-0.043057702
181	0xbdd5b26c	-0.10434422
182	0xbdcf3749	-0.10117967
183	0x3dcf0d4a	0.101099566
184	0x3d4803db	0.0488318
185	0xbe096505	-0.13417442
186	0xbe571a72	-0.21006182
187	0x3d137a18	0.03600511
188	0xbebb083b	-0.36529717
189	0x3e0d615a	0.13806668
190	0xbdfcc31a	-0.123419
191	0x3af5e82d	0.001876121
192	0x3d842373	0.06452074
193	0x3d176506	0.036961578
194	0xbd61f39e	-0.055163972
195	0x3d6d4b35	0.05793305
196	0xbdbac37d	-0.09119318
197	0xbdd2b17f	-0.10287761
198	0xbd10aac4	-0.035319105
199	0xbd383838	-0.04497549
200	0xbde7ca98	-0.113179386
201	0xbd8ff447	-0.07029014
202	0x3dc4a4ba	0.096017316
203	0x3d89c900	0.06727791
204	0xbded386e	-0.11583029
205	0xbe32d687	-0.17464648
206	0x3d084570	0.033269346
207	0xbe82d58e	-0.25553554
208	0x3e87e48b	0.26541552
209	0xbe7cb720	-0.24679232
210	0x3deeebde	0.11666082
211	0xb901c94c	-0.00012377388
212	0x3d8f9cce	0.0701233
213	0xbda7322f	-0.08163869
214	0xbdf94a8c	-0.12172422
215	0xbe6beb06	-0.23038873
216	0xbe008ff4	-0.12554914
217	0xbe308a66	-0.17240295
218	0x3c8460f4	0.016159512
219	0xbca63d2a	-0.020292837
220	0xbbd0f312	-0.0063766325
221	0xbe282ba2	-0.16422895
222	0xbe1206c6	-0.14260396
223	0xbd4d41bd	-0.05011152
224	0xbc8d3cb5	-0.017240861
225	0x3d08847c	0.033329472
226	0x3c31f753	0.010862189
227	0xbd9bffb1	-0.07617129
228	0xbdc8d45d	-0.0980613
229	0x3d622f34	0.055220798
230	0xbb8dc72c	-0.0043267217
231	0xbc85ef5a	-0.016349483
232	0xbde6762c	-0.11253008
233	0x3e06b734	0.13155824
234	0xbdf0982e	-0.11747776
235	0x3d365e4c	0.044523522
236	0x3d93f8ca	0.07225187
237	0x3cba72de	0.022759851
238	0xbcffa2a1	-0.031205477
239	0xbdc5ba4e	-0.096546754
240	0x3e691669	0.22762455
241	0x3c248baf	0.010043069
242	0xbd7700fb	-0.06030367
243	0x3db45e78	0.08807081
244	0x3d9c0cc7	0.076196246
245	0xbd857566	-0.065165326
246	0xbd03dbed	-0.03219216
247	0x3de62d25	0.112390794
248	0x3deaaf5b	0.11459228
249	0xbd699a28	-0.05703178
250	0xbd8253d8	-0.06363648
251	0x3da3a7cf	0.07990991
252	0xbe9c6c33	-0.305513
253	0x3e201130	0.15631557
254	0x3e28426a	0.16431585
255	0xbd2641a7	-0.040589955

classifier.3.bias f4 [10]
0	0xbde2fc99	-0.110833354
1	0xbda8adb5	-0.08236257
2	0xbcdebe22	-0.027190272
3	0xbd100c96	-0.035168253
4	0xbd40c93d	-0.047066916
5	0x3c1ce9da	0.009577239
6	0xbde9a8e0	-0.114091635
7	0xbe0a2422	-0.13490346
8	0x3cc445cc	0.023959063
9	0xbd2c3471	-0.0420422
