debate_mnist/models/16.pth (torch, 609415 bytes, 8 tensors)

conv1.weight f4 [32, 2, 3, 3]
000000 1e 92 7b 3d 84 d5 6a 3d 76 14 1a be d6 fa 88 3e
       0.061418645 0.05733253 -0.15046868 0.26753873
000010 3f 30 cc be 90 00 e2 bd 5c cf 08 be a0 87 2c 3e
       -0.3988056 -0.110352635 -0.13360351 0.16848612
000020 6b 73 2e 3e 44 ef ba be 5c c2 fe 3e 6a 84 be bd
       0.17036216 -0.3651067 0.4975766 -0.093026
000030 e7 5d dd 3e 05 f5 8c 3c af 74 88 3e 5a e7 14 be
       0.43235704 0.017206678 0.26651523 -0.14541379
000040 8e 1a 0e 3f c9 3c c9 3c 63 69 9c 3a f1 9e 1d ba
       0.5550927 0.024565117 0.0011933263 -0.0006012759
000050 20 86 3b 39 0f 0c 6c ba c3 8b a7 be f4 7d 0f 3e
       0.00017883675 -0.00090044824 -0.32723817 0.14012891
000060 f9 bd 20 be bf 7e a6 be a6 c7 47 bd 82 c0 2a be
       -0.15697469 -0.32518575 -0.048774384 -0.16674998
000070 a7 46 95 3e 5a 9e 81 be 68 92 25 3f e5 fb d4 bd
       0.29155466 -0.25316125 0.64676523 -0.103996076
000080 8c 5c 24 3f ee 35 07 bd 1d 58 37 be 67 15 a7 3d
       0.64203715 -0.033010416 -0.17904706 0.08158379
000090 6e 7e 05 3b ff 54 9e 3e cc 58 3e ba bc f1 43 3a
       0.0020369547 0.30924222 -0.00072611566 0.0007474681
0000a0 44 bc 60 be a4 a3 cf be 40 67 23 3b 69 ac 9d 3e
       -0.21946818 -0.40554535 0.0024933368 0.307956
0000b0 54 6b 87 ba c8 4f 55 be 64 b9 f4 3e e9 8b a6 3e
       -0.0010331669 -0.20831215 0.47797692 0.32528618
0000c0 1e 01 88 3e c1 ed 15 be 6b ff 30 be 98 b8 76 be
       0.26563352 -0.14641477 -0.17284934 -0.24093854
0000d0 ae 2b 36 bd b9 66 cc 3e 24 b6 0c 3d ff 26 88 3d
       -0.04447525 0.3992212 0.03435339 0.06648063
0000e0 c3 ae 04 3d d8 4f 97 3d 1e 63 82 be 92 78 d4 be
       0.03239323 0.07388276 -0.25466245 -0.41498238
0000f0 b6 4d 6a bd 16 a3 95 be 42 16 02 3d ad 76 08 be
       -0.057203017 -0.29225987 0.031759508 -0.13326521
000100 32 42 cc 3e 98 1e e9 3d 2e 19 23 3f 72 ac e0 bd
       0.39894253 0.113827884 0.63710296 -0.10970391
000110 8a 55 35 be 8c b9 59 be 99 8d c8 3e 5d c7 8e 3e
       -0.17708412 -0.21262187 0.3917053 0.27886477
000120 c3 80 a2 3e a7 ba 30 be e5 77 af be 21 36 60 be
       0.31738862 -0.17258702 -0.3427116 -0.21895649
000130 19 21 05 be db 2f 39 3d 62 79 06 3e 56 c0 d2 3e
       -0.13000907 0.045211654 0.13132241 0.41162366
000140 7a bf 4e bd 7f 5a 5f be 2f f0 86 3e 76 46 6a bd
       -0.050475575 -0.21811865 0.2635512 -0.057196103
000150 dd bc 3b 3d de 14 b6 3d 7d 49 b9 3e 60 c2 05 be
       0.04583441 0.08890699 0.3618888 -0.1306243
000160 43 a2 8e bc 9a 99 10 3e 73 bb 40 3d 54 64 c3 3d
       -0.017411357 0.14121094 0.047053766 0.095406204
000170 44 d9 f8 bc 85 f9 a8 3e ef 4e 2e 3e 6d 91 03 3d
       -0.030377038 0.33002868 0.17022298 0.03212111
000180 38 06 29 3f 1b 90 ee 3d 3c 5c 7b 3d 43 52 9e 3d
       0.66025114 0.1164858 0.06136726 0.07730534
000190 19 cb 34 3d a7 c2 5c 3e 46 22 75 be fd 2f 8c bd
       0.044139 0.21558629 -0.23938856 -0.068450905
0001a0 8f 31 bc 3d cc 52 12 bf 10 11 83 bd d5 f4 cb bb
       0.0918914 -0.5715759 -0.06399739 -0.0062242546
0001b0 5c 17 26 bd 16 af 51 be 14 f2 29 3f fe 37 5b bd
       -0.04054962 -0.20476946 0.66385007 -0.053520195
0001c0 a1 3f d9 3e ed ba 85 be d1 63 e2 3b 1d 5d d0 3d
       0.42431358 -0.26119176 0.0069088717 0.1017401
0001d0 2d 05 27 3d 8e 2a 06 bb cc 85 50 3e 86 ac 90 be
       0.04077642 -0.0020472142 0.2036354 -0.28256625
0001e0 0e 1a 41 3e 48 b4 99 be f0 d5 1e 3d 7c 61 92 3b
       0.18857595 -0.30020356 0.038778245 0.0044671874
0001f0 09 e4 8e be a7 79 54 be 9a ee 31 bc 92 cb 28 bd
       -0.27908352 -0.20749532 -0.01086011 -0.041209765
000200 a0 f0 6e 3e ad d7 0e be 52 26 cd 3d a0 27 b7 3d
       0.23333979 -0.13949461 0.10017075 0.08943105
000210 40 db 6e be d2 6f a6 3e 32 79 aa bd cd 0a 83 3c
       -0.23325825 0.32507187 -0.083238974 0.015996361
000220 74 0e f1 bd ff 4c cc be 38 95 3a 3e 2a 49 0f 3e
       -0.11770335 -0.39902493 0.18220985 0.13992754
000230 c7 d5 91 3e ac 59 88 be 4b f7 fa 3e 5b 65 9d be
       0.28483412 -0.26630914 0.49016795 -0.3074139
000240 e8 39 a5 bd 5e 44 21 3d 1c 42 fe bc ee 2f 1c 3e
       -0.08067685 0.03937184 -0.031037383 0.15252659
000250 b3 77 0c 3f c9 96 6a be 34 c2 21 3d 83 97 01 be
       0.54870147 -0.22909082 0.039491847 -0.12655453
000260 16 d9 c1 bc b2 ec 80 be 25 50 b0 3e 11 e6 a6 be
       -0.023663085 -0.25180584 0.34436145 -0.32597402
000270 78 e7 a8 3e de 67 8c 3e 3d 8b 42 be e4 f5 5c be
       0.32989097 0.27422994 -0.18998428 -0.21578175
000280 c7 c7 99 3e 46 42 dd bd 21 d8 a9 bb 42 93 1c be
       0.3003523 -0.10803656 -0.0051832353 -0.1529055
000290 fe cb a1 3c 74 dc 4a 3c 2c c3 de bd 3b b8 50 3f
       0.019750591 0.012381662 -0.1087707 0.81531113
0002a0 da c5 5c 3c 19 04 a6 bd 5a 16 ec bd 0f 0d 5b 3d
       0.013474906 -0.0810625 -0.11527701 0.05347925
0002b0 2c 89 a7 3e 4d 31 2c be 17 85 ca 3d 9a dc 91 3e
       0.3272184 -0.16815682 0.09888666 0.28488618
0002c0 4e 49 c3 be e6 fb 61 3e 52 f1 83 3e 15 36 89 bd
       -0.38141865 0.22068748 0.2577005 -0.066997685
0002d0 a5 14 2b 3d ad e9 1e 3e 22 88 32 3d 4b 68 fd bd
       0.041767735 0.15518828 0.043586858 -0.12373408
0002e0 f7 49 1f 3e 25 48 8d 3d 0b 77 51 bd 2f 25 4a bd
       0.15555559 0.06898526 -0.05113892 -0.049351867
0002f0 4d d1 e7 3c 1f 6b d2 3d 63 2f 09 3e d5 f7 26 be
       0.028298045 0.10274338 0.13396983 -0.16305478
000300 f1 33 5d 3e 00 f6 6f 3f 69 cd 89 3e 7c 96 2e be
       0.21601845 0.9373474 0.26914528 -0.17049593
000310 7e f8 84 be 71 2d 24 be 58 22 3c 3b a8 fc 13 3e
       -0.25970834 -0.1603296 0.0028706994 0.1445185
000320 69 92 51 be 67 fc 72 3b 9b 59 8a 3e 60 14 98 bd
       -0.20466007 0.0037076713 0.2702149 -0.07425761
000330 62 af 20 3a 0a cb 0a be b3 cf 76 bd 29 cd 6d be
       0.00061296497 -0.13554016 -0.06025667 -0.23222794
000340 48 15 b1 bb 23 38 c5 bd e0 64 b6 3e f8 35 21 3f
       -0.0054041483 -0.09629848 0.35623837 0.62972975
000350 ea ac e2 be 2b f2 a2 be 0f 89 7c be a2 7b 9a 3e
       -0.44272548 -0.31825384 -0.24661659 0.3017245
000360 fa dc 29 bb 45 80 a4 be 23 83 ea 3d 1d 71 c6 be
       -0.0025919066 -0.32129112 0.114507936 -0.38758174
000370 0f 17 01 bf b3 c7 d3 b9 5c 1c 5c bd ea 44 b1 ba
       -0.5042581 -0.00040393844 -0.053737983 -0.0013524566
000380 2a 4b 9b bd 1e 88 1a 3f 1d 8a 0c 3e c1 1c fb 3e
       -0.07582696 0.6036395 0.13724561 0.49045375
000390 33 9f 83 3b 36 94 a8 be df 71 92 bd 43 81 cf 3e
       0.0040167808 -0.32925576 -0.071506254 0.40528306
0003a0 ed f3 d5 3e 90 71 63 bc d4 d8 25 3e 53 5a 9f 3e
       0.41787663 -0.013882056 0.16195995 0.311236
0003b0 f6 38 de 37 3e 84 d1 bd b9 69 c1 be 42 c5 46 be
       2.6490987e-05 -0.10230301 -0.37775972 -0.19411185
0003c0 2d 27 46 3e 82 43 75 be 09 a1 01 be 30 24 33 be
       0.19350882 -0.23951533 -0.12659086 -0.17494273
0003d0 25 df 72 3d 50 7c 22 be dc 2a 63 be e2 80 0c 3d
       0.05929484 -0.15867734 -0.22184318 0.0343026
0003e0 1d 3e 9e bd 3e 7b 16 3f a6 9e 43 be 96 80 6b be
       -0.07726691 0.587818 -0.19103488 -0.2299827
0003f0 be a4 5c bd ac e7 9b b9 cb 04 3d ba 51 ab 8f be
       -0.053868048 -0.00029736513 -0.0007210492 -0.28060392

conv1.bias f4 [32]
000000 c2 3f 78 bd 28 91 16 3e 29 25 3e ba 59 5a 08 bd
       -0.06060768 0.1470381 -0.0007253462 -0.033289287
000010 34 6d 34 3e 42 86 4d 37 e4 d8 05 3d 5e 1d 76 3e
       0.17619783 1.22502115e-05 0.032677546 0.2403464
000020 3c 4b ad 3c 53 09 b4 3d 92 b1 2d bd 79 77 9e ba
       0.021154039 0.08790841 -0.042405672 -0.0012090049
000030 f7 b6 b3 3a bc f9 b3 3c 79 04 d4 3d 5f 4c 7e 3e
       0.0013711144 0.021969669 0.103524156 0.24833821
000040 5f 29 20 3a 85 cc 16 ba 20 e6 79 3b d0 96 4a bd
       0.00061096804 -0.00057525217 0.003813155 -0.049460232
000050 64 3c 9a 3b 71 4f 1e be e4 e7 57 3e d0 65 c5 3c
       0.004706906 -0.15459992 0.21084553 0.0240964
000060 63 1f 84 bd dc 10 3c 3e 8b 86 1d be 9b 20 6e bc
       -0.06451299 0.18365806 -0.15383355 -0.014534141
000070 7e 28 b0 bb 10 43 e0 bd d5 19 be bc dc 04 8c 3a
       -0.005375921 -0.10950291 -0.023205677 0.00106826

conv2.weight f4 [64, 32, 3, 3]
000000 0e 1d 67 3d b3 77 b0 3b d7 06 5c 3d f5 c4 10 bb
       0.056424193 0.005385363 0.05371746 -0.0022090052
000010 52 3b 59 3d 77 7c ee 3d 42 a1 a4 3c 3b ff 67 3d
       0.053035088 0.116448335 0.020096425 0.05663989
000020 e1 1e 7f bd 46 91 f3 bd 32 0c 3f bd e6 3d 24 3e
       -0.062285308 -0.11892943 -0.04664249 0.16039237
000030 1f 52 2f bd 31 33 c0 3c e9 37 8b bc 7e 14 81 bd
       -0.042802926 0.02346191 -0.016994433 -0.06302737
000040 c5 65 7d 3d 85 4f 57 bc 0c 0e 42 3d b8 71 64 3d
       0.061864633 -0.0131415175 0.047376677 0.055772513
000050 c9 e2 f3 bd dd 6e 65 3c a2 8e 31 bd 51 dc 25 3e
       -0.1190849 0.014003483 -0.043348916 0.16197325
000060 b0 de 62 3b 91 65 93 3d 3e e3 44 bc 87 fc 48 bd
       0.0034617595 0.07197107 -0.012017069 -0.049068954
000070 76 4b 09 bd 61 9d 99 3d 3a 4a 89 bd c7 c0 45 3d
       -0.03351923 0.07500721 -0.06703611 0.04827955
000080 35 c6 48 3d e8 33 bc bd d8 58 14 3e bb 5f ac 3b
       0.04901715 -0.09189588 0.14487016 0.0052604354
000090 fc 1a 8d bd ee 75 9d bd 94 a4 a8 bc 5f 77 d3 3b
       -0.068899125 -0.07688509 -0.02058629 0.006453439
0000a0 a3 95 07 bd 29 a7 d7 3d 70 6a 41 3d 73 53 5a bd
       -0.03310169 0.1052993 0.047220647 -0.05330224
0000b0 09 28 00 3e e6 15 fd 3d 42 60 83 3d 24 4b 03 be
       0.12515272 0.123576924 0.06414844 -0.12821633
0000c0 08 8f f6 3d 5c db 01 3b b3 21 25 3e f1 4d 63 3e
       0.12039 0.0019814586 0.16126136 0.22197701
0000d0 0f e7 b4 bd 61 44 5c bc 34 70 fb bc 51 90 f9 3c
       -0.088331334 -0.013444037 -0.030693151 0.030464323
0000e0 c9 aa 9c bd ed ad 0e 3c 2f e0 5d bd c9 da b0 3d
       -0.07649762 0.008708459 -0.054168876 0.0863548
0000f0 ac 39 ea bb a3 82 06 bc 5b 13 5e 3d 45 30 68 bd
       -0.0071479883 -0.008209857 0.054217678 -0.05668666
000100 7d ea 87 3c 60 6e a9 3d da 57 ae bd 22 d2 cb ba
       0.016591305 0.082730055 -0.0851285 -0.0015550295
000110 cc 97 18 3d 42 24 1a bd 5b 32 0b bc f0 6d 4f 3d
       0.03725414 -0.037632234 -0.008495892 0.050641954
000120 7e da 88 3d 0f 6b 10 bc 36 da 02 bd 5d 37 02 3d
       0.06682299 -0.008814587 -0.031946383 0.03179108
000130 76 69 d8 bc 47 37 48 3e 40 8b 51 bd c0 87 45 bd
       -0.026417475 0.19552337 -0.05115819 -0.048225164
000140 c2 71 b3 bd 23 2f 2f bd 3d 5f 9d bd 33 f0 97 3c
       -0.08761932 -0.042769562 -0.07684181 0.018547153
000150 a2 78 02 3d c4 b7 29 3e 8e 81 f3 3d eb 8e 1d 3c
       0.031853326 0.16574007 0.11889945 0.009616594
000160 61 5c 0c bc b1 88 02 3c 51 35 ac bd 17 6e 00 3d
       -0.008566947 0.00796716 -0.08408607 0.03135499
000170 0e 15 77 3e 62 ba 78 bd 97 aa 40 bb c2 65 41 bd
       0.24129125 -0.060724624 -0.0029398554 -0.047216184
000180 3a be 6a 39 34 9c 8e 3b 42 91 c8 3d 43 51 72 3c
       0.00022386844 0.004352117 0.09793331 0.014789882
000190 4a b3 e1 bc fe ea cc 3d bb ba 0d bd 74 73 7b 3d
       -0.027551312 0.10005759 -0.03460191 0.0613894
0001a0 e6 8f f7 3d 48 ef 25 bd 10 f4 83 3d ac 3f 9f 3d
       0.12087993 -0.0405114 0.064430356 0.07775816
0001b0 c2 80 50 bd 6c 4e f1 bd 9d ef 89 3d 47 5e 3b bd
       -0.050904043 -0.11782536 0.06735156 -0.045744207
0001c0 9f be 23 3d 76 7a 05 3e 06 30 2f bc 85 38 0c 3e
       0.039976712 0.13034996 -0.010692602 0.13693435
0001d0 28 aa c1 bc dc 35 95 3d 3a 83 00 3d 15 7c 83 3d
       -0.023640707 0.072856635 0.031375147 0.06420151
0001e0 ed 0e 85 bd 6e a1 b9 3c fa 1f f1 3b 44 b0 db 3b
       -0.064969875 0.022659983 0.007358548 0.006704362
0001f0 c0 ce 2a bd 54 3c 27 3e 31 08 ba 3c 46 18 46 bd
       -0.04170108 0.16331607 0.022708984 -0.048362993
000200 8f 52 a9 3c ca 5b cb bd 4f 9f e4 3c f9 9e d5 3d
       0.02066925 -0.09929617 0.027907996 0.10430712
000210 aa 43 27 3c b9 ca 6e 3c 2d 48 85 3d 83 e4 cb 3c
       0.010209003 0.0145747 0.06507907 0.024889236
000220 28 65 38 bd 61 48 95 bd 75 98 8d 3d 80 90 ad bd
       -0.045018345 -0.07289196 0.069138445 -0.08474827
000230 16 1f 69 3d 13 cb 1f 3d d3 f9 eb bb f8 10 0b 3d
       0.05691441 0.039012026 -0.007201412 0.03395173
000240 ab 51 a1 3c 5a 4e 7b 3d a6 fc 24 3d de 32 03 3d
       0.019692263 0.06135402 0.040280007 0.032030933
000250 a2 53 17 bd 88 25 2f 3d f6 5e ef bc b0 bf b8 3d
       -0.036944993 0.042760402 -0.029220086 0.090209365
000260 4c 66 2d 3d 48 2d d0 b9 7f 14 20 bd 05 41 19 bd
       0.042333886 -0.0003970659 -0.039082047 -0.037415523
000270 91 80 63 bd b8 00 a9 3d fb 03 28 3e 69 48 0b bd
       -0.055542532 0.0825209 0.16407768 -0.034004603
000280 61 0b ba bd 9f 59 78 3b f4 d0 90 3d 6d d5 5c 3d
       -0.090842016 0.0037895215 0.07071105 0.053914476
000290 cf 14 98 bc d5 c4 da 3b a4 3f 59 3d b5 b6 01 3e
       -0.01856461 0.0066762962 0.053039208 0.12667353
0002a0 19 3d 41 3d 58 ca aa bc 26 d1 bd 3b f9 32 b6 bc
       0.047177408 -0.020848438 0.0057927547 -0.022241103
0002b0 b2 9e 95 3d 43 d0 df 3c 0b 7e c8 3c 26 f2 7a 3b
       0.07305659 0.027320987 0.024474164 0.0038291304
0002c0 5d 69 33 3e b7 87 69 bd 4d ab 32 3d 6c 59 44 bd
       0.17520662 -0.057014193 0.043620396 -0.04793684
0002d0 48 e1 b5 3c e8 28 79 3d 67 71 8a bd 45 5f 5b 3c
       0.022202149 0.060830027 -0.06759911 0.013389413
0002e0 00 2d 34 bb 5a 65 4c 3e e9 1e 90 3d 82 f3 fb bd
       -0.0027492642 0.19960538 0.07037146 -0.12302305
0002f0 90 2f e2 bd d3 b2 a8 bd 72 9e 0c ba 90 d5 2a 3e
       -0.11044228 -0.08237233 -0.00053641864 0.1668303
000300 e9 54 12 3c 88 2a 67 bb e6 9c 94 bd 6a 70 bc 3d
       0.008931377 -0.0035273153 -0.072564885 0.09201129
000310 e8 94 36 bc ce c2 9c bd bf 3e 59 bd 5d 1c d0 bc
       -0.0111439 -0.076543435 -0.053038355 -0.02540415
000320 56 83 05 3e 26 7e b8 bd a7 7f f4 bc 8e ea a1 3b
       0.13038382 -0.09008436 -0.029846026 0.004941291
000330 62 e0 78 3b a7 d1 96 3d 51 e0 c4 3d f6 84 00 bd
       0.003797554 0.07364207 0.096130975 -0.0313768
000340 db f2 26 bc 83 eb bd 3d 52 f7 33 bd fc d0 dd 3d
       -0.010189737 0.09273436 -0.043937035 0.10830876
000350 59 9a fc 3d 17 9f af 3c 3b fd 86 3d 93 05 a8 bc
       0.12334127 0.021438165 0.06591269 -0.02051047
000360 33 eb 19 bd 2f 86 79 bd 37 eb 0c 3e f1 e4 9a bd
       -0.03757782 -0.060918983 0.13761602 -0.07563198
000370 46 c7 d1 3d a5 f2 0b bc a4 6e 8c b9 bc 0b b1 3d
       0.102430865 -0.008541738 -0.00026785315 0.08644816
000380 2f 67 5f bd 82 1e ee bd 0b 40 12 be 04 1a 4e bc
       -0.054541763 -0.11626913 -0.14282243 -0.012579445
000390 22 9a 3c bd 69 1b 4e bd 1b d0 57 3e 29 45 8e bd
       -0.04604543 -0.05031911 0.2107548 -0.06946785
0003a0 7d 8d 12 3d 7b c3 ed bc 55 1d fb bc 63 8f 01 be
       0.035779465 -0.029023876 -0.030653635 -0.12652354
0003b0 75 23 89 3d 10 56 98 bc 6b 31 b7 3d a4 64 95 bd
       0.06696216 -0.018595725 0.089449726 -0.07294586
0003c0 ac 56 94 3d 27 66 9b 3d 6c d4 a9 3d 1d 67 66 bc
       0.07243094 0.075878434 0.082924694 -0.01406267
0003d0 18 2d 63 bd ed 5e 5a 3d 9a 89 80 bb 17 e5 ed 3d
       -0.055462927 0.053313185 -0.0039226534 0.11615961
0003e0 52 55 e2 3d 62 78 11 3d bc 34 b2 3d ef ca a6 3d
       0.1105143 0.035515197 0.087014645 0.08144175
0003f0 67 f8 9a bb be 17 7f bc 84 9d 4f 3e 24 5b a7 bc
       -0.004729319 -0.015569625 0.20274931 -0.020429201

conv2.bias f4 [64]
000000 d7 20 3f bd bd f0 25 3c a7 7d 62 bd e6 c7 17 bd
       -0.046662178 0.010128197 -0.055295613 -0.037055872
000010 24 71 e8 bc 2f 17 7e bd 1f 3a 9e bc 0e b6 8e 3b
       -0.028374262 -0.06203383 -0.019314824 0.0043551987
000020 30 3e b1 bd 33 6c d2 bd e2 7f 46 3d 05 cf 37 3d
       -0.086544394 -0.102745436 0.048461802 0.044875164
000030 f5 93 f0 bd 2e bf 24 bc fe 82 f3 bd c0 aa 88 bd
       -0.117469706 -0.010055346 -0.11890219 -0.06673193
000040 24 5a 9f bd 17 2d 55 bd c2 4d 0a 3d 0c 5d e5 3c
       -0.07780865 -0.052044954 0.033765562 0.02799847
000050 c1 e4 df bd 01 ee 15 bc a8 b6 f6 3c f2 5b a0 3c
       -0.10932303 -0.009150983 0.030116394 0.019575093
000060 8d 01 42 3d a5 88 54 bd a8 c7 58 bd de bf 9d 3c
       0.04736476 -0.051888127 -0.052924782 0.019256528
000070 03 1e 88 bd 90 c9 81 bd eb 6b 47 3c 64 a3 d8 bc
       -0.06646349 -0.06337273 0.012171726 -0.026445098
000080 5d 49 12 bd 29 6a 02 bc 08 92 24 bd 86 e1 68 bd
       -0.035714496 -0.007959881 -0.04017833 -0.0568557
000090 8d eb 2d 3d e8 16 41 bd 4b cc 96 3c 4a d9 98 bc
       0.042460967 -0.047140986 0.018407961 -0.018658299
0000a0 9b fe 3b 3d 41 c9 c6 3c 08 8e de bc 2b c9 ac bd
       0.045897108 0.024265887 -0.027167335 -0.08436807
0000b0 e5 c9 98 bd 6d fd 2d bd 2f 55 c0 bd ad 92 c1 3b
       -0.07460383 -0.042478014 -0.093912475 0.0059073777
0000c0 1a 69 f0 bc 33 cf 50 bd 67 0b 28 bd a2 90 01 3d
       -0.029346991 -0.05097885 -0.0410265 0.031632073
0000d0 7d b9 16 bd fd fd 86 bd b7 74 44 bd 68 76 f3 bc
       -0.03679799 -0.06591413 -0.04796287 -0.029719546
0000e0 98 fc ae bd d4 33 0b bc 85 9d 7a bd ad 73 b7 bd
       -0.08544272 -0.0084962435 -0.06118538 -0.0895761
0000f0 3d 7d 52 3c cb e7 aa bd e0 fa 47 bd 26 a2 e3 3b
       0.012847242 -0.08344992 -0.048823237 0.00694682

fc1.weight f4 [128, 1024]
000000 91 6b 3f 3c a5 bb 48 bc 36 80 ac bc 07 ad 3c 3c
       0.011683361 -0.012251769 -0.02105723 0.011515862
000010 13 a3 b8 bc 2b fa 83 3b f8 e8 b4 3b e8 53 86 bb
       -0.022538697 0.004027625 0.005520936 -0.004099358
000020 28 03 1e bc da 56 bd bb 3b 29 ac bc 47 af 8d 3c
       -0.009644307 -0.005778176 -0.021015754 0.017295493
000030 85 58 a6 bb 2c a7 7c bc 48 d9 a2 bc fa d7 2e 3c
       -0.0050764703 -0.015420716 -0.019878998 0.01067161
000040 6b df b9 bc 58 5e 1b 3c 0a 8d 4c bb 63 88 02 bd
       -0.022689542 0.0094829425 -0.0031211996 -0.03186835
000050 b5 5c 89 3c 6a 9d 16 3c 89 a5 23 3c cd 3a 8d bc
       0.016767839 0.009192804 0.009988197 -0.017239952
000060 40 75 f4 bc 03 50 3d 3c 4a c9 e1 bc 5e 2b 3e 3c
       -0.029841065 0.011554721 -0.027561802 0.011607019
000070 86 f1 c7 3c 3e 86 d6 bb 08 49 e5 bc 93 33 a4 3c
       0.02440716 -0.0065467646 -0.027988926 0.020044124
000080 3f 98 05 bd 63 7b 55 bc 5a b9 d3 bc 8b d1 2f 3c
       -0.032615896 -0.013029906 -0.025845218 0.010731111
000090 c5 89 d1 3c 5b 9f b9 bc 46 d0 a8 bc 14 bd b9 3c
       0.025578389 -0.022658994 -0.020607125 0.022673167
0000a0 60 ef 50 3c 2f 7f 9e 3c 80 48 cd bc c2 76 d9 3c
       0.012752384 0.019347755 -0.025058985 0.026545886
0000b0 68 58 64 bc 67 35 a2 bc 59 88 54 bc f3 d0 04 ba
       -0.013937093 -0.019800855 -0.012971961 -0.0005066536
0000c0 a0 fd 74 3c 3d ca 36 bc 68 27 b3 bc a9 69 6f 3b
       0.014953047 -0.011156616 -0.021869376 0.0036531484
0000d0 55 c2 06 bd 2c 39 d8 bc d6 ed 82 3b 17 cd d1 3c
       -0.032900173 -0.02639445 0.0039956374 0.02561049
0000e0 7a 78 a2 bc f0 23 88 3c 7d d9 b4 bc 8a be 51 bc
       -0.019832838 0.016618699 -0.022076363 -0.012801776
0000f0 9c 1e e8 3c 83 e4 e6 3b 30 d5 70 bc 41 8f 80 bc
       0.028334908 0.0070462837 -0.014699265 -0.015693309
000100 6a 58 89 3b cd 27 89 3c d5 ee ab 3c 16 30 77 b9
       0.004191448 0.016742611 0.020987907 -0.00023573669
000110 cb 29 97 bc 0b 51 53 3c ec 3a f0 bc d5 1f 60 bb
       -0.018452546 0.01289774 -0.029324971 -0.003419866
000120 c7 8c 00 bd 50 ef 14 bc 1f 43 5d bb 1c 39 bc 3c
       -0.031384256 -0.00909026 -0.003376193 0.02297645
000130 14 d8 88 3b ae 19 c2 bc 37 6e 40 3c a5 42 e9 ba
       0.004176149 -0.023693886 0.011745027 -0.0017796351
000140 d0 cf b8 bc 38 85 ee bc bb 09 78 3b 99 6a a6 bc
       -0.02256003 -0.029116258 0.0037847597 -0.020314502
000150 e6 67 6a bc 54 2a 83 bc b7 8c d4 bc 39 80 bb bc
       -0.014306998 -0.016011395 -0.025946004 -0.02288829
000160 4c fa e2 bb 00 5b 49 ba 24 73 97 3c 1f a9 e7 bc
       -0.0069268104 -0.00076811016 0.01848752 -0.028278885
000170 6c 61 c8 3c d4 64 ec 3c e8 8a f7 bc 96 d8 a4 3c
       0.024460517 0.028856672 -0.030217603 0.020122807
000180 82 94 b7 3c 36 ee dd bc 9a 8d 54 3c de 86 3f 3c
       0.022409681 -0.027091127 0.012973214 0.01168987
000190 7e d8 65 3c 47 52 61 bc 6c 28 99 bc 93 b2 55 bb
       0.014028667 -0.013752527 -0.018696032 -0.003260766
0001a0 64 29 2f bc 27 85 54 3c cc 3a c4 bc 0b 69 c2 3c
       -0.010691021 0.012971199 -0.023953818 0.023731729
0001b0 d5 5f 37 bc 41 95 8a 3c de 5f 38 bc 8b 68 d5 bb
       -0.011192282 0.016916873 -0.011253325 -0.0065127066
0001c0 eb ac 15 3b bd 8f fa bc 43 11 39 3c fc 15 da 3c
       0.0022838663 -0.030586118 0.011295619 0.026621811
0001d0 4d e2 d1 bc 35 7e 15 3c 3b e9 00 bd fb d6 49 bb
       -0.025620604 0.009124328 -0.031472426 -0.0030798304
0001e0 54 6f 7e bc 17 92 e6 bc ee c5 4f 3c 62 dc 89 3c
       -0.015529472 -0.028145833 0.012681467 0.01682872
0001f0 34 2b 3d 3b 46 f9 14 3c 65 cd 98 bc 6c fa 9a 3c
       0.0028864862 0.009092635 -0.018652627 0.018918239
000200 99 f2 e6 bc cd 2d 40 bc 13 55 6c bc 77 c7 7c bc
       -0.028191851 -0.01172967 -0.01442458 -0.0154284155
000210 35 69 b9 3c 7f 01 b0 3c ac 49 62 3c 1a fe 78 bc
       0.022633174 0.021485088 0.01381151 -0.015197301
000220 8e 2a a8 bc c9 52 21 bc 00 ca 76 bc 5d d8 03 3a
       -0.020528104 -0.009846398 -0.015062809 0.0005029494
000230 01 94 5f 3c 4d 03 df 3c 69 fc 9b 3c 27 b3 ea bc
       0.013646127 0.027223254 0.019041257 -0.02864988
000240 34 f4 c5 3c 43 02 04 bd 25 40 9f 39 d9 07 9f 3a
       0.024164297 -0.03222872 0.00030374635 0.0012133076
000250 dd c3 06 bc b7 a7 4f bc 8e 37 84 bc 44 63 71 3c
       -0.008225408 -0.012674264 -0.016139772 0.014733139
000260 2c f3 bb bc d2 cd 86 3b 99 bc 0d 3c 25 e6 bd 3c
       -0.022943102 0.004113891 0.008650922 0.02318103
000270 79 6a f9 ba 6e b9 cb 3c 1b a7 05 bd 8e 3c 9e bc
       -0.0019028924 0.024868693 -0.032630067 -0.019315984
000280 3a 64 f4 bc d7 80 87 bb 98 4a b4 bc 56 b7 90 3c
       -0.029832948 -0.004135232 -0.022008225 0.017665546
000290 48 b3 93 bc 30 3d 5b b7 fe 88 c2 3c b5 9b 0b bd
       -0.018029824 -1.30676635e-05 0.023746964 -0.03408404
0002a0 0e a4 27 3c b3 d8 ef bc d2 8a 43 3c 11 30 3e bc
       0.010231985 -0.029278135 0.011934953 -0.01160814
0002b0 55 98 f7 bc 81 d3 00 3b 79 a7 c5 b9 18 fb fc 3b
       -0.030224005 0.0019657316 -0.00037699545 0.0077203624
0002c0 25 9a 7c 3c af 16 c8 bb f0 0d 80 bc 0d 95 e8 3c
       0.01541761 -0.0061062197 -0.015631646 0.028391385
0002d0 bc 3a 50 bc c7 e8 c2 3c 08 ec 91 3c e3 48 09 bd
       -0.012709316 0.023792638 0.017812744 -0.033516776
0002e0 29 bd 2e bc cc 6e f8 39 1e 62 e7 bc 4c c0 21 3b
       -0.0106652165 0.00047384796 -0.028245028 0.0024681268
0002f0 b4 3c 75 bc df d7 94 bc 56 eb aa 3c 54 e1 34 3c
       -0.014968086 -0.018169342 0.02086417 0.011040051
000300 75 d1 e8 3c e0 ad 14 bc 69 79 3d bc 43 53 af bc
       0.02842019 -0.009074658 -0.011564591 -0.021402007
000310 15 12 60 3a 51 e2 b2 3c 90 27 60 bb 91 d5 5c bc
       0.00085476163 0.021836432 -0.0034203269 -0.013478653
000320 4f d1 97 3c 08 4d b9 b9 7e 7f e8 3a 82 6e db 3c
       0.018532423 -0.00035343342 0.0017738191 0.026786093
000330 61 e9 e6 3c a3 ef e8 3c d9 14 f3 bc 59 36 7d 3b
       0.028187456 0.02843458 -0.029673027 0.003863713
000340 cc 3d b4 3c bc 76 c8 3c 2b d3 f3 bc bf 25 a7 3c
       0.022002123 0.02447068 -0.029763779 0.02040374
000350 ba 98 92 bc 89 43 95 bc cd 1f a6 bc ea ec 9d bc
       -0.017895091 -0.01822068 -0.020278836 -0.019278008
000360 9f 4a ff bb 29 4e 51 bb 0e f7 85 bc 73 e1 8e 3c
       -0.007790878 -0.0031937456 -0.016353156 0.017441487
000370 6b ab a8 bc b4 7c ce 3c 80 98 fc bc 63 2d fb 3b
       -0.020589551 0.025205947 -0.030834436 0.0076653226
000380 79 16 b8 bc 68 27 a8 bc 94 50 8b 3b 41 69 0e bc
       -0.022471653 -0.020526603 0.004251549 -0.008692087
000390 2f 41 bf bc af 37 79 bb ec f8 d3 bc 01 77 b3 bc
       -0.023346512 -0.0038027575 -0.025875531 -0.021907331
0003a0 97 39 8a 3c 50 21 11 3a 7f a0 45 bc 8d 9e b3 3c
       0.016873164 0.0005536275 -0.012062191 0.021926189
0003b0 b0 b5 a6 3a 93 95 a5 3c 65 8c 2d 3c 12 7a 6b b9
       0.0012718942 0.020212924 0.010592555 -0.00022456821
0003c0 f2 a7 75 bc f6 4a 8b bc 61 cf c6 3c 93 f9 a1 3b
       -0.014993655 -0.017003518 0.024268808 0.0049430816
0003d0 b2 12 c0 3c 73 4a 80 3c 3a 85 89 bb be 6f 01 bd
       0.023446415 0.0156605 -0.00419679 -0.031600706
0003e0 90 4d 37 3c 40 54 03 bc dd 07 74 3b 9e b5 6f bc
       0.011187926 -0.008015692 0.0037236132 -0.014630703
0003f0 37 ae b1 3c 79 02 e5 3c 46 2e ac bc a8 2f 1e bc
       0.021689517 0.02795528 -0.021018159 -0.009654917

fc1.bias f4 [128]
000000 ea f2 a0 bc cb 2d 08 3d 9f d6 ad 3c 56 fb ac 3b
       -0.01964708 0.033246797 0.021220503 0.005278985
000010 bf 14 69 bc 06 0c 04 bb 7a e7 87 3c 43 79 96 3c
       -0.014226138 -0.0020148768 0.016589869 0.018368369
000020 38 d7 8e 3c 27 78 bc bc 35 51 2d bc 3f 3b 13 3b
       0.017436609 -0.023006512 -0.010578443 0.0022465733
000030 d0 88 7a 3c 4b 8c eb bb d4 59 7a 3c 43 85 e6 bc
       0.015291408 -0.007188355 0.015280206 -0.028139716
000040 a3 00 c7 bc 9f e7 c8 3c 61 a6 50 3c cf 3c 3f 3c
       -0.024292296 0.024524508 0.01273498 0.011672213
000050 9f c1 75 bb d0 11 31 3d 17 74 31 bd 4e 94 18 3d
       -0.003749944 0.043229878 -0.043323603 0.03725081
000060 8c fa 5c 3d 5c 66 33 3c 87 bc ca bc 3a 2e 82 3a
       0.053949878 0.010949697 -0.0247481 0.000993199
000070 f1 d7 89 bc b8 c9 94 bb f7 22 d9 3a 9f db af 3c
       -0.016826602 -0.0045406483 0.0016566206 0.021467028
000080 01 f6 26 3d 2c 96 1a bc 2c 87 70 bc 98 37 8e 3b
       0.04076195 -0.009435218 -0.014680665 0.0043401234
000090 a3 5d 81 3c c9 a7 49 ba f3 99 aa 3c da 30 5c bc
       0.01579172 -0.00076925434 0.020825362 -0.0134393815
0000a0 b1 70 62 3d 83 92 95 bc 71 e6 2d 3c b3 e7 98 3c
       0.055283252 -0.018258339 0.010614024 0.01866517
0000b0 5b 32 6a bc 1b e3 38 3c 5b 42 d8 3b f7 91 b9 3c
       -0.014294232 0.011284615 0.006599707 0.02265261
0000c0 1c 08 f0 bc 44 44 e3 3c 73 12 1a bc e3 08 71 bc
       -0.029300742 0.027742513 -0.009403813 -0.014711591
0000d0 ce 02 8d 3c 4e e2 fb 3c fb d7 8f 3b a1 45 07 3c
       0.017213251 0.030747559 0.0043897606 0.008256347
0000e0 3c 22 38 3c 02 69 f8 3c d5 4c 03 3d 7a 89 33 3c
       0.011238631 0.03032351 0.032055695 0.01095807
0000f0 69 c1 09 bd 1a 26 38 3a f2 49 3d bc 83 27 8c 3c
       -0.033631716 0.00070247205 -0.0115532745 0.017108684
000100 ed 0c 1a 3d f7 35 c5 3c 25 f6 1b 3c 5e 24 6e ba
       0.037609983 0.024073584 0.009519135 -0.00090843986
000110 42 1c 08 bd 9c 90 c3 3c 43 fb bb bc e6 47 01 3c
       -0.033230074 0.023872666 -0.02294696 0.007890677
000120 fc ab 48 bc 71 70 18 3d 13 68 8b bc 67 84 a9 3b
       -0.0122480355 0.037216607 -0.0170174 0.0051732543
000130 ad e1 9c 3c 8d 07 00 bd 4c 8b e0 3c 3f 84 32 3d
       0.01915058 -0.0312572 0.027410172 0.04358315
000140 6a 83 f3 bc 1a 5f f8 3c f7 51 ec bc 3d c1 1b bd
       -0.029725749 0.030318785 -0.028847678 -0.038026083
000150 28 c2 dc 3c fe 74 32 3d 13 ed aa 3c 08 24 19 3d
       0.02694805 0.043568604 0.020864999 0.037387878
000160 3b 5a f1 ba 48 09 6c 3d e7 6a f1 3c f7 d1 4c 3c
       -0.0018413732 0.05762604 0.02946992 0.012501231
000170 b7 40 a9 3c 1a 61 64 3d 66 06 3f bb d3 db 8b 3b
       0.020660741 0.055756666 -0.00291481 0.0042681484
000180 75 1d 19 3d 3f 1e 8d bc 5f cd 78 3c 71 db 4e 3d
       0.037381608 -0.017226337 0.015185683 0.050502244
000190 3f d5 8f 39 2f 61 da bc 3a fc 34 3d 25 34 18 bd
       0.00027433966 -0.026657669 0.044185854 -0.037159104
0001a0 de 34 1a 3c b8 81 8b 3b f4 25 39 bb 23 a0 e8 3c
       0.009412019 0.004257407 -0.0028251382 0.028396672
0001b0 57 84 ea 3c 6d 95 00 bd 95 13 06 3c ef 50 ca 3c
       0.028627558 -0.031392504 0.00818338 0.024696795
0001c0 de 5a 10 bc ff 8f b1 bb 67 bf 16 3d 1c 81 5f bb
       -0.008810727 -0.005418777 0.03680363 -0.0034104055
0001d0 cd df c0 bc ae 8d 9e bc 8a a5 f0 bc 07 ec 33 bc
       -0.023544217 -0.019354668 -0.02937581 -0.010981566
0001e0 07 b9 79 3b fa d4 8e 3c 96 6c 2c bc 94 df 68 bc
       0.003810467 0.01743554 -0.010523936 -0.014213461
0001f0 77 1f d0 3c fa 9d f4 bc d6 cc 53 3d 68 e5 0a bd
       0.025405629 -0.029860485 0.05170902 -0.033910185

fc2.weight f4 [10, 128]
000000 1e bf b0 bd e5 59 17 be 52 42 0e be 39 df 51 3c
       -0.08630203 -0.14780386 -0.13892487 0.012809568
000010 ad 9a e3 3d d3 9c 81 bd 3d 83 8a bd cd 75 50 3d
       0.111134864 -0.0632874 -0.06763313 0.050893594
000020 ca 52 6a bd 84 54 6a 3c 8c fd 2b 3d d1 67 59 3d
       -0.05720786 0.014302377 0.041989848 0.053077523
000030 88 da e4 38 d0 c1 de 3d 5e 9f 21 be 8a 62 9c 3d
       0.00010912592 0.108768106 -0.1578345 0.07635982
000040 81 84 2b 3d b4 82 f1 3a fb 0a e3 3d f2 31 d6 bd
       0.041874412 0.0018425793 0.11086079 -0.10458745
000050 cb ad c9 3d 04 32 d4 3c 32 20 89 bd c6 1f 61 3c
       0.098476015 0.025902756 -0.06695594 0.0137404855
000060 ab b1 cd 3d e5 02 20 be f7 2a 87 3c a6 ca 16 bd
       0.10043653 -0.15626104 0.01649998 -0.036814354
000070 da 42 99 bd fe 15 79 3d 8f 33 9f bd cc ec 4f 3e
       -0.07483454 0.06081199 -0.07773506 0.20305175
000080 b2 c5 57 bc d3 87 8f bd 07 91 8f bd b7 0a a4 bd
       -0.013169693 -0.07008328 -0.07010084 -0.08009856
000090 b2 3f 30 3d af 2d ba 3d e2 ed d5 3d a3 af 55 3d
       0.043029495 0.09090745 0.10445763 0.052169453
0000a0 7d b1 34 bd 02 5a f9 3b 02 76 a0 bd 88 58 2c bd
       -0.04411458 0.0076096067 -0.07835008 -0.042076617
0000b0 fd ee 0e 3c ca fb 1c 3d c2 9c 25 bd 0f b5 9c 3c
       0.008723971 0.038326062 -0.0404327 0.019129304
0000c0 a6 54 0e 3e e8 4b fa bd 71 a1 5b bd e2 dc d6 3c
       0.13899478 -0.12221509 -0.05362076 0.026228372
0000d0 a3 43 ec bc c1 ed ea bd 4f d7 7f 3d 61 eb c4 bd
       -0.028840845 -0.11471129 0.062461194 -0.096152075
0000e0 a0 39 e3 3d d1 0f 0d 3e 1e b2 ed 3d 19 ce 97 bd
       0.110949755 0.13775565 0.11606239 -0.07412357
0000f0 99 e4 d4 bd 6b c5 39 bd 0b ac 82 3d 8f d7 83 3d
       -0.10395164 -0.045354288 0.06380471 0.06437599
000100 17 86 24 3a 5e 3d f5 3d 9f ab 5a be da 30 b3 3d
       0.00062760845 0.119745955 -0.21354531 0.08749552
000110 b1 93 a8 bb b1 b8 a0 bc 70 bf c1 bb 36 ec 39 3a
       -0.0051445593 -0.019619318 -0.0059127137 0.0007092388
000120 1b 01 8b bd 02 b2 fd bd 16 ab ee 3a 7b 50 ef 3d
       -0.0678732 -0.12387468 0.0018208947 0.11685272
000130 2b 5a 0f 3d ff b3 f7 bd 5d 1c 33 bc 2b e3 5b bd
       0.0349981 -0.120948784 -0.010932055 -0.05368344
000140 a2 d6 49 bd e0 f3 77 3d 67 18 9d 3c 96 06 88 3d
       -0.049276955 0.06053531 0.019176675 0.06641881
000150 e8 6f 2e be 5c f9 8c bc 6f 83 e5 3c b2 8c c9 bd
       -0.17034876 -0.017208748 0.028016774 -0.098412886
000160 18 3f 83 bc af 37 be bd 1e 14 f2 bc 42 ff 00 3d
       -0.016021296 -0.092879646 -0.029550608 0.031493433
000170 a6 a8 dd 3c 0a a4 ee bd 8c 4b 0d 3e 3e 07 81 bc
       0.027057957 -0.11652382 0.1379835 -0.015750524
000180 6e 6d ef bd 2d 09 2e bd 0e 26 a9 3b 6f 74 56 3d
       -0.11690794 -0.04248922 0.005162007 0.052357133
000190 03 01 f9 bd e5 55 8a bd e6 22 af bd 5d f7 82 bd
       -0.12158396 -0.06754664 -0.08551578 -0.06394837
0001a0 89 46 a3 3d 51 66 ca bc ee 36 df bc b5 93 fd bd
       0.07972438 -0.024706991 -0.027247872 -0.123816885
0001b0 1d 41 28 be 9c 6b 99 3d e6 24 f6 bd 47 1e bf bd
       -0.16431089 0.07491228 -0.120187566 -0.09331947
0001c0 cf 70 d2 bd b1 0d 3d 3d 75 15 8d 3d 48 2c bc bc
       -0.10275423 0.046155635 0.06888858 -0.022970334
0001d0 62 a9 35 bd e7 7d 81 bc 00 be 30 bd fa 00 14 3e
       -0.04435099 -0.015807105 -0.043149948 0.14453498
0001e0 a5 b9 01 be 9f 76 48 bd b5 63 0f 3c ab 64 28 3d
       -0.12668474 -0.04894125 0.008751799 0.04111163
0001f0 2c e6 05 bd 0f e7 08 3c 60 fa 0b be c9 0f db bc
       -0.032690212 0.00835587 -0.13669729 -0.026740925
000200 89 42 b4 bc 3b 24 ba 3d 19 17 32 3d 9b 71 e7 bd
       -0.022004383 0.09088942 0.04347906 -0.113009654
000210 f3 ac 55 bd 02 49 da bc 80 1c 8f bd e3 2f c3 3d
       -0.05216689 -0.026646141 -0.06987858 0.09530618
000220 d3 9a 96 3c 12 dc 21 bd 01 ab d8 3d ac 4b ab bc
       0.018384373 -0.039516516 0.105794914 -0.020910107
000230 e7 8d 98 3d 5b d2 2f be 81 32 2f 3e 36 f5 d0 bc
       0.07448941 -0.17170088 0.1710911 -0.02550755
000240 cf 67 5e bd 34 4d fa bd 05 83 e5 3d 67 2a db 3d
       -0.05429822 -0.122217566 0.112066306 0.10701447
000250 e9 5b 81 bd 81 a1 9b 3d ef a9 81 bd cf 44 a0 bd
       -0.063163586 0.07599164 -0.063312404 -0.07825624
000260 38 1d b8 3d 74 4a 55 3d f5 02 8f 3d 39 83 6c bd
       0.08989948 0.052072957 0.06982986 -0.05774233
000270 a6 26 77 3c b8 22 e7 bc d0 cb 3c 3e 45 fa 33 3d
       0.015084898 -0.028214797 0.18437123 0.043939847
000280 57 7b 4a 3d 17 82 60 bd 13 07 cc 3d 32 cb 38 3c
       0.049434032 -0.054811563 0.09962287 0.011278914
000290 e1 03 73 bd 41 e5 f3 bd 09 96 8c 3d 29 39 e0 bd
       -0.05932987 -0.11908961 0.068645544 -0.109484024
0002a0 a2 d0 00 3d e9 78 74 3c d1 fe 73 3b df 85 d6 3d
       0.031448968 0.014921405 0.003723074 0.10474753
0002b0 8d a7 93 bd bc 10 0f be a8 b6 96 3d 32 72 d6 bd
       -0.07209692 -0.13971227 0.07359058 -0.10471
0002c0 cb 84 18 3d 0b a7 b5 bd 09 c4 27 bc 9c e4 80 3d
       0.037236016 -0.088697515 -0.0102396095 0.06293604
0002d0 79 34 a3 bd ce 6d fc 3d e5 cc 10 bd e1 48 1a be
       -0.07968993 0.12325631 -0.035351653 -0.15066864
0002e0 02 bd c0 bd 6f 6a 92 bd 87 7f 8b 3d 3a 67 b0 3d
       -0.094110504 -0.07149207 0.06811433 0.08613439
0002f0 cc 46 4e bc d4 ff 9c 3d c5 38 cf bd 6e 48 a4 3d
       -0.0125901215 0.07665983 -0.1011825 0.08021627
000300 de 4e c5 3d 7d 99 be bc 41 b1 f5 bc 1b 09 d5 bc
       0.09634183 -0.023266548 -0.029991748 -0.026005318
000310 42 08 32 3d 0e f2 a6 3d 25 d9 1a be cc 05 01 be
       0.043464907 0.08151637 -0.15121897 -0.12599868
000320 a7 fc f0 bc 13 ba 34 3e 6c 44 7d 3d c8 37 9a bd
       -0.029417349 0.17649107 0.06183283 -0.07530171
000330 23 ab c9 3d de a5 dd bd d0 a8 12 3e f0 4d 2b 3c
       0.09847095 -0.10822652 0.1432221 0.0104555935
000340 bf 59 5c 3c 0f b3 7d bc 4f 9b 24 bd 09 ed a5 bc
       0.0134491315 -0.015484585 -0.040187176 -0.020254629
000350 dc 20 b2 3e e6 1a 00 3e 61 c6 b5 3e 16 f0 25 3e
       0.34790695 0.12510261 0.35502914 0.16204867
000360 c9 f1 85 3d 7a 74 c0 3d d8 0c 5b 3d 09 eb 0f 3c
       0.065402575 0.09397216 0.053479046 0.008784064
000370 f0 d9 86 bd f6 fc 94 3e 91 74 2e 3c b9 0f b7 bd
       -0.06584537 0.29099244 0.010647909 -0.08938546
000380 2c f7 be 3d 99 61 bf bd db 73 66 be d8 a2 4d bd
       0.09324488 -0.09344787 -0.22505133 -0.050204128
000390 78 d2 1a be be 22 df 3c ed a1 ba 3d 39 22 03 be
       -0.1511935 0.027238246 0.09112916 -0.12806024
0003a0 03 09 02 be 08 e7 ff bd 3b 19 e3 bd 9a a3 d9 3e
       -0.1269875 -0.124952376 -0.11088797 0.4250763
0003b0 69 d6 5e bd e0 4b 8b 3c 1d 17 83 bd 25 86 40 be
       -0.054403696 0.017003953 -0.06400893 -0.18801172
0003c0 5c 8b 99 bd e5 ee 0f 3d e2 14 d8 3b b5 06 50 bd
       -0.07497284 0.035139937 0.0065942863 -0.050787646
0003d0 33 e9 a7 3c 19 47 ee 3d 6d ff 3d 3d a3 d0 f4 bd
       0.02049694 0.116346546 0.04638617 -0.11953857
0003e0 a2 9d f3 bc 2e ad 77 3e 0a f8 df bc 67 e0 b5 3d
       -0.029738251 0.24187157 -0.027339954 0.08880692
0003f0 19 58 c0 bd 1e 1b 11 bd ec cc 26 3e b6 55 98 bd
       -0.09391803 -0.03542625 0.16289109 -0.07438223

fc2.bias f4 [10]
000000 e9 ee 5f 3c 65 62 e6 bb 77 f3 8f 3c 7a df c4 bc
       0.0136678 -0.0070307725 0.017572148 -0.024032343
000010 95 6e 1b bb c2 67 dd 3c ff 0f e9 bc 33 b9 ba 3d
       -0.0023717035 0.027027015 -0.02845001 0.09117355
000020 5a 0b ed bc e0 f2 7d bd
       -0.028936077 -0.0619992
