debate_mnist/models/16_4px.pth (torch, 609599 bytes, 8 tensors)

conv1.weight f4 [32, 2, 3, 3]
0	0x3e09580a	0.1341249
1	0x3de40ef2	0.11135663
2	0xbe0c7c85	-0.13719375
3	0x3e8496c3	0.25896272
4	0xbeb429b9	-0.35188082
5	0xbd49c45b	-0.049259525
6	0xbe042369	-0.12904133
7	0x3e42b94d	0.19015999
8	0x3e3d3439	0.18476953
9	0xbe861b9a	-0.26192933
10	0x3efac5ac	0.48978937
11	0xbc9cbf64	-0.01913423
12	0x3eda595d	0.42646304
13	0xbd575910	-0.05257517
14	0x3e7063e0	0.234756
15	0xbe171acc	-0.14756316
16	0x3f058f9e	0.5217227
17	0x3bebf815	0.0072012045
18	0xba69be32	-0.0008916586
19	0xbab5630f	-0.0013838726
20	0xbcb9d4c0	-0.022684455
21	0x3a0c30fe	0.00053478766
22	0xbea69515	-0.32535616
23	0x3e32b96d	0.17453547
24	0xbe347c7e	-0.17625615
25	0xbeb083ad	-0.3447546
26	0xbd51a442	-0.05118204
27	0xbe264910	-0.16238809
28	0x3e8c4d27	0.27402613
29	0xbe5dd9eb	-0.2166516
30	0x3f1ad7cc	0.6048553
31	0xbe303961	-0.17209388
32	0x3f13262e	0.5748013
33	0xbd474b65	-0.048655886
34	0xbe419fa1	-0.1890855
35	0x3da54a21	0.080707796
36	0x3b02e487	0.0019972639
37	0x3e9302c4	0.28713048
38	0xbb04ca07	-0.002026202
39	0x3b3793f3	0.0028011769
40	0xbe3217c2	-0.17391875
41	0xbea66924	-0.3250209
42	0x3acd4e8b	0.0015663666
43	0x3ed4fb37	0.41597912
44	0x3cd22974	0.025654532
45	0xbe5faf58	-0.21844232
46	0x3ecff4ff	0.40616605
47	0x3ea9f79d	0.33196726
48	0x3e63ff21	0.22265293
49	0xbe3c48f3	-0.18387203
50	0xbe4938d3	-0.19650583
51	0xbe5fa1d8	-0.21839082
52	0xbd6b26d2	-0.05741007
53	0x3ec7dee5	0.39037243
54	0x3d7de963	0.061990153
55	0x3d8040c7	0.06262355
56	0x3c0501e3	0.008118126
57	0x3d9b2626	0.075756356
58	0xbe76dbc9	-0.24107279
59	0xbea51c2e	-0.32248062
60	0xbaef4e03	-0.0018257502
61	0xbe7cf1ed	-0.24701662
62	0x3d78c44e	0.060734086
63	0xbe12b203	-0.14325719
64	0x3ec0eca7	0.3768055
65	0x3da794a5	0.081826486
66	0x3f13d589	0.57747704
67	0xbe362b22	-0.17789891
68	0xbe0aa820	-0.13540697
69	0xbe708c9f	-0.23491143
70	0x3ec5e5c1	0.3865185
71	0x3e8fc560	0.28080273
72	0x3ec6c1b0	0.38819647
73	0xbe05d9e0	-0.13071394
74	0xbe8dd04e	-0.27697986
75	0xbe1cf4ce	-0.1532776
76	0xbc9d780c	-0.019222282
77	0x3d2685e3	0.040655028
78	0x3e5169c5	0.20450504
79	0x3eb74dd9	0.3580158
80	0xbd8562ff	-0.06513023
81	0xbe881f3d	-0.26586333
82	0x3e4cfbec	0.20017976
83	0xbd6c5cef	-0.057705816
84	0x3e1f2d2b	0.15544574
85	0x3d736979	0.05942676
86	0x3e80828d	0.25099602
87	0xbe58dffb	-0.21179192
88	0xbd8ba35e	-0.06818269
89	0x3e15a6e2	0.14614442
90	0x3cea4a59	0.028599905
91	0x3d54d4fc	0.05196093
92	0x3c154f96	0.009113213
93	0x3e9a63ac	0.3015417
94	0x3e19fa16	0.15036806
95	0x3bf745b9	0.0075461534
96	0x3f1dded6	0.61668146
97	0x3e0cc50e	0.13747045
98	0x3c1c83bd	0.009552893
99	0x3c9c9a13	0.019116437
100	0xbcd70b95	-0.02625064
101	0x3e585fcd	0.21130295
102	0xbe87648a	-0.26443893
103	0xbdbe21a3	-0.092837594
104	0x3d605ecc	0.054777905
105	0xbf12105e	-0.57056224
106	0xbdc9c342	-0.098516956
107	0x3cdd89dd	0.027043277
108	0xbd5e2c6f	-0.054241594
109	0xbe391cb0	-0.1807735
110	0x3f19bf4a	0.6005751
111	0xbcc5e710	-0.02415803
112	0x3ecbb569	0.39786842
113	0xbe792b91	-0.24333026
114	0x3cb63383	0.02224136
115	0x3d51bbff	0.051204678
116	0x3d888245	0.06665472
117	0x3b1a4973	0.0023542314
118	0x3e0323da	0.12806645
119	0xbe9049f0	-0.2818141
120	0x3e125206	0.14289102
121	0xbe96642d	-0.29373303
122	0xbbc481bb	-0.0059969104
123	0xbd381f39	-0.04495165
124	0xbe561968	-0.20908129
125	0xbe9c6d51	-0.30552152
126	0xbb950860	-0.0045481175
127	0xbd3498fc	-0.04409121
128	0x3e646527	0.22304212
129	0xbdbffbe9	-0.0937422
130	0x3dedcde4	0.11611536
131	0x3da6c628	0.08143264
132	0xbe5dc281	-0.21656229
133	0x3eb336cd	0.35002747
134	0xbdd5b500	-0.10434914
135	0x3c7a61d8	0.015282117
136	0xbdc390d5	-0.09549109
137	0xbed5601a	-0.41674882
138	0x3e059e10	0.13048577
139	0x3ddd0571	0.107920535
140	0x3e7b3172	0.2453058
141	0xbe72c48a	-0.23707786
142	0x3eecb67b	0.46232972
143	0xbe96db15	-0.2946402
144	0xbd1d7208	-0.038438827
145	0xbb1c4351	-0.0023843835
146	0x3c925a0b	0.017865201
147	0x3e1b0e2f	0.1514213
148	0x3f06d29c	0.52665114
149	0xbe5c3ece	-0.21508333
150	0x3d41afbb	0.04728673
151	0xbe15e8bd	-0.14639564
152	0xbd0a6c03	-0.033794414
153	0xbe752e3f	-0.23943423
154	0x3eb70f7e	0.35754007
155	0x3d23f890	0.04003197
156	0x3e74d23d	0.23908325
157	0x3e792343	0.24329858
158	0xbe06c5a7	-0.13161336
159	0xbe81d52c	-0.2535795
160	0x3e8ec1eb	0.27882323
161	0x3d58e252	0.05295021
162	0x3cc6cf06	0.024268638
163	0xbe0ad6b5	-0.13558467
164	0x3ca0815e	0.019592937
165	0x3cd243f4	0.025667168
166	0xbd213a27	-0.0393621
167	0x3f3a049e	0.72663295
168	0x3cc85c2f	0.024458019
169	0xbda5c5a7	-0.0809434
170	0xbdf094b4	-0.11747113
171	0x3d60bf31	0.054869834
172	0x3ea5a846	0.32354945
173	0xbe13e0c8	-0.14441216
174	0x3dd3fd8e	0.10351096
175	0x3e4b87c5	0.1987601
176	0xbec19129	-0.3780606
177	0x3e4abc22	0.1979833
178	0x3e7f7ea0	0.24950647
179	0xbd64fbc6	-0.055904172
180	0x3d7b94a0	0.061421037
181	0x3e0dd8e5	0.1385227
182	0x3d5e9629	0.054342423
183	0xbdd48db0	-0.10378587
184	0x3e178d92	0.14800099
185	0x3db94398	0.090460956
186	0xbd9831b9	-0.07431359
187	0xbd5c4cf1	-0.053784315
188	0x3d0d3d53	0.03448231
189	0x3da52872	0.08064355
190	0x3dfb2c2c	0.122642845
191	0xbe32f3aa	-0.17475763
192	0x3e55376c	0.20821923
193	0x3f621545	0.88313705
194	0x3e6f39ed	0.2336194
195	0xbe3ad250	-0.1824429
196	0xbe6793a8	-0.2261492
197	0xbe10198e	-0.14072248
198	0x3af1cd10	0.0018447954
199	0x3e04a8f0	0.1295507
200	0xbe6e7075	-0.23285086
201	0xb821cb7f	-3.857491e-05
202	0x3eb0fb8b	0.34566912
203	0xbe0f2d6f	-0.13982175
204	0x39dfe33c	0.00042703177
205	0xbddd812a	-0.10815652
206	0xbe4ac43e	-0.19801423
207	0xbe8ca46a	-0.27469188
208	0x3c48c5b3	0.012254166
209	0xbdabc11d	-0.08386443
210	0x3eae6cd9	0.3406742
211	0x3ef991ad	0.48743954
212	0xbee0c928	-0.4390347
213	0xbe95aea3	-0.292348
214	0xbe72ac75	-0.236986
215	0x3e954c12	0.291596
216	0x3ac090d6	0.0014691602
217	0xbea20e04	-0.31651318
218	0x3e3d32a5	0.1847635
219	0xbeb30877	-0.34967396
220	0xbef9218c	-0.48658407
221	0x3de28b9b	0.11061784
222	0xba0717d3	-0.00051533914
223	0xbc34beaa	-0.011031786
224	0xbde8a169	-0.113589115
225	0x3f0eef43	0.55833834
226	0x3e1da5ad	0.15395232
227	0x3ed266f9	0.41094187
228	0xbd537caf	-0.05163258
229	0xbeb855bd	-0.36002913
230	0xbdd3068e	-0.103039846
231	0x3ecd60a4	0.40112793
232	0x3ec3e8c7	0.38263533
233	0x3e2642da	0.1623644
234	0x3e99e703	0.3005906
235	0x3e818a0c	0.25300634
236	0x3bc67b77	0.0060571986
237	0xbdf3197d	-0.11870096
238	0xbe8a33a9	-0.2699254
239	0xbe2141a0	-0.1574769
240	0x3e37646c	0.17909402
241	0xbe502a38	-0.20328605
242	0xbd5fe8c2	-0.054665335
243	0xbea2edb2	-0.31821972
244	0xbd947ad5	-0.07249991
245	0x3beef40a	0.0072922753
246	0xbe4e5315	-0.20148881
247	0xbd1c5039	-0.038162444
248	0xbce196f6	-0.027537804
249	0x3ef55da7	0.47923014
250	0xbdef5571	-0.116862185
251	0xbe5c444a	-0.21510425
252	0xbd1542ae	-0.036440544
253	0x39d47f66	0.0004053071
254	0xb88de54c	-6.766114e-05
255	0xbe900d32	-0.28135067

conv1.bias f4 [32]
0	0xbd09faec	-0.033686563
1	0x3e17a164	0.1480766
2	0xb831fc53	-4.2435084e-05
3	0xbd8241ce	-0.063602075
4	0x3e224450	0.15846372
5	0xbc1e69a7	-0.009668744
6	0x3cd5a1d2	0.026078139
7	0x3e6f344c	0.23359793
8	0x3cc47d19	0.023985432
9	0x3d940d20	0.07229066
10	0xbd58482b	-0.0528032
11	0xb98ce974	-0.00026876817
12	0xba567ffe	-0.00081825245
13	0x3ca0f282	0.019646887
14	0x3dbf5d0f	0.093439214
15	0x3e7be5d5	0.24599393
16	0x3a3e3f76	0.0007257381
17	0xb9ab8b3b	-0.00032719396
18	0x3bc082bf	0.005874961
19	0xbd57d5b6	-0.052694045
20	0x3b960433	0.0045781373
21	0xbe2c649c	-0.16835254
22	0x3e4c1371	0.19929291
23	0x3c60a504	0.013711218
24	0xbd91718e	-0.07101737
25	0x3e2de34a	0.16981235
26	0xbe2ce5f7	-0.168846
27	0xbb87ea75	-0.0041478225
28	0xbb63b4b5	-0.003474516
29	0xbdfcf873	-0.123520754
30	0xbd003e3e	-0.03130936
31	0xb8b64b8e	-8.6925094e-05

conv2.weight f4 [64, 32, 3, 3]
0	0x3ce65cc3	0.028120404
1	0x3d5319fb	0.05153845
2	0x3d452c94	0.048138216
3	0x3c5ce426	0.013482129
4	0x3d393310	0.045214713
5	0x3e01f5e9	0.12691464
6	0x3b4109a3	0.0029455207
7	0x3d050e1e	0.032484166
8	0xbd031e73	-0.03201146
9	0xbda684e4	-0.081308156
10	0xbc8ba437	-0.017046077
11	0x3dfb02a9	0.12256367
12	0xbd1eaa66	-0.038736723
13	0x3d460718	0.04834661
14	0x3b3ea99d	0.0029092797
15	0xbda42536	-0.0801491
16	0x3bf527b3	0.007481539
17	0xbd2776e4	-0.040884867
18	0xbd4510dd	-0.048111785
19	0x3ca78eaa	0.02045377
20	0xbd4a9a5d	-0.04946362
21	0x3d55e6bc	0.052222
22	0xbd3dacc5	-0.046307344
23	0x3e17b475	0.14814933
24	0xbb2957cc	-0.0025839685
25	0x3d3d19c0	0.046167135
26	0xbc127bd2	-0.008940654
27	0xbd8ac1d0	-0.06775248
28	0xbd1e3e1f	-0.038633462
29	0x3d663d53	0.056210827
30	0xbcf2c410	-0.029634506
31	0x3d0302bf	0.03198504
32	0x3d640986	0.055673145
33	0xbddef7eb	-0.1088713
34	0x3e140a1e	0.14456984
35	0x3c1c45b9	0.009538108
36	0xbd40ea8e	-0.04709869
37	0xbd5d8d2a	-0.054089703
38	0x3d366a5d	0.04453503
39	0xbbb112e7	-0.0054038647
40	0xbc1fa11d	-0.009743002
41	0x3d71744f	0.05894881
42	0x3d13b77b	0.036063652
43	0xbd50401a	-0.050842382
44	0x3d96eed7	0.07369774
45	0x3d582bd0	0.052776158
46	0x3c9a16a3	0.018809622
47	0xbd3d1fe8	-0.046173006
48	0x3dc7510d	0.09732256
49	0xbbe95774	-0.007121021
50	0x3e1aa0b2	0.15100363
51	0x3e2e65a3	0.17030959
52	0xbe219068	-0.15777743
53	0xbcbf1db1	-0.023329588
54	0xbda3288b	-0.07966717
55	0x3d878075	0.06616298
56	0xbd9fe471	-0.078072436
57	0xbcdec31a	-0.027192641
58	0x3c59cfc0	0.01329416
59	0x3e100127	0.1406294
60	0x3d0c9422	0.034320958
61	0xbcde7eae	-0.027160015
62	0xbd9928e4	-0.074785024
63	0xbc02bfa0	-0.007980257
64	0x3d6d8f4b	0.057997983
65	0x3dab6d5a	0.083704665
66	0xbdb99ee1	-0.09063507
67	0x3cdf4bf4	0.027257897
68	0x3d09e6ba	0.033667304
69	0xbd882af2	-0.06648816
70	0xbd8925a4	-0.066966325
71	0xbb247bc2	-0.002509818
72	0x3d2f0f72	0.04273934
73	0xba56fb00	-0.0008200854
74	0xbd790d82	-0.060803898
75	0x3d2e2014	0.04251106
76	0x3a9feca3	0.001220126
77	0x3e7dcad9	0.24784411
78	0xbd509398	-0.050922006
79	0xbd8b2213	-0.067936085
80	0xbde88798	-0.113539875
81	0x3c98cd8f	0.018652705
82	0xbd41201f	-0.047149774
83	0xbc444c42	-0.011981072
84	0xba0408ae	-0.0005036694
85	0x3e56ff0a	0.20995727
86	0x3deecb9f	0.116599314
87	0xbc3ce390	-0.0115288645
88	0xbd7366bd	-0.05942415
89	0xbd00a3e4	-0.0314063
90	0xbdb0f0be	-0.08639668
91	0xb82cc9bc	-4.1195875e-05
92	0x3e61201c	0.21984905
93	0xbd6b62c3	-0.057467233
94	0x3d4b7c2f	0.049678978
95	0xbd377b75	-0.044795472
96	0x37924a69	1.7439206e-05
97	0xbd13e064	-0.036102667
98	0x3ddcc1d9	0.10779161
99	0xbcbbf5b5	-0.02294431
100	0xbd2db6bd	-0.0424106
101	0x3d74434a	0.059634484
102	0xbd0bf654	-0.034170464
103	0x3da687c8	0.08131367
104	0x3e307192	0.17230824
105	0xbd3d51ec	-0.046220705
106	0x38e258ff	0.000107930966
107	0x3d999140	0.07498407
108	0x3bd7c790	0.006585069
109	0xbde3f270	-0.11130226
110	0x3ca06fe4	0.019584604
111	0xbd5eb994	-0.0543762
112	0x3d9dce2a	0.07705338
113	0x3ddb80b0	0.107179046
114	0x3b437188	0.0029822309
115	0x3dca0456	0.09864108
116	0xbcf64638	-0.03006278
117	0x3d01d75e	0.03169953
118	0x3c78989a	0.015173102
119	0x3d14fedb	0.03637586
120	0xbd837c0c	-0.064201444
121	0x3c2c8aed	0.010531169
122	0x3d4b8f7c	0.049697384
123	0x3b7b256e	0.003832187
124	0xbdb01c8e	-0.085991964
125	0x3e05a152	0.1304982
126	0x3c8a220b	0.016861936
127	0xbcdf73ec	-0.027276956
128	0x3d05acb5	0.03263541
129	0xbdc5f074	-0.096650034
130	0x3d96e20d	0.073673345
131	0x3daa54a6	0.08316927
132	0xbc20a06a	-0.009803871
133	0xbd102b67	-0.03519764
134	0x3d1aa2b3	0.03775282
135	0x3d249a28	0.040186077
136	0xbc772d98	-0.015086554
137	0xbd00e2f7	-0.03146645
138	0x3d5b7d40	0.053586245
139	0xbd48d482	-0.04903079
140	0x3d681f88	0.056670696
141	0x3bb71430	0.0055871233
142	0xbb93624d	-0.0044978024
143	0xbc8b74ff	-0.017023562
144	0xbb9131fc	-0.0044310074
145	0xbc83690f	-0.016041307
146	0x3d98f3a1	0.074683435
147	0xbca898e7	-0.020580722
148	0xbd2fd682	-0.04292918
149	0x3db4f664	0.08836058
150	0xbcec8698	-0.028872773
151	0x3df1128d	0.117711164
152	0x3cb092cb	0.021554371
153	0xbcdfb4cb	-0.027307888
154	0xbbf51099	-0.0074787852
155	0xbd139e4f	-0.036039647
156	0xbd8011d1	-0.06253398
157	0x3d9bbb8a	0.076041296
158	0x3e264c84	0.16240126
159	0xbd72807c	-0.059204563
160	0xbdff6001	-0.12469483
161	0x3c6d27cb	0.014474819
162	0x3d8635e9	0.06553251
163	0x3cafaea4	0.02144558
164	0xbaa1445d	-0.0012303699
165	0x3c9197ab	0.017772516
166	0x3d44268e	0.04788833
167	0x3dc700c2	0.097169414
168	0x3d014b6c	0.03156607
169	0xbdaeebdc	-0.0854108
170	0x3b3a11c2	0.0028391932
171	0xbd0993c1	-0.033588175
172	0x3d1663ee	0.036716394
173	0x3cfafe02	0.030638698
174	0x3ca5f518	0.020258471
175	0x3d02441f	0.031803247
176	0x3e401f14	0.18761855
177	0xbd6bf288	-0.057604343
178	0xbb262b44	-0.0025355378
179	0xbd13bca4	-0.036068574
180	0xbb8a5311	-0.004221328
181	0x3d1c195e	0.03811013
182	0xbdc6f5c7	-0.09714847
183	0x3cc1532f	0.023599235
184	0x3d0d59ab	0.034509342
185	0x3e665f2e	0.22497246
186	0x3d9660e2	0.07342698
187	0xbe24a96e	-0.16080257
188	0xbdf12bee	-0.11775957
189	0xbc33e47a	-0.010979766
190	0x3cc73f06	0.024322044
191	0x3dfe4eae	0.12417351
192	0x3c410e8d	0.011783254
193	0x3c75051e	0.014954833
194	0xbd6d8abc	-0.057993636
195	0x3d9252d0	0.071447015
196	0xbd0adb94	-0.033900812
197	0xbce8eb7f	-0.028432606
198	0xbc445173	-0.01198231
199	0x3ccbaf95	0.024863997
200	0x3de90efd	0.11379812
201	0xbdb5e8f3	-0.08882322
202	0xbc5ec3bc	-0.013596471
203	0x3b87717a	0.0041334005
204	0xbd291423	-0.04127897
205	0x3c43525b	0.011921491
206	0x3d2fd34d	0.04292612
207	0xbc94df39	-0.018172847
208	0xbd8a5442	-0.06754352
209	0x3d9ef78d	0.0776206
210	0xbd366fef	-0.044540342
211	0x3dcf7d9e	0.101313815
212	0x3de4aa03	0.1116524
213	0x3ba6c840	0.0050897896
214	0x3d23be23	0.03997625
215	0xbd062dc5	-0.032758493
216	0xbd214233	-0.039369773
217	0xbd004bca	-0.031322278
218	0x3dac01cf	0.083987825
219	0xbd3028b2	-0.04300756
220	0x3dc1db78	0.094656885
221	0x3c892e2d	0.016745651
222	0xbc697a37	-0.01425033
223	0x3d38731c	0.04503165
224	0xbd595920	-0.05306351
225	0xbd7ce4e9	-0.061741743
226	0xbdbae8c9	-0.091264315
227	0x3d4e1957	0.050317135
228	0xbd2e14de	-0.04250037
229	0xbd81b316	-0.06332986
230	0x3e299c25	0.1656347
231	0xbdc15a1f	-0.09441017
232	0xbc50183d	-0.012701091
233	0xbd9035d6	-0.070415184
234	0xbd8d2640	-0.06892061
235	0xbdd0c9ee	-0.10194765
236	0x3d833f5b	0.064085685
237	0x3c0e98cb	0.008703421
238	0x3d81ff2b	0.063474976
239	0xbcb4ca6d	-0.02206918
240	0x3d1349cb	0.035959046
241	0x3d8132b4	0.06308499
242	0x3d1b75b2	0.03795404
243	0xbd81930e	-0.063268766
244	0xbd04a807	-0.032386806
245	0x3d30f574	0.043202832
246	0x3b1c02a0	0.0023805276
247	0x3dcabf01	0.09899712
248	0x3e2a73b9	0.16645707
249	0x3c558e01	0.013034345
250	0x3dcb1dc2	0.09917785
251	0x3d275757	0.04085478
252	0xbc245613	-0.010030287
253	0xbc8fce26	-0.017554354
254	0x3e3bbaea	0.18333021
255	0xbc8bcd5d	-0.017065698

conv2.bias f4 [64]
0	0xbcce11d4	-0.025154985
1	0x3c876699	0.016528415
2	0xbd535798	-0.051597208
3	0xbd33cea3	-0.043898236
4	0xbcd3084d	-0.025760794
5	0xbd665923	-0.05623735
6	0xbcbeb847	-0.02328123
7	0xbc30be01	-0.010787488
8	0xbda39084	-0.079865485
9	0xbdb141b3	-0.08655109
10	0x3d511147	0.051041868
11	0x3d2fc74a	0.042914666
12	0xbd960976	-0.07326023
13	0xbc90056a	-0.017580707
14	0xbdb0e05f	-0.086365454
15	0xbd832b29	-0.064047165
16	0xbd7357e8	-0.059410006
17	0xbbc6c800	-0.0060663223
18	0x3c9b93d9	0.018991398
19	0x3d019b39	0.031642172
20	0xbdc3948a	-0.09549816
21	0x3bb2cd40	0.0054565966
22	0x3c940044	0.018066533
23	0x3cc5471c	0.02408176
24	0x3d403027	0.04692092
25	0xbd92028f	-0.07129394
26	0xbd96f5ea	-0.07371123
27	0x3c97422b	0.018464169
28	0xbd961dfa	-0.07329936
29	0xbd44ac1c	-0.0480157
30	0x3cb3bb3b	0.021939864
31	0xbca11302	-0.019662384
32	0xbd7fbfc4	-0.06243874
33	0xbc8afb20	-0.016965449
34	0xbd193d71	-0.03741211
35	0xbd438667	-0.047735598
36	0x3d271d56	0.04079946
37	0xbd674f6d	-0.05647223
38	0x3ca37b24	0.019956179
39	0xbc28102a	-0.01025776
40	0x3d2a22ae	0.04153698
41	0x3be8e0ab	0.0071068606
42	0xbbf81ada	-0.0075715603
43	0xbd7ad599	-0.06123886
44	0xbd98f86a	-0.07469256
45	0xbd52403f	-0.0513308
46	0xbdb581bc	-0.088626355
47	0x3c12e612	0.008965986
48	0xbcb7c8d3	-0.022434628
49	0xbd3bf10c	-0.045884177
50	0xbd337f85	-0.043822784
51	0x3d11451a	0.03546629
52	0xbcedfaba	-0.02905022
53	0xbd880902	-0.06642343
54	0xbd31ef16	-0.0434409
55	0xbcf41c00	-0.029798508
56	0xbd4134d8	-0.047169536
57	0xbbfd7eed	-0.007736078
58	0xbd29e351	-0.04147655
59	0xbdb8e1de	-0.09027456
60	0x3b969cbc	0.004596321
61	0xbd91969c	-0.071088046
62	0xbd3495e5	-0.044088263
63	0x3aecc52e	0.0018064135

fc1.weight f4 [128, 1024]
0	0xbd3bf0b4	-0.04588385
1	0xbaa955ea	-0.0012919281
2	0xbd783415	-0.060596544
3	0x3d861415	0.06546799
4	0xbcb4d545	-0.022074351
5	0xbbc33f4e	-0.0059584742
6	0x3b1757eb	0.0023093175
7	0x3df099f8	0.11748117
8	0xbb17247e	-0.0023062523
9	0xbb660ea1	-0.0035103934
10	0xbbaeeaa7	-0.0053380313
11	0xbdc2473f	-0.09486245
12	0xbb8346c3	-0.004006238
13	0x3c0913fc	0.008366581
14	0xbd845c1e	-0.064628825
15	0x3ba3c732	0.004998111
16	0xbd17394b	-0.036919873
17	0x3bcdad55	0.0062767663
18	0x3c806e60	0.01567763
19	0xbc359747	-0.011083431
20	0x3ceb8f7b	0.02875494
21	0x3ce5f465	0.028070638
22	0xbae727d4	-0.0017635771
23	0xbd17f329	-0.03709713
24	0xbd1c4ee1	-0.038161162
25	0x3ca1b043	0.019737368
26	0xbd490ce3	-0.049084555
27	0x3c30152c	0.010747235
28	0x3db35ca4	0.08757904
29	0x3dc49f6c	0.0960072
30	0x3d6e6847	0.058204915
31	0x3dc59f80	0.09649563
32	0xbd552a9e	-0.052042596
33	0x3aa24f51	0.0012383257
34	0xbd048c46	-0.032360338
35	0xbc921891	-0.01783398
36	0x3d08b066	0.03337135
37	0xbb8b5516	-0.0042520864
38	0x3c152912	0.00910403
39	0xbc9667df	-0.018360076
40	0xbcc5d372	-0.024148677
41	0x3d42135c	0.047381744
42	0xbd460157	-0.04834112
43	0x3cef6532	0.029223058
44	0x3c73fc3c	0.01489168
45	0xbb95f339	-0.0045761135
46	0x3cbe8a00	0.023259163
47	0xbdccf185	-0.10007004
48	0xbccbd4ce	-0.024881747
49	0xbb556170	-0.0032559298
50	0xbc8cd96b	-0.017193517
51	0x3e14948b	0.1450979
52	0xbcd67a0d	-0.026181245
53	0xbc0b9fa6	-0.00852195
54	0xbd10db69	-0.035365496
55	0x3e03ca7f	0.12870215
56	0xbc8b2085	-0.01698328
57	0x3ba0b23b	0.004904059
58	0xbc7473c8	-0.0149201825
59	0xbc37ead9	-0.011225426
60	0x3d639f06	0.05557158
61	0x3bfda1c9	0.0077402336
62	0x3d13c0b6	0.036072455
63	0xbd908370	-0.0705632
64	0xbdd8972d	-0.105757095
65	0xbd201ec8	-0.039091855
66	0xbd824f8a	-0.06362827
67	0x3dfb8816	0.12281816
68	0xbcc20901	-0.023685934
69	0x3c855e8a	0.016280431
70	0xbccc007e	-0.024902578
71	0x3e825514	0.25455534
72	0xbcad6cd6	-0.021170061
73	0xbc065960	-0.00820002
74	0xbccc7381	-0.02495742
75	0x3b8a4f4b	0.0042208782
76	0xbb8f13b6	-0.0043663634
77	0x3be32dfe	0.006932973
78	0xbd42399c	-0.04741822
79	0xbd3e6612	-0.04648406
80	0xbe12646b	-0.14296119
81	0xbd2ce594	-0.04221113
82	0xbc40a363	-0.011757704
83	0x3d0174df	0.031605598
84	0xbca7c3b0	-0.020479053
85	0xbd12716b	-0.035752695
86	0xbd0a1f61	-0.03372133
87	0xbd0fb388	-0.035083324
88	0x3aa002e2	0.001220789
89	0x3c4d99f9	0.012548917
90	0x3d2f2532	0.04276008
91	0xbe3dc78a	-0.1853315
92	0x3d9cecb6	0.076623365
93	0x3b2244af	0.0024760177
94	0xbd97ba76	-0.074086115
95	0xbd256968	-0.040383726
96	0xbd9acbae	-0.0755838
97	0xbd190341	-0.03735662
98	0x3c9bff54	0.019042648
99	0x3d44bbd0	0.048030674
100	0xbd6ae613	-0.057348322
101	0xbbbcb0c1	-0.0057583754
102	0xbc9df487	-0.019281639
103	0xbc1b74cb	-0.009488295
104	0xbd555409	-0.052082095
105	0xbcc4a562	-0.024004642
106	0x3c87ee5c	0.01659315
107	0xbdcb5886	-0.09928994
108	0x3d03ae92	0.032148905
109	0x3d4c32eb	0.049853247
110	0x3c985601	0.018595697
111	0xbd87ba93	-0.06627383
112	0x3d74ec53	0.05979569
113	0xbd7e0ca6	-0.06202378
114	0xbd8e75bc	-0.0695605
115	0x3c8ff086	0.017570745
116	0xbd3d50e2	-0.046219714
117	0x3c785f9a	0.015159512
118	0xbd15d0e1	-0.036576156
119	0xbc4785ce	-0.012177898
120	0xbd3aa7cf	-0.04557019
121	0xbd03dd70	-0.0321936
122	0x3c6bd71b	0.014394547
123	0x3b3344ce	0.0027354243
124	0x3c20b4d9	0.009808742
125	0x3c75912a	0.014988223
126	0xbca3b210	-0.019982368
127	0x3bab94df	0.0052362527
128	0xbdf81e5f	-0.12115168
129	0xbbad9c5d	-0.005298181
130	0xba1646dd	-0.00057326054
131	0x3c9eb772	0.019374583
132	0x3b09283e	0.0020928527
133	0x3d286073	0.041107606
134	0x3c840295	0.016114512
135	0xbc739669	-0.014867404
136	0x3b808447	0.0039220187
137	0xbc878da4	-0.016547032
138	0x3b71f1dd	0.0036917843
139	0xbde7d212	-0.113193646
140	0x3d487600	0.04894066
141	0x3dc66290	0.09686768
142	0x3d7fa717	0.06241521
143	0xbcf30726	-0.029666495
144	0xbe023bf0	-0.12718177
145	0xbd1a8d5e	-0.037732475
146	0x3ccca2d3	0.024979984
147	0x3d435940	0.047692537
148	0xbd65a200	-0.0560627
149	0xbc5cd3ea	-0.013478259
150	0xbcae63a9	-0.021287756
151	0xbb6b090d	-0.003586355
152	0xbcf5fdc4	-0.030028231
153	0x3cc46200	0.023972511
154	0x3d078245	0.03308322
155	0xbd518307	-0.051150348
156	0xbd2591bd	-0.04042219
157	0x3daaa794	0.08332744
158	0xbcd59ee5	-0.026076743
159	0xbdacd2e9	-0.084386654
160	0xbd2eecae	-0.042706184
161	0x3c3deaf6	0.011591664
162	0x3ba2be4c	0.004966533
163	0x3d5e914f	0.054337796
164	0x3c484f90	0.012226
165	0x3c0bbeb1	0.008529351
166	0x3c941cee	0.018080201
167	0xbd6aeab6	-0.057352744
168	0x3ce6cf54	0.028175034
169	0xbd624859	-0.055244777
170	0x3d2becb0	0.04197377
171	0xbd127e9f	-0.035765287
172	0x3c121d16	0.008918067
173	0x3e279519	0.1636547
174	0x3dd99537	0.106241636
175	0x3d315cfd	0.04330157
176	0xbd08bd26	-0.03338351
177	0x3b86a047	0.004108462
178	0xbd3a684e	-0.04550963
179	0x3e273e0d	0.16332264
180	0xbccff11f	-0.02538353
181	0x3c5ac813	0.0133533655
182	0x3c6a3ef7	0.014297239
183	0x3d978308	0.07398039
184	0x3b98418a	0.0046464847
185	0x3c4b4c7a	0.01240837
186	0xbd7c1434	-0.061542705
187	0xbd882f4c	-0.06649646
188	0xbbdb276b	-0.0066880486
189	0x3c5c227f	0.013435959
190	0x3d04e3bb	0.032443743
191	0x3cb81a35	0.022473434
192	0xbd1dbcb7	-0.03851005
193	0xbcee951a	-0.029123832
194	0xbc82251a	-0.015886832
195	0xbc512048	-0.012764044
196	0xbcc62907	-0.024189485
197	0xbc3a156b	-0.0113576455
198	0xbc9e86a1	-0.019351305
199	0xbd970b82	-0.07375242
200	0xbd24907d	-0.040176857
201	0xbcc66b3d	-0.024221057
202	0xbc6ad2cf	-0.014332487
203	0x3cbe582f	0.023235409
204	0xbba5e1ef	-0.005062334
205	0x3e0eda59	0.1395048
206	0x3c83ed24	0.016104288
207	0x3df52f12	0.119718686
208	0xbc80551f	-0.015665589
209	0x3c96c7df	0.018405853
210	0xbd2e0fb4	-0.042495444
211	0x3e182937	0.14859472
212	0xbbe90e68	-0.007112313
213	0xbc9c291f	-0.019062577
214	0x3c88e104	0.016708858
215	0xbaf031a8	-0.0018325346
216	0xbc4721b7	-0.012154034
217	0x3cc97041	0.02458966
218	0xbd3f3e3f	-0.046690222
219	0xbc9f1e62	-0.019423667
220	0x3c6719af	0.014105245
221	0x3cca81f5	0.024720171
222	0xbdafe3b5	-0.085883535
223	0x3df0b3df	0.11753058
224	0xbd909627	-0.07059889
225	0xbc3f28be	-0.011667429
226	0x3c6ac401	0.014328958
227	0x3c5611e1	0.013065786
228	0xbca6be1f	-0.020354329
229	0x3c98797b	0.018612614
230	0xbc2df757	-0.010618052
231	0xbd098a4b	-0.033579152
232	0x3c8ee24f	0.017441897
233	0x3c7d9a0e	0.015478624
234	0xbc9ed07b	-0.01938652
235	0xbb2a87ee	-0.0026020962
236	0x3d5373e2	0.051624186
237	0x3ce041f8	0.027375206
238	0xbc3185da	-0.010835135
239	0xbd28f702	-0.04125119
240	0xbdeabc8b	-0.11461743
241	0xbd8a83ae	-0.06763397
242	0xbbad1a7e	-0.005282699
243	0x3ae587a3	0.0017511736
244	0xbc91fa5a	-0.017819572
245	0x3c314072	0.010818588
246	0xbb48a96e	-0.0030618566
247	0x3d032f02	0.032027252
248	0x3d2e478d	0.042548705
249	0x3cab7b82	0.020932917
250	0x3d3a77f9	0.04552457
251	0xbe58356e	-0.21114132
252	0x3d771751	0.06032497
253	0x3cf7b8f0	0.030239552
254	0xbd473831	-0.048637573
255	0xbd2eb94c	-0.04265718

fc1.bias f4 [128]
0	0x3bbffe38	0.0058591627
1	0x3d1b0068	0.037842184
2	0x3ccee421	0.025255265
3	0xbb877781	-0.004134119
4	0xbce316db	-0.02772086
5	0xba043c93	-0.00050444267
6	0x3ca17c4a	0.019712586
7	0x3cc817f7	0.02442549
8	0x3c8d3f6a	0.017242152
9	0xbcb67fe0	-0.022277772
10	0xbcc061d8	-0.023484156
11	0x3bca9217	0.006181966
12	0x3cb0f3c3	0.02160061
13	0xbc8b3798	-0.016994283
14	0x3cdad064	0.026710697
15	0xbcf6fc6c	-0.030149661
16	0xbcd78b42	-0.02631152
17	0x3cdae7ef	0.026721923
18	0x3cf4a9f8	0.029866204
19	0x3caa21c2	0.02076805
20	0xbc058d9f	-0.008151441
21	0x3d355d72	0.04427857
22	0xbd24022f	-0.040041145
23	0x3d0c84c9	0.03430632
24	0x3d607de6	0.054807566
25	0x3c898bbb	0.016790261
26	0xbcd2f0e0	-0.025749624
27	0x3a06efef	0.0005147447
28	0xbcce090e	-0.025150802
29	0xbc2e9b1e	-0.0106571
30	0xbbf67ba0	-0.0075220615
31	0x3ca69a7e	0.02033734
32	0x3d1f216e	0.03885024
33	0xbbcd5a05	-0.0062668347
34	0xbc110418	-0.008851074
35	0xbb1c4689	-0.0023845753
36	0x3cd9facb	0.026608845
37	0xbb13623e	-0.0022488977
38	0x3c7f7da1	0.015593917
39	0x3bba0ccc	0.005677795
40	0x3d819572	0.063273326
41	0xbc946f9d	-0.018119628
42	0x3c9ca9a1	0.019123854
43	0x3cb986af	0.02264723
44	0xbc725a74	-0.0147920735
45	0x3af7e98e	0.0018914209
46	0x3c1a5387	0.0094193285
47	0x3cfe2787	0.031024707
48	0xbcd09073	-0.025459504
49	0x3cd9d481	0.026590588
50	0xbc1c2641	-0.009530605
51	0xbc809b8e	-0.015699174
52	0x3cb05621	0.021525444
53	0x3cee6a5d	0.029103452
54	0x3b6eded5	0.0036448736
55	0x3bc8e0ca	0.0061303126
56	0x3c1761e9	0.009239652
57	0x3ccedd27	0.025251938
58	0x3ce00da9	0.027350264
59	0x3c19bda6	0.009383595
60	0xbcc66dee	-0.02422234
61	0x3b8f64fb	0.0043760515
62	0xbc63d8bd	-0.013906655
63	0x3c260fb9	0.0101355845
64	0x3d1eab70	0.038737714
65	0x3ca41d1f	0.020033417
66	0x3bb72fb0	0.0055904016
67	0xbb95ef20	-0.004575625
68	0xbcea34e4	-0.028589673
69	0x3cca94b6	0.024729114
70	0xbcc7cf13	-0.024390733
71	0xbb4628e8	-0.0030236784
72	0xbc2b05a9	-0.010438361
73	0x3d720916	0.059090696
74	0x3c428d2d	0.011874479
75	0x38641c75	5.438594e-05
76	0x3ca33281	0.019921543
77	0xbce30c0a	-0.027715702
78	0x3d12cfce	0.03584271
79	0x3d25593b	0.0403683
80	0xbcee63ef	-0.029100386
81	0x3d009b30	0.031398
82	0xbcec9812	-0.028881107
83	0xbd34ced1	-0.044142548
84	0xbc0f4b41	-0.008745969
85	0x3d39b474	0.04533811
86	0x3cb68773	0.022281384
87	0x3d29fb02	0.041499145
88	0xbab06312	-0.001345726
89	0x3d704646	0.058660768
90	0x3cda1796	0.026622575
91	0x3c4ba70e	0.012429966
92	0x3cc6ed4a	0.02428307
93	0x3d7f4998	0.062326044
94	0xbc12f519	-0.008969569
95	0x3c6a8125	0.014313017
96	0x3d26caa0	0.040720582
97	0xbce90b33	-0.028447723
98	0x3c5feb21	0.013666899
99	0x3d4f7b8a	0.050654925
100	0x3c2f079d	0.0106829675
101	0xbce8f990	-0.028439313
102	0x3d177934	0.036980823
103	0xbd30bed3	-0.043150734
104	0x3c042948	0.008066483
105	0x3c3b920d	0.011448395
106	0xbc258139	-0.01010161
107	0x3d074314	0.033022955
108	0x3d07ec18	0.03318414
109	0xbd006cdd	-0.03135382
110	0x3c3178fa	0.010832066
111	0x3c9775fe	0.01848888
112	0xbc0bc003	-0.008529666
113	0xbb504ca0	-0.0031783953
114	0x3d316fcd	0.043319512
115	0xbae6c571	-0.001760645
116	0xbbbfd282	-0.005853952
117	0xbc70edad	-0.014705104
118	0xbcda5bae	-0.026655044
119	0xbca69f43	-0.020339614
120	0x3c413139	0.011791521
121	0x3c9d7c7f	0.019224403
122	0xbc1d1d8f	-0.009589567
123	0xbc1eed35	-0.009700109
124	0x3cb8db71	0.022565575
125	0xbce5f3fa	-0.028070439
126	0x3d604821	0.054756287
127	0xbcfa447f	-0.03055024

fc2.weight f4 [10, 128]
0	0xbe118b27	-0.14213239
1	0xbe1e3481	-0.15449716
2	0xbe0c6f6c	-0.13714379
3	0x3c5d4802	0.0135059375
4	0x3d6186bf	0.055060145
5	0xbd777b22	-0.060420163
6	0xbdc5cb9b	-0.09657975
7	0x3c4ef404	0.01263142
8	0xbd7169ef	-0.058938917
9	0x3bce08d1	0.006287672
10	0x3d95347c	0.07285401
11	0x3d7f5e4c	0.062345788
12	0x3c39b438	0.011334471
13	0x3dd77d7c	0.10521981
14	0xbe1ee64a	-0.15517536
15	0x3d8c601b	0.06854268
16	0x3d102e02	0.035200126
17	0x3c12b094	0.008953232
18	0x3d9e6d93	0.077357434
19	0xbddc1431	-0.10746039
20	0x3dcb8015	0.09936539
21	0xbd2bf6ba	-0.041983344
22	0xbd7d7a92	-0.06188447
23	0x3c8a804f	0.016906885
24	0x3df4c3df	0.11951422
25	0xbe0cc28d	-0.1374609
26	0x3c4b157c	0.012395259
27	0xbd1bc9b3	-0.038034152
28	0xbd6e7ee7	-0.058226492
29	0x3db54d97	0.0885269
30	0xbd86ac43	-0.06575825
31	0x3e2044bf	0.15651225
32	0xbc52f0d0	-0.012874797
33	0xbd868ea0	-0.06570172
34	0xbd9fe183	-0.07806685
35	0xbdc5a587	-0.096507125
36	0x3d7c682d	0.061622787
37	0x3dc32b3d	0.095297314
38	0x3dab4fa9	0.08364803
39	0x3d29d3cf	0.041461762
40	0xbd44ddfc	-0.048063263
41	0x3c8189b4	0.015812732
42	0xbdc78c32	-0.09743537
43	0xbd19119e	-0.037370317
44	0x3c1658a4	0.009176407
45	0x3cdaa9ec	0.026692353
46	0xbd4e8fb5	-0.05043002
47	0x3c33ddd1	0.010978178
48	0x3e07a251	0.13245513
49	0xbe044e63	-0.12920527
50	0xbd51f0e7	-0.051255133
51	0x3cde8d32	0.027166937
52	0xbcce655f	-0.025194822
53	0xbd5c51fa	-0.053789116
54	0x3d831431	0.064003356
55	0xbdc39b52	-0.095511094
56	0x3de10210	0.109867215
57	0x3e041737	0.12899481
58	0x3dd75fb5	0.105163015
59	0xbd4cd858	-0.05001101
60	0xbd8c8f6d	-0.06863294
61	0xbd6dc2b3	-0.058047008
62	0x3d8e41d7	0.06946152
63	0x3d3b5aee	0.045741014
64	0xbbee9051	-0.0072803875
65	0x3db19dae	0.08672653
66	0xbe32a46e	-0.17445537
67	0x3dbc4ce7	0.091943555
68	0xbc45b0b1	-0.012066052
69	0xbca52eb2	-0.020163868
70	0xbc01839c	-0.007904913
71	0xbd2651d4	-0.04060538
72	0xbd8b3c8a	-0.06798656
73	0xbdddad9b	-0.10824128
74	0xbcf0e3f1	-0.029405566
75	0x3dfb6f63	0.12277105
76	0x3d20531c	0.03914176
77	0xbe055af2	-0.13022974
78	0xbb4af0b3	-0.0030966222
79	0xbd44e5a4	-0.048070565
80	0xbd47279c	-0.04862176
81	0x3d319dd5	0.04336341
82	0x3cb6a478	0.022295222
83	0x3d96b075	0.07357875
84	0xbd8eadf7	-0.06966775
85	0x3c520ba1	0.012820155
86	0x3d13cf8c	0.036086604
87	0xbd9b0642	-0.07569553
88	0xbc59f2a8	-0.013302483
89	0xbdf794de	-0.12088941
90	0xbcd4e34b	-0.025987288
91	0x3ccd0d34	0.02503071
92	0x3d839c39	0.064262815
93	0xbd7e05cb	-0.062017243
94	0x3e125355	0.14289601
95	0xbd0aedc1	-0.033918146
96	0xbdcf7279	-0.10129256
97	0xbd4c1146	-0.04982116
98	0x3bc30fdd	0.005952819
99	0x3d817828	0.06321746
100	0xbdfdd7ec	-0.123946995
101	0xbd88ffb8	-0.066893995
102	0xbdb9b4f7	-0.090677194
103	0xbd88d1ef	-0.06680667
104	0x3db88f2b	0.09011682
105	0xbc99ab7a	-0.018758524
106	0xbcf63912	-0.03005651
107	0xbd91ce2f	-0.071194045
108	0xbe0952ce	-0.13410494
109	0x3da1495a	0.07875319
110	0xbe069965	-0.13144453
111	0xbdd027c6	-0.10163836
112	0xbdd8b88e	-0.10582076
113	0x3d37f45a	0.044910766
114	0x3d895277	0.06705182
115	0xbad67a55	-0.0016363362
116	0xbdc92dc5	-0.09823183
117	0x3c40fc47	0.011778898
118	0xbd1d0e86	-0.03834393
119	0x3e0c625c	0.13709396
120	0xbe0b0134	-0.13574678
121	0xbd37e0da	-0.04489217
122	0x3c34228f	0.010994568
123	0x3d62c56b	0.055364054
124	0xbd093204	-0.033494964
125	0x3c6ff261	0.01464519
126	0xbe02cccd	-0.12773438
127	0xbd171aa2	-0.036890633
128	0xbd2d830f	-0.042361315
129	0x3db60c20	0.088890314
130	0x3d3fe3c6	0.04684808
131	0xbdf5d640	-0.120037556
132	0x3cba270e	0.0227237
133	0xbd2babb0	-0.04191178
134	0xbd85f120	-0.065401316
135	0x3daf6f6c	0.08566174
136	0x3c80c36a	0.01571818
137	0xbd3acbb8	-0.045604438
138	0x3d93e8b9	0.07222123
139	0xbd8d14e3	-0.068887495
140	0x3dc2f113	0.095186375
141	0xbe34fd1b	-0.17674677
142	0x3e3e63e7	0.18592797
143	0xbd46df9a	-0.048553087
144	0xbd63a7d2	-0.055579968
145	0xbe19f6fa	-0.1503562
146	0x3e0f1b98	0.1397537
147	0x3dd89e5c	0.1057708
148	0xbdae535f	-0.085119955
149	0x3dbe48ba	0.09291215
150	0xbd945ff7	-0.07244866
151	0xbd95a353	-0.07306542
152	0x3dc89f63	0.097960256
153	0x3d91f804	0.07127383
154	0x3d8ad4e0	0.06778884
155	0xbd64aabb	-0.055826884
156	0x3d37cbec	0.04487221
157	0xbd9de539	-0.077097364
158	0xbd128a5a	-0.035776474
159	0x3d935d10	0.07195485
160	0x3db23939	0.087023206
161	0xbdfd43a4	-0.12366417
162	0x3db1148e	0.086464986
163	0x3e0e323c	0.1388635
164	0xbd97ef97	-0.07418745
165	0xbe1111f8	-0.14167011
166	0x3d87ddec	0.06634125
167	0xbe1ac5e7	-0.15114556
168	0x3d33c9c3	0.043893587
169	0x3d0d0a0d	0.034433413
170	0x3d01eed6	0.031721912
171	0x3de4b573	0.11167421
172	0xbdea0c03	-0.11428072
173	0xbdaf2f21	-0.08553911
174	0x3d928052	0.071533814
175	0xbe019f18	-0.12658346
176	0x3d3875de	0.045034282
177	0xbda5a23e	-0.08087586
178	0xbc846f15	-0.01616625
179	0x3d82ff86	0.063963935
180	0xbd6f33a2	-0.05839885
181	0x3e12df7f	0.1434307
182	0xbd1a9612	-0.037740774
183	0xbe125e3c	-0.1429376
184	0xbdcf868e	-0.10133086
185	0xbdb51722	-0.08842303
186	0x3d6ef9a6	0.058343552
187	0x3d9fb9e7	0.0779913
188	0xbbc6d8d4	-0.0060683284
189	0x3d9e0139	0.07715077
190	0xbde0f83b	-0.10984846
191	0x3dac4ec0	0.08413458
192	0x3dbb70ef	0.091524
193	0x3b9ed187	0.004846755
194	0xbd459c15	-0.048244555
195	0xbd59e26a	-0.05319444
196	0x3d558958	0.052132934
197	0x3da5f118	0.081026256
198	0xbe181443	-0.14851479
199	0xbdb6a9ae	-0.089190826
200	0xbd02c27b	-0.031923752
201	0x3e79106a	0.24322668
202	0x3e8d1fa2	0.27563196
203	0xbdd24874	-0.102677256
204	0x3dd31e96	0.10308568
205	0xbde4ec93	-0.111779355
206	0x3e18f4c2	0.14937118
207	0x3ced3e6e	0.028960433
208	0x3c6da899	0.014505529
209	0x3cbb698e	0.02287748
210	0xbb71ff81	-0.0036925974
211	0xbd054c69	-0.032543574
212	0x3d951a38	0.072803915
213	0x3e3d5c7e	0.18492314
214	0x3e622051	0.2208264
215	0x3e5e07ce	0.21682665
216	0x3d88f68e	0.066876516
217	0x3da97fe1	0.08276344
218	0x3d62f821	0.055412415
219	0x3c7c1bfe	0.015387533
220	0xbdf8675e	-0.12129091
221	0x3e96ea5a	0.2947567
222	0x3c7a82b2	0.015289949
223	0xbd4e3238	-0.05034086
224	0x3dafac9e	0.08577846
225	0xbdaaa60d	-0.08332453
226	0xbe6a616f	-0.2288873
227	0x39c5d8be	0.00037736254
228	0xbdb892b0	-0.090123534
229	0x3cb82c7d	0.022482151
230	0x3db783c7	0.089606814
231	0xbe0196c4	-0.12655169
232	0xbdea6631	-0.11445273
233	0xbe25f02e	-0.16204903
234	0xbdee2429	-0.11627991
235	0x3ec40f1b	0.38292775
236	0xbd686f1d	-0.05674659
237	0x3c6c6674	0.014428724
238	0xbd86d74a	-0.06584032
239	0xbe12d018	-0.14337194
240	0xbd5fb00f	-0.054611262
241	0x3cf3bda6	0.029753517
242	0x3d3aece6	0.04563608
243	0xbd9ec969	-0.0775326
244	0x3e987ada	0.29781228
245	0x3df6d2e0	0.1205194
246	0x3d42b306	0.04753401
247	0xbd9c0602	-0.076183334
248	0x3b8ed06a	0.004358341
249	0x3e60e9c2	0.21964172
250	0xbcf4ace6	-0.0298676
251	0x3dc7e6f7	0.0976085
252	0xbddb7ef3	-0.10717573
253	0xbd9a2ca2	-0.07528044
254	0x3e0bfd99	0.13670959
255	0x3c93b76a	0.018031795

fc2.bias f4 [10]
0	0x3baf4b9c	0.0053495895
1	0x3ad39500	0.0016142428
2	0x3ca2de8d	0.019881511
3	0xbc9e2b8e	-0.019307878
4	0xbaecb477	-0.0018059154
5	0x3cbf98db	0.023388317
6	0xbcdec4f0	-0.027193516
7	0x3dbfa6b5	0.09357969
8	0xbd0a0273	-0.033693742
9	0xbd7fc277	-0.062441316
