debate_mnist/models/judge_6px.pth (torch, 157033 bytes, 8 tensors)

features.0.weight f4 [16, 1, 3, 3]
000000 ed d1 1b be 30 c4 4b 3f d4 58 ca 3e 07 b5 95 be
       -0.15216799 0.79596233 0.39520895 -0.29239675
000010 f8 13 f9 3d 83 3a c6 3c 2e 14 3b b9 bb 36 ce bb
       0.12162012 0.024197822 -0.00017841227 -0.0062931455
000020 ec df 62 38 c9 bf bb 3e e2 e0 70 be f4 15 ca be
       5.4091142e-05 0.36669758 -0.23523286 -0.39469874
000030 41 d1 e8 3e 83 c5 1b 3f 5a db 22 3e 83 b4 ed 3c
       0.45472148 0.60848254 0.15903988 0.029016739
000040 a6 3e 78 be aa d3 8e bd 0c 28 ce be 44 bc 53 3c
       -0.24242648 -0.069739655 -0.40264928 0.012923304
000050 12 0c 12 3f ec 97 ee be 2d 05 16 3f 11 a2 73 bd
       0.5704967 -0.46600282 0.5860165 -0.05948073
000060 a5 af 7c be 87 aa 82 3e f2 1e 04 3e e0 29 f3 be
       -0.24676378 0.25520727 0.1290243 -0.47492886
000070 26 d3 38 3f 8c 07 a2 be 4e c1 df be 21 3d 8f be
       0.72197187 -0.31646383 -0.43702167 -0.27976325
000080 d2 01 ea be cd ab 20 3e 15 0c 05 3f 62 50 54 bd
       -0.45704514 0.15690537 0.5197156 -0.05183447
000090 bf d6 46 bd cc c2 b9 bd dc b6 8b be 1e f0 a2 be
       -0.04854464 -0.09070358 -0.27287948 -0.3182382
0000a0 e3 46 6c 3f be 71 1c 3e c1 89 fa 3e 6d 75 0a bf
       0.92295665 0.15277764 0.48933223 -0.5408543
0000b0 d6 ad fa bd e4 dc 70 bd 6c 2f 15 3f e9 43 6b 3e
       -0.12240188 -0.058804408 0.58275485 0.22975124
0000c0 eb 7e 79 3e 56 c4 9d be b6 f7 0a 3e 77 ba 04 bf
       0.24364822 -0.30813855 0.13571057 -0.5184702
0000d0 8b ae 36 3f 62 fc b8 be 1c 43 4f 3e 54 9b 5f be
       0.7136008 -0.36130053 0.20240444 -0.21836597
0000e0 7d b9 38 be 15 91 0f bf d8 3b a3 be ef 55 38 3f
       -0.18039508 -0.5608075 -0.31881595 0.72006124
0000f0 92 17 db be fe 97 07 3e 9d 86 8f 3e 58 74 93 bd
       -0.4279142 0.13241574 0.2803239 -0.07199925
000100 66 ba b9 3c ed 34 cb bc ad 73 d1 3e 2f 51 c2 be
       0.02267189 -0.02480551 0.40908566 -0.37952563
000110 52 40 6a 3f 2b 58 0a be b6 e7 a6 be 4c 3b 3b be
       0.91504395 -0.13510196 -0.32598656 -0.18284339
000120 72 b0 39 3f 42 db fb 3e 36 f5 8c be f2 ef a6 be
       0.7253486 0.49190718 -0.2753083 -0.3260494
000130 83 bf 8d be 0e 22 6e 3d 86 0f 9b 3e c5 84 d4 bd
       -0.27685174 0.058137946 0.3028528 -0.10376886
000140 5a e0 2f 3c 00 49 4b bd 0b 13 29 be 80 3e 16 bd
       0.010734642 -0.049630165 -0.1651117 -0.0366807
000150 9c fb f1 bd 14 af 81 be 0e 76 16 3e a0 2e 30 3c
       -0.11815569 -0.25328887 0.14693472 0.010753304
000160 66 86 a3 be 78 84 0f 3e 20 a2 14 be 65 75 5d be
       -0.31938475 0.14015377 -0.14514971 -0.21626814
000170 43 be 61 3e 16 a2 53 3e 4e 6b 7d 3f 75 e8 e6 be
       0.22045235 0.206673 0.9899186 -0.45099226
000180 a5 da 70 be 9d 59 99 3c 39 57 3b bd d0 37 47 be
       -0.23520906 0.018719489 -0.04573748 -0.19454885
000190 b8 2a 8a 3c 6f 9c c5 bc 91 6b c9 3e 93 a6 d3 be
       0.016866073 -0.024122445 0.3933988 -0.41338024
0001a0 ae b2 fc 3e 5a 80 26 3e 05 cc ab be ea b2 26 3f
       0.49355072 0.162599 -0.33554092 0.6511675
0001b0 47 ba d1 bc 3c cc 33 be 99 10 91 be f5 b3 b5 3b
       -0.02560152 -0.17558378 -0.28332976 0.005545134
0001c0 fa 4f 17 3c f8 80 3a be 94 19 38 3e e1 f9 22 3f
       0.0092353765 -0.1821326 0.17978507 0.63662535
0001d0 b9 4d 6f 3f b5 b6 e3 3e c1 e4 32 3e c6 95 9a be
       0.9347797 0.44475332 0.17470075 -0.30192393
0001e0 b6 99 b1 3e f2 25 6f be 66 bb ba be 45 c7 fb 3e
       0.34687585 -0.23354319 -0.364711 0.49175468
0001f0 ba 52 a3 be 64 f3 a8 3d 85 76 a9 3a 49 97 ae bb
       -0.31899053 0.08249548 0.0012928998 -0.005328093
000200 37 b1 cd bd 63 c3 b6 3e 53 69 03 3e 50 9a a8 be
       -0.10043567 0.35695943 0.12833147 -0.3293023
000210 c6 9e 14 be 3c ca 45 3f 71 e2 e9 3d 8c c6 44 3f
       -0.14513692 0.7726171 0.114201434 0.7686546
000220 79 35 08 3f c6 80 58 3e ce cb 36 be e7 b0 40 3e
       0.5320659 0.21142873 -0.17851183 0.18817483
000230 90 8d 24 be 14 a7 e2 be 2f 46 19 be df 2d 1e 3e
       -0.16069627 -0.44268095 -0.14968179 0.15447186

features.0.bias f4 [16]
000000 db c1 d4 3e 47 94 75 3e 6b 5f bb 3e e4 ea 4f 3e
       0.4155415 0.23982345 0.36596236 0.20304447
000010 2d 63 12 3e a0 35 30 b9 b9 14 5d 3c da 52 a8 b9
       0.14295645 -0.00016804645 0.01349371 -0.00032105186
000020 cb ff 4c 3d 0c 13 9f be b2 a0 1d b9 42 46 e0 3d
       0.05004863 -0.3106922 -0.0001503255 0.109509006
000030 cd 08 5c b8 cd 3d 9f 3e 2a 3b f5 3d 8a 88 34 ba
       -5.2460284e-05 0.31101838 0.11974175 -0.0006886801

features.3.weight f4 [32, 16, 3, 3]
000000 ea 4d c5 bd c6 7a 72 bb 47 05 9e bd 28 db 4e 3d
       -0.096340016 -0.0036999448 -0.0771585 0.050501972
000010 d7 96 22 bd cb 4a cb 3d ef 68 fc 3d 7c 7d ac 3c
       -0.039694633 0.09926375 0.12324702 0.02105593
000020 af ea 0f 3e 4b 8f 09 be 80 95 54 bc 1c a9 03 be
       0.14054368 -0.13433568 -0.012975097 -0.12857479
000030 8c f3 6c 3d 13 33 51 3d a4 45 aa 3d 0a 07 51 bd
       0.057849452 0.0510741 0.08314064 -0.051032104
000040 c1 86 02 bc 9a ab 08 3e b6 73 34 bd a1 bd e1 bd
       -0.007966698 0.13346711 -0.044055663 -0.11022497
000050 f7 01 cd bd fa ee 2b bd e1 46 32 3d 96 c6 41 3e
       -0.100101404 -0.041975953 0.043524627 0.18923411
000060 ed cf 01 bd 77 6f bb 3b ee 43 f8 3d eb 81 fe 3c
       -0.031692434 0.0057200748 0.121223316 0.03106781
000070 46 3b 26 3c 67 81 e2 bd a6 c3 c8 3c da 8f fa bc
       0.010145968 -0.11059838 0.024507355 -0.030586172
000080 c3 db 23 3e 89 22 e2 3d ac 45 ce bc 44 6d 35 3e
       0.16001801 0.11041743 -0.025179707 0.17717463
000090 94 a8 e1 bd 5b 43 d5 bc 16 98 63 bc 10 c1 48 3e
       -0.11018482 -0.026033094 -0.013891241 0.19604897
0000a0 f7 75 ed 3d 34 f1 45 3e b3 c2 65 bd 7e 1c 13 be
       0.11594766 0.19330293 -0.056093883 -0.14366338
0000b0 45 91 c7 bc 4b 3b 3f bd 80 e6 c7 3c 11 d3 6e bc
       -0.024361262 -0.046687406 0.024401903 -0.014576689
0000c0 4f b9 0e 3d a3 b3 4b bd b3 7e 5a 3e e5 f2 0b 3e
       0.034844693 -0.04973186 0.21337394 0.13666876
0000d0 d7 30 c3 bc be 4c e0 3d 04 f1 af bd 4c 0a 1b be
       -0.023827 0.109521374 -0.08590892 -0.15140647
0000e0 49 ee 9b bd 06 14 b3 bc a9 4e 07 3e f4 0e 19 3e
       -0.07613809 -0.021860134 0.132136 0.1494711
0000f0 10 49 df 3d 6e 97 60 3d 23 3e 07 3e 67 03 c6 bd
       0.109026074 0.054831915 0.13207297 -0.09668618
000100 b2 7c 36 be 50 78 1e be b5 22 20 3e 15 fe 82 3e
       -0.17821005 -0.15475583 0.1563824 0.25584474
000110 06 04 11 3e 8b 1b 14 be 05 89 8f bd 03 0e b1 3b
       0.14161691 -0.14463632 -0.07008556 0.0054032817
000120 63 a1 95 bd ee 79 35 3d 67 bb 79 bd 03 b7 58 3c
       -0.07306173 0.044305734 -0.060969736 0.013227227
000130 12 9a 8d 3d 96 1b 13 bd ad 8b a8 3d c6 27 1e bd
       0.06914152 -0.03591498 0.08229766 -0.03861215
000140 e9 fc d3 3d d6 7c f7 bc 30 0f f5 bb 45 e7 a0 3d
       0.10350973 -0.030210894 -0.007478617 0.07856611
000150 a0 df 00 bb 10 e6 91 3b bb 86 37 bd 3c 3e dd bc
       -0.001966454 0.0044524744 -0.044806223 -0.027007215
000160 62 f8 28 3d d0 55 bf 3c df 3e 61 bd 47 aa c0 bd
       0.0412525 0.023356348 -0.0549916 -0.09407478
000170 c9 68 62 be fe 51 3c 3e 51 d8 1f 3e 8a 6b ad 3e
       -0.22110285 0.18390653 0.15609862 0.33871108
000180 1b 4f 08 be 1d aa 27 be cc b5 21 3d 37 07 8c bd
       -0.13311426 -0.16373487 0.039480016 -0.068373136
000190 0b a6 0c be 44 a3 7b 3d b8 28 bc bc 8e 07 8f 3d
       -0.13735215 0.061435 -0.022968635 0.06983863
0001a0 a6 de 23 3e 79 d7 b3 3c 82 b9 93 bd 9e d5 84 3d
       0.16002902 0.021953331 -0.07213117 0.06486057
0001b0 d2 cd 9c bd ce 28 f3 bd b7 2b 32 be 73 bc 3a 3e
       -0.076564446 -0.11873017 -0.17399488 0.1823595
0001c0 29 5d bf 3d c1 3d 0d bc 6f c5 9c 3c 1e ff 14 bd
       0.09343941 -0.00862068 0.019137112 -0.03637611
0001d0 32 eb 0c be fd c8 48 3b 05 38 ec 3c 25 c8 a9 bc
       -0.13761595 0.0030637376 0.028835306 -0.02072532
0001e0 85 f4 52 bd e6 73 a1 bd 08 a8 98 bc f0 83 e9 3c
       -0.051502723 -0.07883434 -0.018634811 0.028505296
0001f0 4f 18 1a bc 48 1e 05 3e 1c 59 12 bd cd f3 6a bd
       -0.00940521 0.12999833 -0.035729513 -0.057361413
000200 3b 89 94 bd d7 2a 94 3c 81 b7 f3 bc 2f e3 35 3e
       -0.07252737 0.018086834 -0.029750587 0.17762445
000210 14 73 ba bd f0 8a 80 bd 90 ba e9 3d de 4b a8 bd
       -0.09103981 -0.062765 0.11412537 -0.082175955
000220 82 5a e4 bd a3 50 00 be cf 2d bd bd 8e 48 a8 bc
       -0.111500755 -0.1253076 -0.09237253 -0.02054241
000230 4b 8d 48 3d c0 19 11 3e c2 03 89 bd c6 08 f6 3d
       0.048962872 0.14169979 -0.0669017 0.12013392
000240 d4 1b 57 bd ac 93 c6 3d 9e b3 0f 3d 7b cf 45 3d
       -0.052516773 0.09696135 0.035083406 0.048293572
000250 50 8d ef bd b4 cd 29 bd 64 87 56 3d d2 fc 2c 3e
       -0.11696875 -0.04145594 0.052375212 0.16893318
000260 c6 6e 30 bc 18 b7 af bd 30 bd 59 3d a5 39 0f bd
       -0.010768598 -0.08579844 0.05315894 -0.034967083
000270 c1 27 c3 3d 40 df 24 3d 1d ad 38 be b4 8e f8 bd
       0.09529067 0.04025197 -0.18034787 -0.121365935
000280 9a 67 a5 3d 00 35 22 3d 01 02 f0 3c e7 a1 88 3d
       0.08076401 0.039601326 0.02929783 0.066715054
000290 59 38 34 3d 3b ac e2 3d 55 ef b7 bd 1f 01 91 bd
       0.04399905 0.110680066 -0.08981196 -0.07080292
0002a0 d8 ad f1 3d 2f ba 89 3c 96 4c 26 3d 50 de 87 3d
       0.11800736 0.016812412 0.04060038 0.066341996
0002b0 bf 22 ed 3c 98 97 0b 3e ad fe 05 3e 24 2d 0b 3d
       0.028947232 0.13632047 0.13085432 0.033978596
0002c0 e6 36 f6 3c c5 8b e0 bd 29 44 11 3e 01 2a 05 3e
       0.030055474 -0.10964159 0.14186157 0.13004304
0002d0 07 b4 d8 3c 97 41 d3 3d 21 49 de bd 43 b9 5a 3e
       0.026453031 0.10315245 -0.10853792 0.21359734
0002e0 83 e0 fe 3c a8 75 a6 3d 3a 72 5b be 70 22 23 3e
       0.031112915 0.0812791 -0.21430293 0.15931106
0002f0 33 9e ef 3d 68 a6 69 3e 98 3b 57 bd 22 ce 5f 3e
       0.11700096 0.22817385 -0.052547067 0.21855977
000300 24 34 25 3e f4 d7 6c 3e 2c 6d fb 3b 0c 85 5d bd
       0.16133171 0.23129255 0.0076729264 -0.05408196
000310 0c 51 e3 3d 5d 5b b4 3d 8a c6 2d 3e ac a6 97 bd
       0.11099443 0.08806489 0.16970268 -0.07404837
000320 e0 c7 76 3d 3d cc 7e 3e 5d 01 02 bd 4a 4e 78 bd
       0.06024921 0.24882598 -0.03173958 -0.060621537
000330 b5 6f 4d be f9 ad 22 3e 7f 23 d6 3c ba da dd 3d
       -0.20062144 0.15886678 0.026139973 0.108327344
000340 af 3e c7 bc 62 5e e1 3d f9 d5 c8 3e 72 aa 62 ba
       -0.024321882 0.1100433 0.39225748 -0.0008646614
000350 5d 3d 45 bd 86 7d 39 bd f2 55 24 3d b0 4a 37 3d
       -0.048154224 -0.045285724 0.040121026 0.044748962
000360 d5 74 e5 bd 1c 77 57 3d 25 bb 34 3d 18 6a 04 3e
       -0.112039246 0.052603826 0.044123787 0.12931097
000370 ac 62 45 3e b6 ad 44 be 66 00 95 bd 46 fd 4d 3e
       0.19275922 -0.1920689 -0.072754666 0.20116147
000380 73 f7 07 3d 90 50 e5 3b 0a 29 33 3d d0 20 aa 3c
       0.03319497 0.006998129 0.04374031 0.0207676
000390 6c 27 cd 3c b0 e1 83 bd d0 96 26 3d b6 f0 7c bd
       0.025043212 -0.06439531 0.04067117 -0.061752997
0003a0 d2 dc 67 3d e8 0b 2a bc 17 07 a2 3d 3f 2f 39 3d
       0.056607075 -0.010378815 0.079115085 0.045211073
0003b0 20 0f 78 3c d9 9b 65 3e 71 f1 73 3d c4 6c 0b be
       0.015140325 0.22422732 0.05955643 -0.1361571
0003c0 6b 7f 00 be 77 3b 36 3e 79 5a 9d 3d 93 02 8b 3d
       -0.12548606 0.17796122 0.07683272 0.067876
0003d0 ce c5 04 bc 60 9e cc 3b 0f fb 96 3d d2 c1 ec 3d
       -0.008103801 0.0062444657 0.073721044 0.11560406
0003e0 b1 32 23 3d ef 48 53 bd ba 0f 88 3d cf 98 66 3d
       0.039843265 -0.051583227 0.066436246 0.056298073
0003f0 bd 08 3b 3d 20 ed b5 be 96 f5 c5 bd 7a a6 02 3d
       0.04566263 -0.35532475 -0.096659824 0.031897046

features.3.bias f4 [32]
000000 0f b8 84 3d 60 29 8f 3c ae 57 94 bd 85 94 ba bd
       0.06480419 0.017475784 -0.07243286 -0.09110359
000010 8a 65 1e 3d eb a5 18 3d 36 9a b8 bc de c7 4a bd
       0.038671054 0.037267607 -0.022534471 -0.049507014
000020 8b 92 3c bd 07 f9 89 3d 43 80 cd bd b6 33 fd 3d
       -0.04603819 0.06736951 -0.100342296 0.12363379
000030 dc a8 12 3d 01 cc a9 3c 9f bc b4 3d 81 50 6a bd
       0.035805568 0.02072716 0.08825039 -0.05720568
000040 4a e2 a7 bc 61 ac ee bd a1 9f 86 3d 6b 54 54 bd
       -0.020493645 -0.116539724 0.065734155 -0.05183832
000050 e1 68 a3 bd 9a d7 4a bd ac 36 92 bd 96 26 b1 bd
       -0.079789884 -0.04952202 -0.07139334 -0.08649938
000060 3e 6a b3 3d ec 89 ac 3d d6 0b 90 bd 51 ba 57 3c
       0.087604985 0.08424744 -0.070335075 0.01316698
000070 66 93 e9 bc 38 21 81 bc 51 e2 51 3d 27 d1 8e bd
       -0.028512668 -0.01576291 0.051241223 -0.069734864

classifier.1.weight f4 [64, 512]
000000 e1 bd 05 bc bf 50 01 3d a9 67 7c 3c 52 f8 df bc
       -0.008162946 0.031571146 0.015405574 -0.027340088
000010 5b ab c8 3c 25 6f 04 bd 77 d1 29 bd 11 46 09 bd
       0.024495771 -0.03233256 -0.041459527 -0.033514086
000020 9a 68 e2 bc 24 6c 65 3c ed 41 95 bc 07 45 9c 3c
       -0.027637769 0.0140028335 -0.018219912 0.019075884
000030 66 11 5f bc 22 e1 17 bd 66 11 12 3d 5f 13 b6 3c
       -0.013614988 -0.037079938 0.035661124 0.022226034
000040 2b 2f 96 3c ba 6e 00 3d b7 7c 7f bc 2b ea a8 bc
       0.018333038 0.031355597 -0.015593699 -0.020619472
000050 aa 80 95 bc 59 6e 17 3c b8 05 eb 3c 13 83 ae bb
       -0.018249828 0.0092426175 0.02868925 -0.005325684
000060 4c 75 2b bd 13 b0 df bb 1e 55 05 3c f5 1a 05 3d
       -0.04185991 -0.0068264096 0.008137969 0.03249641
000070 5e de be 3c 81 3b 16 3d 28 63 21 bd 33 b5 af bb
       0.023299392 0.03667784 -0.039401203 -0.005362177
000080 17 3f 14 bd 78 b5 23 bd 3f 12 1d 3d e8 09 17 bc
       -0.03619298 -0.039967984 0.03834748 -0.00921867
000090 92 3b 34 bd 47 43 c1 bc 7b ad df bc 43 21 a3 3c
       -0.044002123 -0.02359165 -0.027304402 0.019913321
0000a0 c5 85 57 3c 88 b7 56 bb c7 d5 31 bd d9 1b 02 bd
       0.013154452 -0.0032763202 -0.043416765 -0.03176484
0000b0 e9 86 65 bb d2 f6 18 bd ea e6 c3 bc 91 37 fd bc
       -0.003502304 -0.03734476 -0.02391382 -0.030910285
0000c0 2e e4 cc bc 34 bf 82 bc 4c 1a 40 3c 88 f0 fc 3b
       -0.025011148 -0.015960313 0.01172502 0.0077191032
0000d0 be ea 23 bd 6a 50 10 bd e8 7b 09 3c 28 ed 2d 3c
       -0.04001879 -0.03523294 0.008391358 0.0106156245
0000e0 3d cc 01 bc 6e 61 28 3d 0f 4f 06 bd 88 55 ad 3c
       -0.007922229 0.04110854 -0.03279024 0.021158949
0000f0 df 46 2b bd c9 31 1d bd 6b 28 e5 bc b6 67 4d bb
       -0.041815635 -0.038377557 -0.027973374 -0.0031342334
000100 9c f6 b1 bc 89 29 07 bd ec e9 f3 3c 03 1a 16 3d
       -0.021724038 -0.032998595 0.029774629 0.0366459
000110 30 d4 d8 bc 89 41 67 3b 29 6d 85 bc ec a0 16 3d
       -0.026468366 0.0035286865 -0.016287403 0.03677456
000120 c8 22 90 ba a2 93 b5 bb 5c 78 27 3c 95 52 98 3c
       -0.0010996694 -0.005541281 0.010221567 0.018594066
000130 d6 4b 49 3c 54 ba 1f bd 52 27 8a bc 51 dc 20 bd
       0.012286147 -0.038996056 -0.016864453 -0.03927261
000140 01 02 38 ba f0 13 2a bb 5c 66 cb bc 54 d8 8d 3c
       -0.00070193416 -0.0025951825 -0.024829082 0.017315067
000150 b5 b1 37 bd 98 d6 81 bc 9a 46 70 bc cd 7b 86 bc
       -0.04484721 -0.015849397 -0.01466527 -0.016416455
000160 77 81 28 bd 36 26 01 b9 13 50 09 3d 33 06 1e 3d
       -0.041139092 -0.00012316633 0.03352363 0.03858013
000170 f9 40 2f bd 48 42 25 bd 00 67 9a bb 87 9a 65 3c
       -0.042786572 -0.040346414 -0.0047119856 0.014013893
000180 d7 98 e6 bb cb ff 07 3d 76 1a 15 ba ba ac 47 3c
       -0.007037263 0.033202928 -0.0005687842 0.012187177
000190 6f f5 db 3c 82 28 d6 3c a3 34 22 3d 4d 26 b6 3c
       0.02685043 0.026142363 0.03960098 0.02223506
0001a0 5a 17 c9 bc 64 0c 81 bc 8d 41 a6 3c ef 73 e1 3c
       -0.024547268 -0.015752979 0.020294929 0.027521102
0001b0 3a a5 3c 3c 77 6f e4 3c c4 f7 13 3d b7 67 95 3c
       0.011514002 0.027885182 0.03612496 0.018237932
0001c0 6a 0a cd bc d0 96 16 bc 47 c2 00 3d e0 97 4a 3c
       -0.02502938 -0.00919123 0.031435277 0.012365311
0001d0 78 91 d8 3b ec d8 69 bc dc 24 4d 3c 4c cc 5d bc
       0.006609138 -0.01427291 0.012520995 -0.013537478
0001e0 0f 1d 19 3d bc 6b 60 3c 00 58 88 b9 40 d6 44 ba
       0.037381228 0.013697561 -0.00026005507 -0.00075087324
0001f0 bb d1 2f 3d 90 38 72 3c b4 d0 1c bd da 29 c7 3c
       0.042924624 0.014783993 -0.038284972 0.024311949
000200 39 b9 3c bd 26 76 34 bd 6b d1 de 3c 94 69 25 bd
       -0.04607508 -0.044057988 0.027199468 -0.04038389
000210 27 63 12 bd 6c dc 2c 3c a2 fe 9d 3b 9a b0 ea 3c
       -0.03573909 0.0105506 0.0048216144 0.028648663
000220 14 35 0f bd 89 9b e2 bc 42 12 c3 3c 2e 89 ef bc
       -0.03496273 -0.027662056 0.023812417 -0.029240217
000230 b0 58 4b 3c c6 d0 25 3c f2 73 70 bc d6 21 ea bb
       0.0124112815 0.010120576 -0.014676081 -0.007145147
000240 2f bf 71 3c 12 62 c3 bc f0 ae 71 bb 9b 60 1d bd
       0.014755054 -0.023850475 -0.0036877953 -0.03842221
000250 37 89 be bc 4e 2c a4 3c 51 be b9 3c 2c aa c8 39
       -0.023258789 0.020040657 0.022673758 0.0003827376
000260 71 59 50 3c 06 85 ee 3c 50 f6 8c 3c 7a 7f 85 3c
       0.012716637 0.029116165 0.017207295 0.016296137
000270 cb 68 76 bc 47 c7 05 bd f1 9e 8c bc aa 08 2a bc
       -0.015039633 -0.03266075 -0.017165633 -0.010378042
000280 a1 48 45 3b 1a 44 ca 3c a0 a7 db 3c a3 6a 03 3d
       0.0030103105 0.024690676 0.026813328 0.03208412
000290 90 f1 b2 bb ad fb a4 bc c4 6e f2 bc 98 d5 c9 bc
       -0.0054609254 -0.02013954 -0.029593833 -0.024637982
0002a0 23 13 16 bd 30 34 15 bb 1a b1 1a 3d 04 f8 07 3d
       -0.036639344 -0.0022766702 0.037766553 0.03319551
0002b0 b0 c9 2f 3c 05 33 23 bd fb eb eb bb a0 1e cf bc
       0.010729238 -0.039843578 -0.007199762 -0.025283158
0002c0 64 85 0d bd 66 89 ba bc 9c 55 3c bd 32 04 0e 3d
       -0.03455104 -0.022770595 -0.04598008 0.03467197
0002d0 02 46 af 3c 73 f7 d7 3c f2 3f ac 3c eb 91 69 bc
       0.021395687 0.02636311 0.021026585 -0.014255981
0002e0 43 fd 18 3d 48 a2 94 3c f7 6b 8d 3c ca a5 ee 3c
       0.037350904 0.018143788 0.017263396 0.029131789
0002f0 dd 97 10 bd 25 a5 25 bd 8d 13 21 bc d7 aa cb 3b
       -0.035301078 -0.040440697 -0.009831321 0.006215434
000300 04 e6 60 bc fb f6 69 3b 86 76 16 3d 16 ff 2e bc
       -0.013726715 0.003570019 0.036734127 -0.010680934
000310 3b 40 fb bc b9 4d 1c bd df 2c cf bc 10 29 af 3c
       -0.030670276 -0.03816006 -0.02528995 0.021381885
000320 84 2a c0 3b 9e 99 d5 3c ab d1 2d bd 7b 71 8a 3c
       0.0058644433 0.026074227 -0.042436283 0.016899815
000330 71 f6 a0 bc f0 2c 13 bd 82 ce 23 3d 88 12 1f bb
       -0.019648762 -0.035931528 0.039991863 -0.002427252
000340 b8 9c eb 3c 8f cc 27 3b f2 8b c1 bc 77 39 03 bd
       0.028761253 0.0025604104 -0.023626301 -0.032037225
000350 31 12 ca 3c 68 90 8d 3c 56 1c eb 3b 0f d8 0b 3d
       0.024666877 0.017280772 0.0071750088 0.034141596
000360 87 88 60 3c 76 0d 76 bc 2d 1c 2f bd 7c ab cc bc
       0.013704426 -0.015017858 -0.04275148 -0.024984114
000370 bd 05 92 3c 2b 8d 71 bc 7d 26 c3 bb 24 00 09 bd
       0.017825002 -0.01474313 -0.005955516 -0.0334474
000380 e5 40 27 bc fb b9 ba bb bd ad 38 bd 04 b5 bc bc
       -0.010208343 -0.00569844 -0.045087565 -0.023035534
000390 3c bf c7 bc b8 42 01 bc 4a 68 47 3c a4 84 c7 bb
       -0.02438318 -0.007889442 0.012170861 -0.00608881
0003a0 d6 82 13 bd ff 34 c2 3a 1a 79 28 bd 8e 6c f4 bc
       -0.036013447 0.001481682 -0.041131116 -0.02983692
0003b0 fd f3 e8 bc 39 04 f6 3c 2a 35 18 3d f6 7c 32 bd
       -0.028436655 0.03003131 0.037160076 -0.043576203
0003c0 76 b9 8a 3c 3e 9a 64 bc 7d d3 ac 3c 87 36 19 3d
       0.016934138 -0.01395279 0.02109694 0.037405517
0003d0 69 6f 67 ba 91 a7 0b 3d 79 44 8d bb 12 fb fa 3b
       -0.0008828552 0.03409535 -0.004311141 0.0076593244
0003e0 45 ad 3d bd b4 1d 0f bd f1 04 a2 bc a8 7f 15 bc
       -0.04630782 -0.034940436 -0.019777747 -0.009124674
0003f0 2d 94 08 bd 37 1a 24 bd 78 29 5a bc 05 91 e3 3c
       -0.033344436 -0.040064063 -0.013315551 0.027779112

classifier.1.bias f4 [64]
000000 fd 2d 09 3c 91 9a a0 3a 44 f6 bd 3c 0c 1d 9c bc
       0.008372781 0.0012253096 0.023188718 -0.01905682
000010 b8 5c 84 3c 50 c3 78 3c a7 d1 a1 bc 7e 61 2f 3d
       0.016157493 0.015183285 -0.01975329 0.042817585
000020 74 85 4d 3c a2 d8 5e 3c 9b 1b e9 bb 81 64 29 bd
       0.012544025 0.013601454 -0.0071138865 -0.041355614
000030 84 db 1f bd 3e aa ea 3c 9d c4 f8 bc 7c 23 14 3d
       -0.039027706 0.02864563 -0.03036719 0.036166653
000040 22 30 d5 bc 60 ac 8d bc ea 67 29 3a 3c 37 e8 3c
       -0.026023928 -0.017294109 0.0006462323 0.02834665
000050 f6 53 71 3c ac c0 b1 3c 53 43 73 bb 1c 65 6a 3d
       0.0147294905 0.021698318 -0.0037118986 0.05722533
000060 ab 01 8e 3c 09 fa b0 bc 90 f9 40 3b d8 e9 1b bd
       0.01733478 -0.021603601 0.0029445626 -0.038064808
000070 79 59 86 3c 5e e9 47 3d c2 24 c8 bc f7 72 76 3d
       0.016400086 0.04880654 -0.02443159 0.060168233
000080 c1 ac 34 bd 06 14 76 3d f2 98 c4 3c 20 f0 0a 3d
       -0.044110063 0.06007769 0.023998711 0.033920407
000090 ba f0 0f 3c 5e 61 8d 3c 82 54 ba 3c 8d 90 52 3c
       0.008785421 0.017258342 0.022745375 0.012851846
0000a0 93 f8 06 bd 8f f1 9a 3d 70 e5 2f 3c 86 37 f6 bc
       -0.032951903 0.07565605 0.0107358545 -0.030055773
0000b0 61 de 10 bd a8 3c b4 3c 54 95 b6 3b 4d ef fd bc
       -0.035368327 0.02200158 0.0055720005 -0.030997897
0000c0 d4 88 f9 3b a5 35 9c 3b 26 b4 25 3d 9e 00 72 bc
       0.007615188 0.004767137 0.040455006 -0.014770655
0000d0 69 c6 31 bd 7a 54 f6 bc 3f 67 8c 3c 08 00 0a 3c
       -0.04340211 -0.030069578 0.017139075 0.008422859
0000e0 28 8c 44 bd 60 28 f8 bc 74 a9 4f 3d 35 1a 00 3d
       -0.047985226 -0.03029269 0.050698712 0.031274993
0000f0 ce 64 18 3d e8 c1 74 bd 6c 44 ab 3c 88 1f 53 bd
       0.03720551 -0.059755236 0.02090665 -0.051543742

classifier.3.weight f4 [10, 64]
000000 19 a6 1e 3d 7b b5 21 bd 8d e9 d6 3d 13 af e8 3c
       0.03873262 -0.039479714 0.10493765 0.028403794
000010 42 9e 17 3e c6 d1 8f ba dc a7 f8 3d ff af ab bd
       0.14806464 -0.0010972552 0.12141392 -0.08383178
000020 19 bb 7b bd 43 4b e7 bd 68 39 41 be 9a f9 4e 3e
       -0.061457727 -0.11293652 -0.18869555 0.20212403
000030 14 d5 54 bd dc df ba 3d 49 26 54 3d 16 04 c1 bd
       -0.05196102 0.09124729 0.051794324 -0.094246075
000040 0b 20 02 be bd 04 f4 3d 99 6c dc 39 12 af 83 bd
       -0.12707536 0.11914966 0.00042042581 -0.064298764
000050 8b dc 0f 3e 8d 38 7c be 87 41 d8 bd aa f1 8c 3d
       0.14048974 -0.24630947 -0.10559373 0.06882031
000060 b9 9b 0e 3d 8d 0f af bc 0f 09 c5 3d 7f 7c 59 3d
       0.034816477 -0.02136972 0.096208684 0.053097244
000070 2e 19 86 be 10 4e 5e 3e 7b a1 05 bc 8a 8b 06 be
       -0.26191086 0.21709466 -0.008156176 -0.13139167
000080 54 98 bb bd b8 7e 21 be f1 73 e1 bd 69 c8 50 bd
       -0.09159914 -0.15770996 -0.11008442 -0.050972376
000090 cf 16 e2 3c 7d 7e c5 3c 63 a6 a1 3d 4d fc a3 3d
       0.027598767 0.024108166 0.07893064 0.08007107
0000a0 6f a0 a8 bd 98 12 f5 bd 62 39 6a bd b9 82 a3 3d
       -0.08233725 -0.11966437 -0.05718363 0.07983918
0000b0 d0 b4 d8 3d 61 76 f9 3d 0f af 89 3d 26 a2 a0 3d
       0.10581362 0.12180782 0.06722843 0.07843427
0000c0 77 c0 dc 3c 63 d3 85 3d 07 59 f0 3d f1 bf e4 bd
       0.026947243 0.065344594 0.117357306 -0.111694224
0000d0 d3 8b cb 3d 5e 9a e3 3d fe 82 54 be 2c e8 49 be
       0.09938779 0.111134276 -0.20753095 -0.19717473
0000e0 1d c8 d0 bc c6 74 bf bc 52 4a 17 3d 69 e9 f7 3d
       -0.025486046 -0.023371112 0.03693611 0.12105066
0000f0 fb 9e 4a be 1b 51 95 3d 71 14 af 3d 55 88 89 bd
       -0.19787209 0.0729086 0.08548821 -0.067154564
000100 2f 4f cb 3c 4f 1d db 3d 71 d9 f0 3d 28 09 88 3d
       0.024818031 0.106989495 0.11760224 0.066423714
000110 13 b0 59 be 88 c5 68 be d0 53 cf 3c 9f 7d 61 3d
       -0.21258573 -0.22731602 0.02530852 0.055051442
000120 23 cf 98 bc 44 83 aa bd ac c4 69 be 46 37 a3 3d
       -0.018653458 -0.08325818 -0.2282893 0.07969527
000130 05 20 21 3d 21 c5 ef bb cd 6d e2 bd e1 68 37 3e
       0.039337177 -0.007317201 -0.11056099 0.17911102
000140 c1 0d d6 3d 27 ea 36 be 32 9d d5 bd 77 d8 5f bd
       0.10451842 -0.1786276 -0.10430373 -0.054649796
000150 cc f9 34 be b8 1d 82 bc d0 4c 84 bd 93 0c 8f be
       -0.17673415 -0.015883312 -0.06459963 -0.2793928
000160 97 ca b6 3d 8f 0d ca 3d 83 b4 6e be 50 bd 00 be
       0.0892536 0.09865867 -0.23311047 -0.12572217
000170 26 eb d5 3c ce 91 b8 3b 69 8d f4 3d 7b 86 13 3e
       0.026113104 0.0056326156 0.11941034 0.14406769
000180 7b d5 db bd ef 37 78 be 50 8d a7 bb 2a 14 82 3d
       -0.107340775 -0.24240087 -0.0051132813 0.06351502
000190 50 fb 8a 3d d9 ab 32 be 14 51 8b be b9 ff 41 bd
       0.06786215 -0.17448367 -0.27210295 -0.047363017
0001a0 1d fc c2 3d 08 9c 0c 3e bb b9 1d 3d 29 2b 0a 3d
       0.09520743 0.13731396 0.038507205 0.033732567
0001b0 d5 46 70 be 05 51 4a 3d 72 fc 68 be 5b 5a 2b b9
       -0.2346452 0.049393672 -0.2275255 -0.00016341491
0001c0 da 61 7c be d9 09 0f 3d 3e ff e7 3b ca ac be bd
       -0.24646702 0.0349215 0.007079988 -0.09310301
0001d0 42 e3 93 bd 94 19 48 be ba 13 10 be a2 d9 55 3d
       -0.0722108 -0.19541007 -0.14070025 0.052209504
0001e0 c0 9a 73 be 7a 29 18 bd 9d 92 16 3e 7a 1e 3a be
       -0.23789501 -0.03714893 0.14704366 -0.18175688
0001f0 b0 12 2a 3e 11 8f 5d be c0 0a 76 be 9d 37 98 be
       0.16608691 -0.21636607 -0.24027538 -0.2972993
000200 f1 af f0 bd d4 94 26 3d 4a 37 c4 3d 80 f2 38 3e
       -0.11752308 0.040669277 0.09580858 0.18061256
000210 de 83 10 be 8b d3 d0 bc 42 08 ef bd 38 ef e5 bd
       -0.14112803 -0.025491497 -0.11671497 -0.11227268
000220 e5 7a 1b bd 9b 61 58 3d e6 16 60 3e 18 a1 d1 3d
       -0.037959 0.05282746 0.21883735 0.10235804
000230 e6 14 e7 3d 47 0f 72 be 0e 9d f0 3d d1 9f 87 bc
       0.11283283 -0.2363864 0.11748706 -0.016555699
000240 ef 6c 5a be f3 08 5b 3d 79 88 3a bc 4f cd bb 3d
       -0.21330617 0.05347533 -0.011385077 0.09170019
000250 53 c2 a3 3d bc b7 da bd b2 75 92 bd c6 5d 75 bd
       0.07996049 -0.10679576 -0.07151355 -0.059903882
000260 97 ca e3 3d f9 ae 44 3d 5a 15 5f 3e f0 7a f2 bd
       0.11122625 0.04801843 0.21785489 -0.11839855
000270 91 f4 39 be de a5 2d be 34 e1 b0 3d a0 11 08 bd
       -0.18159701 -0.16957805 0.08636704 -0.033219934
000280 82 6c fb 3d 3b 8c 80 bc d1 c5 c6 3d 3f d2 c4 bd
       0.122765556 -0.015691867 0.09705699 -0.09610414
000290 15 75 95 3c 99 57 61 bd fa f5 d4 3c 21 aa 00 bc
       0.018244306 -0.05501518 0.025996197 -0.007853062
0002a0 d9 3b 95 3d 11 3f 0b be d5 c9 78 bd 08 82 76 bd
       0.07286806 -0.13598277 -0.060739357 -0.0601826
0002b0 2d f0 39 3b bb a4 fd 3c fe 2f 5c bc 14 69 2d 3e
       0.0028371916 0.030962339 -0.013439177 0.16934615
0002c0 7f f6 df bd 06 78 2f 3e 11 ee e8 3b 04 8f cc bd
       -0.10935687 0.17135629 0.007108458 -0.099882156
0002d0 0d fb 30 3e f1 04 23 3e aa 3f bf 3b 20 5c b0 3c
       0.17283268 0.15919854 0.005836447 0.021528304
0002e0 fb 5e fe 3d e7 d7 53 3d e2 f4 c6 be 2a 6f 83 be
       0.1242046 0.051719572 -0.38858706 -0.2567075
0002f0 7f 63 80 3c ae 90 31 3e 63 92 40 3c b1 cf 23 bd
       0.015672443 0.17340347 0.011753651 -0.03999299
000300 20 16 93 bd 2f 8d 48 3d d8 bc e9 bd cf c5 f1 3d
       -0.071819544 0.04896277 -0.11412972 0.11805307
000310 5f d4 4a bd 1f be 78 3d 78 59 2c bd 6a 08 2e 3e
       -0.04951894 0.06072819 -0.04207751 0.16995397
000320 0a 50 f1 bd 45 b7 31 3d b7 45 ab bc 0a 82 51 3d
       -0.11782844 0.04338767 -0.020907266 0.051149406
000330 52 52 5a 3c 20 ba 0f 3e 35 7a d0 3d 80 7c 56 be
       0.013325291 0.14035845 0.10179559 -0.2094593
000340 60 e2 0b be 60 d8 02 3e 7a 3e 63 3d 27 01 e8 bc
       -0.13660574 0.12777853 0.055479504 -0.028320862
000350 52 1b b1 bd 32 b9 bb bd 11 97 1d 3d 6a 5a 3e be
       -0.08647789 -0.091661826 0.038474146 -0.18589178
000360 b0 21 cc 3d af 42 e7 bd 22 58 11 be d4 78 f6 bc
       0.09967363 -0.11292016 -0.14193776 -0.030086912
000370 4a 46 d1 3d 67 ec 00 be fc f2 af bd 4f c9 29 bd
       0.10218485 -0.1259018 -0.085912675 -0.04145175
000380 6a 42 dd bd e1 d4 f2 bd 30 d5 de bd e1 51 29 bc
       -0.10803683 -0.1185701 -0.10880506 -0.010334463
000390 c7 b1 6a be 14 c4 72 3b f3 d1 39 3e b0 c3 42 3e
       -0.22919379 0.0037043141 0.18146496 0.19019961
0003a0 46 72 5d 3c 6d d9 1b bd 4b 13 79 3c dd 06 1d be
       0.013516014 -0.03804915 0.015202354 -0.1533465
0003b0 b7 38 f6 bc 12 8e a3 3d c4 e1 a9 bd 61 1d 3a be
       -0.03005634 0.07986082 -0.082950145 -0.1817527
0003c0 a5 e5 42 be 47 bb 07 3c 9d b7 35 bc 59 e4 d6 ba
       -0.19032915 0.0082843965 -0.01109114 -0.0016394957
0003d0 c6 92 70 bd 20 64 9c 3d ce 68 a7 bd 2d fc 1c be
       -0.058733724 0.07636285 -0.08174287 -0.15330572
0003e0 dc 8e 58 3e b1 8c 03 3d a1 11 4d be 63 6f 93 3c
       0.21148247 0.032116596 -0.20026256 0.01799745
0003f0 86 87 64 3c 02 35 1d 3e db da d3 bd 6a 57 02 bd
       0.013948327 0.15352252 -0.10344478 -0.031821646

classifier.3.bias f4 [10]
000000 e8 04 82 3d d3 c8 ef 3d 16 44 a7 3d 70 1a 62 3d
       0.06348592 0.11708226 0.08167283 0.055200994
000010 ce d3 ef bd cf 29 2a 3c fd 14 e5 3c 5e c2 88 bd
       -0.117103204 0.0103859445 0.02796411 -0.066776976
000020 7a 75 e8 bd be b0 93 bd
       -0.11350532 -0.07211445
