debate_mnist/models/judge_4px.pth (torch, 157033 bytes, 8 tensors)

features.0.weight f4 [16, 1, 3, 3]
0	0x3f083f50	0.5322161
1	0x3e9c5390	0.30532503
2	0xbe9bc381	-0.30422595
3	0x3de92b1e	0.11385177
4	0xbe7f2034	-0.24914628
5	0x3e876e5a	0.2645138
6	0xbefff1c8	-0.49989152
7	0x3f06f755	0.5272115
8	0xbe9696f0	-0.2941203
9	0xbe2f2ce2	-0.17106965
10	0x3ea0c7b3	0.31402358
11	0xbe8c9cf8	-0.27463508
12	0xbaa09839	-0.0012252397
13	0xbe48749e	-0.19575736
14	0x3dbdb733	0.09263458
15	0x3e8c2213	0.27369747
16	0x3f567620	0.83773994
17	0x3eb7d16a	0.35901958
18	0x3e01c551	0.12672926
19	0xbe4eb8cb	-0.2018768
20	0x3e462205	0.19348915
21	0x3f51f4c6	0.8201412
22	0x3f1ee44a	0.6206709
23	0x3ec6bc15	0.3881537
24	0xbede0846	-0.43365687
25	0xbecaa0e7	-0.39575884
26	0xbd8975f5	-0.06711952
27	0xbe8fe97b	-0.2810782
28	0x3f5d0492	0.863351
29	0x3b9723c8	0.0046124198
30	0x3f025ca7	0.50922626
31	0xbeefe881	-0.46857074
32	0x3f004589	0.501061
33	0xbd49fff2	-0.049316354
34	0xbeee1df9	-0.46507242
35	0x39c463cf	0.00037458396
36	0xbe39710a	-0.18109527
37	0xbafae05d	-0.0019140352
38	0xbbac615b	-0.005260629
39	0xbe448921	-0.19192936
40	0x3f3ca488	0.73688555
41	0xbea48b5e	-0.3213758
42	0x3e7f71cb	0.24945752
43	0xbe661be7	-0.22471581
44	0x3ec90e87	0.39268896
45	0xbebb74f5	-0.3661267
46	0xbd2b7a1c	-0.0418645
47	0x3ec825aa	0.39091235
48	0xbe20b6fa	-0.156948
49	0x3e3cdbdf	0.18443249
50	0x3f46a0a6	0.7758888
51	0xbea1ece9	-0.3162606
52	0xbe115800	-0.14193726
53	0x3ee64e9e	0.44981855
54	0xbebddc78	-0.37082267
55	0x3f0bdead	0.5463665
56	0x3e833d82	0.25632864
57	0x3d046dc3	0.03233124
58	0xbe9fb56e	-0.31193107
59	0xbf020a85	-0.507973
60	0x3e9dfcad	0.3085684
61	0x3f426901	0.75941473
62	0xbe25e9f2	-0.16202524
63	0x3f28116a	0.6565157
64	0xbd668edf	-0.056288596
65	0xbf032669	-0.51230484
66	0x3e7a264c	0.24428672
67	0xbe4f38e1	-0.20236541
68	0xbeb75552	-0.35807282
69	0x3ea98151	0.33106473
70	0xbe1290d3	-0.14313059
71	0xbe86bc34	-0.26315463
72	0x3eb08e67	0.34483644
73	0x3e8efe4c	0.27928388
74	0xbe18b7ef	-0.14913915
75	0xbeb90034	-0.36132967
76	0xbe533bf3	-0.20628338
77	0x3e3bafaf	0.18328737
78	0xbeb9e992	-0.36311013
79	0x3e94b46a	0.29043895
80	0x3f12608b	0.5717856
81	0xbe6fb0ea	-0.23407331
82	0xbe3fba8f	-0.1872351
83	0x3f2faa3a	0.6861912
84	0xbe1221cc	-0.14270705
85	0x3e6838e8	0.22677958
86	0x3e74c33c	0.23902601
87	0x3cc8279e	0.024432953
88	0x3d09a524	0.033604756
89	0xbd29e657	-0.041479435
90	0xbdc85d70	-0.09783447
91	0xbe94eeaf	-0.2908835
92	0xbdea3319	-0.11435527
93	0x3eafbe24	0.34324753
94	0x3f6ba88f	0.92054075
95	0xbe953bd1	-0.291472
96	0xbd97d8ca	-0.07414396
97	0xbe3ac55b	-0.18239348
98	0xbc263694	-0.010144848
99	0x3c837bf5	0.016050318
100	0x3ee4d8f9	0.44696787
101	0xbeba0fe0	-0.36340237
102	0x3e474aff	0.19462202
103	0x3f5def8f	0.8669366
104	0xbebb74a4	-0.36612427
105	0xbe220e8f	-0.15825866
106	0xbe792c7b	-0.24333374
107	0xbc879197	-0.016548915
108	0xbda6c7ac	-0.08143553
109	0xbd4eb003	-0.050460827
110	0xbc045f11	-0.008079306
111	0xbe4becdb	-0.19914572
112	0x3e437fe8	0.19091761
113	0x3f00a77c	0.5025556
114	0x3f57f3b7	0.84356254
115	0x3d926f5d	0.07150147
116	0xbe9931fa	-0.29920942
117	0xbce75c6c	-0.028242312
118	0xbeba9855	-0.36444345
119	0x3c011a28	0.007879771
120	0x3f466180	0.77492523
121	0xbf0fccdb	-0.5617196
122	0x3ec278e0	0.37982845
123	0xbede96db	-0.4347447
124	0x3f1e6576	0.6187357
125	0x3d8ac4db	0.067758285
126	0x3f213a2e	0.629794
127	0xbe0d2f2d	-0.13787527
128	0xbe497101	-0.19672014
129	0xbcaf025e	-0.021363433
130	0x3f0c4748	0.54796267
131	0xbe5c6fbc	-0.21526998
132	0x3eb36ef6	0.35045594
133	0x3dc784a3	0.09742095
134	0x3efaf944	0.490183
135	0xbd14aaf0	-0.03629583
136	0xbe593068	-0.21209872
137	0xbdb305bb	-0.087413274
138	0xbe9e5c26	-0.3092968
139	0x3f640b97	0.89080185
140	0x3eb318df	0.34979913
141	0xbea5adb4	-0.32359087
142	0x3f10dc59	0.56586224
143	0x3d0a7619	0.033804033

features.0.bias f4 [16]
0	0x3e88ad1d	0.26694575
1	0xbb7c8966	-0.0038534044
2	0x3e4d84ba	0.20070162
3	0x3de573c4	0.11203721
4	0x3e756ddb	0.23967688
5	0xbafab851	-0.0019128417
6	0x3d883703	0.06651118
7	0xbd1fcf33	-0.03901596
8	0x3e367cbc	0.1782102
9	0x3ebc7fae	0.36816162
10	0x3c91c867	0.017795755
11	0xbace52cc	-0.0015741228
12	0x3dabff06	0.08398251
13	0xbb1567d1	-0.0022797475
14	0xbd152fd2	-0.036422558
15	0xba1c5bc5	-0.00059646025

features.3.weight f4 [32, 16, 3, 3]
0	0x3c32c9b5	0.0109123485
1	0x3d1875a8	0.03722158
2	0xbcd5d65e	-0.026103195
3	0x3e117f28	0.14208663
4	0x3cfd499d	0.03091889
5	0xbdc1422d	-0.0943645
6	0xbcdb2226	-0.026749682
7	0x3dc5d1a5	0.09659127
8	0x3dee9245	0.116489924
9	0x3e4e5a7b	0.20151703
10	0x3d2b6799	0.041846845
11	0xbd52a916	-0.051430784
12	0x3e3c5ca7	0.18394719
13	0x3db26df4	0.08712378
14	0x3db8b0cb	0.090180956
15	0x3db7b936	0.08970873
16	0x3e635828	0.22201598
17	0x3e176ce9	0.1478764
18	0x3e0cde08	0.13756573
19	0x3d93fc4a	0.07225855
20	0xbb7d1128	-0.0038614962
21	0xba44cc9e	-0.0007507297
22	0x3c526116	0.01284053
23	0xbce3bc56	-0.027799767
24	0xbcb301ab	-0.021851381
25	0x3d96d217	0.0736429
26	0x3d3e5c0f	0.046474513
27	0xbccdbb5e	-0.025113758
28	0xb986487e	-0.00025612483
29	0xbcc7235b	-0.024308851
30	0x3e7c61c9	0.24646677
31	0xbcb60863	-0.022220796
32	0x3d3d3612	0.046194144
33	0x3d220d49	0.03956345
34	0x3e405d03	0.18785481
35	0x3e0f4ee2	0.13994935
36	0x3e032e7e	0.12810704
37	0xbd963c7c	-0.07335755
38	0x3caaae45	0.020835051
39	0x3d27d42a	0.04097382
40	0x3d9d39c0	0.076770306
41	0xbdab1307	-0.083532386
42	0xbd68dcaa	-0.056851067
43	0xbc9dcb84	-0.019262083
44	0xbb0486d5	-0.0020221968
45	0x3e80de67	0.2516968
46	0xbdd3515c	-0.103182524
47	0xbbfd846d	-0.0077367336
48	0x3d096fb2	0.033553787
49	0xbced67d1	-0.028980168
50	0x3baae157	0.005214851
51	0x3e0961bd	0.1341619
52	0x3da70c11	0.08156598
53	0x3dafa78e	0.085768804
54	0x3e5841d3	0.2111886
55	0x3ce42365	0.027848909
56	0xbdc74a11	-0.09730924
57	0x3d8ab440	0.06772661
58	0xbd7bd638	-0.06148359
59	0x3c1c6790	0.009546176
60	0x3d266d5b	0.040631633
61	0x3e4643be	0.19361779
62	0x3e079266	0.1323944
63	0xbd85ae16	-0.06527345
64	0x3dc977c5	0.09837297
65	0x3c296f63	0.010341498
66	0x3e6681db	0.22510473
67	0xbde91f1b	-0.11382886
68	0xbaba5ecc	-0.0014218925
69	0xbe31b471	-0.17353989
70	0x3dd44576	0.10364811
71	0x3d65058f	0.055913504
72	0xbcd87df7	-0.026427252
73	0xbdb18109	-0.0866719
74	0x3bdbeb93	0.0067114322
75	0x3d477e9a	0.04870472
76	0xbc836086	-0.016037237
77	0xbd05193f	-0.03249478
78	0xbb9cec27	-0.0047888937
79	0xbd317fca	-0.04333476
80	0x3dcafbf7	0.0991134
81	0x3aa18d81	0.0012325497
82	0xbc5d9a82	-0.013525607
83	0xbd67a730	-0.056555927
84	0xbd76ef78	-0.06028697
85	0xbe0ad9df	-0.13559674
86	0xbd3001ea	-0.042970575
87	0xbc46de65	-0.012137984
88	0x3cc04748	0.02347149
89	0xbdb0e849	-0.08638055
90	0x3e46770f	0.19381355
91	0x3dc1662f	0.09443318
92	0xbd22c725	-0.0397407
93	0x3e18fe2e	0.14940712
94	0x3e107f36	0.14111027
95	0x3dd4fe6c	0.104000896
96	0xbd42d933	-0.04757042
97	0xbc16dcac	-0.009207886
98	0x3d6e6112	0.058198042
99	0x3d6b4722	0.057440884
100	0x39cf4a78	0.000395376
101	0xbb2ce08b	-0.0026378955
102	0x3ea4bd17	0.32175514
103	0x3db52cd6	0.088464424
104	0xbc9ea4fc	-0.01936578
105	0xbd920b6b	-0.07131084
106	0x3e742d81	0.23845483
107	0x3e06dda1	0.13170482
108	0x3e9e301d	0.30896083
109	0x3c540696	0.012941023
110	0xbe155da1	-0.14586498
111	0x3c399166	0.01132617
112	0x3d9893aa	0.0745004
113	0x3cb0cd29	0.021582203
114	0x3dfe98a9	0.12431461
115	0x3e04bf24	0.1296354
116	0x3e193ba9	0.14964165
117	0x3e812e9c	0.25230873
118	0x3d9e06c9	0.07716138
119	0xbd830b03	-0.06398585
120	0x3dcea14c	0.10089359
121	0x3e315cef	0.17320608
122	0x3e037c8b	0.12840478
123	0xbd25ccc7	-0.040478494
124	0x3e10e23e	0.14148805
125	0x3e319b74	0.17344457
126	0x3dc419c2	0.095752254
127	0x3cef36ca	0.02920093
128	0xbd418849	-0.047249112
129	0x3e16de36	0.14733204
130	0x3df74753	0.12074151
131	0xbdcfd703	-0.10148432
132	0xbde54b99	-0.1119606
133	0x3dec4a68	0.11537629
134	0x3e4b3c3d	0.19847198
135	0x3ed6ef8b	0.41979632
136	0xbe0f14f5	-0.13972838
137	0x3d4d979e	0.05019342
138	0x3e0f3158	0.13983667
139	0x3dda3d13	0.1065618
140	0x3d6daf1c	0.058028325
141	0x3d309b99	0.04311714
142	0x3e25ce39	0.16191949
143	0x3e49855d	0.1967978
144	0xbc9c6945	-0.019093165
145	0xbdc3b9ab	-0.09556898
146	0xbd9d1661	-0.07670284
147	0x3d96894f	0.07350408
148	0xbcb3fbdc	-0.021970682
149	0xbd1250af	-0.035721477
150	0xbd8dc678	-0.069226205
151	0x3d98c6a6	0.07459764
152	0xbd588666	-0.052862547
153	0x3d381ab5	0.044947345
154	0x3ca0e1c5	0.019638905
155	0x3ded34b9	0.11582322
156	0x3e3b7399	0.18305816
157	0x3e3296fd	0.1744041
158	0x3e0ab022	0.13543752
159	0x3e00b96e	0.12570736
160	0x3a8553c0	0.0010172054
161	0x3cc996d2	0.02460805
162	0xbe287705	-0.16451652
163	0xbe3afdd6	-0.18260893
164	0xbdc14440	-0.09436846
165	0x3e332c90	0.17497468
166	0x3d393f1d	0.045226205
167	0x3d5e5cff	0.054287907
168	0x3c7c6ba8	0.015406527
169	0xbc8d5ea5	-0.017257044
170	0x3d96a532	0.07355727
171	0xbdeada02	-0.11467363
172	0xbe60d6c4	-0.21956927
173	0x3c5508f1	0.01300262
174	0x3def82c3	0.11694863
175	0x3e51fb5b	0.20506041
176	0x3d148d5d	0.036267627
177	0x3e1e9493	0.15486364
178	0x3c9c5a69	0.01908608
179	0x3d8bbc58	0.06823033
180	0xbdf058ac	-0.11735663
181	0xbdadbd36	-0.08483355
182	0x3d048d5d	0.032361377
183	0x3db8fe22	0.09032847
184	0x3dfba28a	0.12286861
185	0x3dafffd9	0.08593721
186	0xbd03241e	-0.032016866
187	0xbda2e216	-0.07953279
188	0xbd77c9bb	-0.06049512
189	0x3d1765cd	0.03696232
190	0x3dc5e346	0.096624896
191	0x3d25faf9	0.04052255
192	0x3e8c03be	0.27346605
193	0xbc887f76	-0.01666234
194	0x3e294637	0.16530691
195	0x3c9ef7e0	0.019405305
196	0xbdfac9c6	-0.122455165
197	0x3d5ebe4e	0.054380707
198	0xbda2fc58	-0.07958287
199	0xbd3cb8f6	-0.04607483
200	0xbd1aca0e	-0.03779035
201	0x3d8da4a2	0.06916167
202	0x3e26fa11	0.1630633
203	0x3d7bbb84	0.061458126
204	0x3d589382	0.05287505
205	0x3d93d6af	0.07218682
206	0x3cec6b79	0.02885984
207	0xbd74b0c0	-0.059738874
208	0xbda3b828	-0.079941094
209	0xbd83b6a1	-0.06431318
210	0x3bb5fdff	0.0055539603
211	0x3e21825e	0.15772387
212	0xbda789bd	-0.08180568
213	0x3cacc9f8	0.0210924
214	0x3e06e8de	0.1317477
215	0xbe113390	-0.14179826
216	0xbd9fd623	-0.07804515
217	0x3c676047	0.014122075
218	0xbcd9921d	-0.02655893
219	0x3bfd231a	0.0077251317
220	0xbd44dd15	-0.048062403
221	0x3d97dfed	0.07415757
222	0x3d79ea29	0.06101433
223	0xbd39ed24	-0.04539217
224	0xbd876e93	-0.06612887
225	0xbdfd5149	-0.123690195
226	0xbd96c7d5	-0.07362334
227	0xbca17b4c	-0.019712113
228	0x3d1e6988	0.03867486
229	0xbd4ac97a	-0.04950855
230	0x3d21e09f	0.039520856
231	0x3df77164	0.120821744
232	0xbd8b205c	-0.067932814
233	0xbd8aad03	-0.067712806
234	0xbe320cf1	-0.17387749
235	0xbe062758	-0.13100946
236	0xbd9545eb	-0.072887264
237	0x3e057cd0	0.13035893
238	0x3e5049ab	0.20340602
239	0xbbfefd18	-0.007781636
240	0xbdd64099	-0.1046154
241	0x3d972562	0.07380177
242	0xbcb671ea	-0.022271115
243	0xbdc0880a	-0.094009474
244	0xbe393998	-0.18088377
245	0xbd9f0f0c	-0.07766542
246	0x3e9668cf	0.29376838
247	0x3e08a357	0.13343559
248	0x3d040772	0.032233663
249	0x3d810a66	0.063008115
250	0x3df17ff4	0.11791983
251	0xbcc20976	-0.023686152
252	0xbdebfd07	-0.115228705
253	0xbd36595a	-0.044518806
254	0xbcc09951	-0.023510607
255	0x3e3b9352	0.18317917

features.3.bias f4 [32]
0	0x3c8b0f0e	0.016974952
1	0xbd8e5c3d	-0.06951187
2	0x3c149602	0.009068968
3	0xbda4f244	-0.08054021
4	0x3bab7c32	0.005233311
5	0xbdec464f	-0.11536848
6	0xbdac955c	-0.084269255
7	0xbe004ab3	-0.12528495
8	0x3d76097a	0.06006763
9	0xbe07c79b	-0.13259737
10	0xbdc22386	-0.09479432
11	0x3d034a28	0.032053143
12	0xbdd2d67e	-0.102948174
13	0x3d28228b	0.041048568
14	0x3d26684b	0.040626805
15	0xbdcf9ab6	-0.10136931
16	0xbdc12489	-0.09430797
17	0xbc869216	-0.016427081
18	0xbe003634	-0.12520677
19	0xb952e97d	-0.00020114142
20	0x3dd8de38	0.1058926
21	0x3dad5429	0.08463318
22	0xbe164b2e	-0.14677116
23	0x3bbfbc01	0.0058512692
24	0xbd937be1	-0.072013624
25	0x3ce1ff92	0.027587686
26	0x3dc60693	0.09669223
27	0x3d5a71f6	0.053331338
28	0x3c975a9e	0.018475827
29	0xbd309e93	-0.04311998
30	0xbcdd463f	-0.027011035
31	0xbdee2738	-0.11628574

classifier.1.weight f4 [64, 512]
0	0x3cc5aef6	0.02413128
1	0x3d82571b	0.0636427
2	0xbc66b5c9	-0.014081427
3	0xbcc6e299	-0.024277972
4	0x3cce2a61	0.025166692
5	0x3b24b950	0.002513487
6	0x3d779193	0.060441565
7	0x3d850714	0.06495491
8	0xbbff2626	-0.00778653
9	0x3d6f5272	0.058428235
10	0xbd8ee9a4	-0.06978157
11	0x3d23d88a	0.04000143
12	0x3d9297ef	0.07157885
13	0xbb33d6e2	-0.0027441313
14	0x3d4035c9	0.046926294
15	0xbcb11d18	-0.021620318
16	0xbc71f335	-0.014767458
17	0xbd8dd211	-0.069248326
18	0xbd286a9f	-0.041117307
19	0xbd5ec276	-0.05438467
20	0x3dbae972	0.091265574
21	0x3d83d497	0.06437033
22	0xbceff769	-0.029292779
23	0x3d5680e0	0.052369
24	0xbc3d4ac6	-0.011553472
25	0x3ccbab1f	0.02486187
26	0xbd1d7ba5	-0.038447995
27	0xbd0ccf8b	-0.034377616
28	0x3d54f34c	0.05198984
29	0x3d069cb3	0.032864284
30	0xbc326854	-0.010889132
31	0x3d6b262e	0.057409458
32	0xbc37842e	-0.011200948
33	0x3d75d401	0.060016636
34	0x3ae7747f	0.001765862
35	0xbba28a6c	-0.004960349
36	0x3dc7da4f	0.09758436
37	0xbc2f70c7	-0.010708041
38	0x3c1fc395	0.00975122
39	0xbcb7b514	-0.022425212
40	0xbaaba90b	-0.0013096643
41	0x3c88835b	0.016664198
42	0xbbae59b5	-0.0053207525
43	0x3c849c53	0.016187822
44	0x3dc3b101	0.09555245
45	0x3e1e45ff	0.15456389
46	0x3e2f59f8	0.17124164
47	0x3cf6b951	0.030117663
48	0xbd4f400d	-0.050598193
49	0x3cd278f5	0.025692442
50	0xbd8bdeef	-0.068296306
51	0xbd35e18a	-0.044404544
52	0x3d96adb9	0.07357354
53	0x3c629108	0.013828523
54	0x3c9d4a37	0.019200427
55	0x3d9a4716	0.0753309
56	0x3d1915bc	0.037374243
57	0xbc4014fc	-0.011723753
58	0x3d25937f	0.040423866
59	0xbd6447e5	-0.055732626
60	0x3c3fcf67	0.011707163
61	0xbd05ebd6	-0.032695614
62	0xbdaa06b8	-0.08302063
63	0xbbe07675	-0.0068500587
64	0xbd3f315f	-0.046677943
65	0xbda1f9a1	-0.07908941
66	0xbc8e6e21	-0.017386498
67	0xbcbc1bc6	-0.022962462
68	0xbca42408	-0.020036712
69	0x3ca72983	0.020405537
70	0xbcd9df17	-0.026595635
71	0x3d5e58a5	0.054283757
72	0x3dabdaa6	0.08391313
73	0xbcfc59d9	-0.030804561
74	0x3ccd1120	0.02503258
75	0x3c3e2898	0.011606358
76	0xbd3c9ea4	-0.04604973
77	0x3c42b126	0.011883056
78	0x3daf0bd9	0.08547182
79	0x3ce09e87	0.027419342
80	0xbd1b82a6	-0.037966393
81	0xbd9760de	-0.07391523
82	0x3cb8c16e	0.022553172
83	0x3d5ff028	0.05467239
84	0xbb383153	-0.0028105571
85	0x3d81410b	0.06311234
86	0x3c11eceb	0.008906583
87	0x3d7c3c6b	0.061581057
88	0x3d230362	0.039798148
89	0x3ab8c504	0.0014096801
90	0xbbef9b6c	-0.007312229
91	0x3d6337bc	0.055473074
92	0x3d499d04	0.049222007
93	0x3cbdee47	0.023184909
94	0x3d53290f	0.05155283
95	0xbc4a26c4	-0.012338344
96	0x3cc88484	0.02447725
97	0xbd2f9c96	-0.04287394
98	0x3d660306	0.056155227
99	0xbc66a21a	-0.014076734
100	0x3dc55c69	0.096367665
101	0x3db5c975	0.088763155
102	0xbccf5980	-0.025311232
103	0x3d97c739	0.074110456
104	0xbd87c8a1	-0.06630064
105	0x3ca35927	0.019939972
106	0xbd49d5cd	-0.049276162
107	0x3bf09b21	0.0073427116
108	0xbc7123cb	-0.014718006
109	0x3d5521ec	0.052034304
110	0x3d163ee3	0.036681067
111	0x3af7abb8	0.0018895781
112	0x3d3f3329	0.04667965
113	0x3bf4a24d	0.007465637
114	0xbc187a97	-0.009306571
115	0xbc7aa253	-0.01529749
116	0xbdb6cb70	-0.089255214
117	0x3daf2cfc	0.08553502
118	0xbcafdd33	-0.02146778
119	0x3d075b77	0.033046212
120	0xbc91bb01	-0.017789366
121	0x3bb49106	0.005510452
122	0xbd84494e	-0.06459294
123	0x3d18650e	0.03720575
124	0x3afeb044	0.0019431193
125	0xbd49241b	-0.0491067
126	0x3d2c6672	0.042089887
127	0xbc8b88a2	-0.017032925
128	0x3b410aaa	0.002945582
129	0xbd1ae108	-0.037812263
130	0xbd84b5c6	-0.06479983
131	0xbd7bcd78	-0.061475247
132	0x3d9387e0	0.072036505
133	0xbd397e78	-0.045286626
134	0x3dba4e28	0.09096938
135	0x3d05fc82	0.032711513
136	0x3d3b8c03	0.045787822
137	0x3c9dc1c6	0.019257437
138	0xbd6c274e	-0.05765467
139	0x3ce793bb	0.028268686
140	0x3c5c18a6	0.013433611
141	0xbd2bff7e	-0.041991703
142	0x3cab450c	0.020906948
143	0x3c745590	0.014912978
144	0xbe010859	-0.1260084
145	0xbcf90ddc	-0.030402116
146	0x3d2426db	0.040076118
147	0xbe12fa78	-0.14353359
148	0x3ccda148	0.025101319
149	0xbc0d0270	-0.008606538
150	0xbc1c01cd	-0.009521914
151	0x3d517b48	0.05114296
152	0xbb712b8d	-0.003679964
153	0xbd16009f	-0.036621686
154	0xbd5e4bd7	-0.054271545
155	0xbd9d21b6	-0.076724455
156	0x3dccf03a	0.10006757
157	0x3c97be91	0.018523486
158	0xbc8e05dd	-0.01733678
159	0x3d0a9276	0.033831082
160	0xbd4b43be	-0.04962515
161	0x3d45b681	0.048269752
162	0x3d786d54	0.06065114
163	0x3bc892c9	0.006121014
164	0x3dd68c1b	0.10475942
165	0x3c4fc73e	0.01268178
166	0xbcd232fd	-0.025659079
167	0x3cc0cfdc	0.023536615
168	0xbcc1f3cd	-0.023675824
169	0x3c62506d	0.01381312
170	0xbc4d813b	-0.012543018
171	0xbcad5f10	-0.021163493
172	0x3d9a4136	0.07531969
173	0x3db443db	0.08802005
174	0x3dca8731	0.09889067
175	0x3d0ea40f	0.034824427
176	0xbd40e115	-0.047089655
177	0x3d06df3e	0.032927744
178	0x3d43121d	0.047624696
179	0x3b86d2dd	0.0041144923
180	0x3d45ed0e	0.048321776
181	0xbcc3df17	-0.023910088
182	0xbd78ee68	-0.060774237
183	0x3c2f3b7f	0.010695337
184	0x3b8653b4	0.0040993337
185	0xbdb17c37	-0.0866627
186	0x3cd28e64	0.025702663
187	0xbe019526	-0.12654552
188	0x3d5e84e4	0.054325953
189	0x3d7f8a38	0.062387675
190	0x3d8b60d2	0.068055764
191	0x3d9910ea	0.07473929
192	0xbd2960af	-0.04135197
193	0xbd5b5eea	-0.053557314
194	0x3c51a964	0.0127967335
195	0x3d347250	0.04405433
196	0x3d58c39b	0.05292092
197	0xbb2c92a4	-0.0026332522
198	0x3cb1bf2d	0.021697605
199	0x3cd5a5ff	0.02608013
200	0x3bfb9403	0.0076775565
201	0x3ca1fef9	0.0197749
202	0x3cffe2d4	0.03123609
203	0xbc32fb5c	-0.010924187
204	0xbae3ed79	-0.0017389498
205	0xbbca007d	-0.006164609
206	0xbcfa458d	-0.030550743
207	0x3d04a7e3	0.03238667
208	0xbcf65a63	-0.030072397
209	0x3caf2fc3	0.02138508
210	0x3d170af3	0.036875676
211	0xbd17adc5	-0.037030954
212	0xbb0682fc	-0.002052485
213	0xbd32028c	-0.04345946
214	0x3ba7098f	0.005097575
215	0x3d3e87f9	0.046516392
216	0xbaf7317b	-0.0018859351
217	0xbcbbde13	-0.022933042
218	0x3d79f09e	0.061020486
219	0xbd354484	-0.044254795
220	0xbca33c2f	-0.019926159
221	0xbcfb5560	-0.030680358
222	0xbc13821c	-0.009003188
223	0x3b0572d6	0.0020362637
224	0xbd075c81	-0.033047203
225	0xbe28a39f	-0.16468666
226	0x3baecdcb	0.005334591
227	0x3d09ef98	0.03367576
228	0xbd8dfeb2	-0.06933345
229	0x3e1c2a26	0.15250453
230	0x3cb78081	0.022400143
231	0x3d3a767c	0.04552315
232	0x3d80a1d4	0.06280866
233	0xbc7b6e22	-0.015346082
234	0x3d08e627	0.033422615
235	0xba886c89	-0.0010408323
236	0xbd053d81	-0.032529358
237	0xbc8675ea	-0.016413648
238	0x3d6231f1	0.05522341
239	0xbd766389	-0.060153518
240	0xbc8cbf8d	-0.017181182
241	0xbcb6db1a	-0.022321273
242	0xbd55c739	-0.052191947
243	0xbd0eef44	-0.03489615
244	0x389b39c4	7.401736e-05
245	0x3d35ab99	0.0443531
246	0xbcd98ced	-0.026556456
247	0x3d161a66	0.03664627
248	0x3c428514	0.011872549
249	0x3d9d8030	0.076904655
250	0xbd8f6a80	-0.07002735
251	0xbccdfa3d	-0.025143737
252	0xbba1826b	-0.004928877
253	0xbd9bf179	-0.07614417
254	0xbb968238	-0.00459316
255	0xbd222a00	-0.039590836

classifier.1.bias f4 [64]
0	0x3d1429f0	0.036172807
1	0xbd03b7a5	-0.03215756
2	0xbd015979	-0.03157947
3	0xbc87c744	-0.01657451
4	0x3d6f852d	0.058476616
5	0x3da5be93	0.0809299
6	0x3d06df8d	0.03292804
7	0xbbbf9a8a	-0.00584728
8	0x3cb4291c	0.021992259
9	0x3d8e9972	0.06962861
10	0xbbfcfc0b	-0.0077204756
11	0xbc9ea1de	-0.019364294
12	0x3cc4b244	0.024010785
13	0xbd651d5a	-0.055936195
14	0x3cbc246c	0.022966586
15	0x3bfa16cb	0.0076321117
16	0xbd0b61f4	-0.034028962
17	0xbc20628f	-0.009789123
18	0xbcec0fa4	-0.028816052
19	0x3cc5d72e	0.024150457
20	0xbc12caeb	-0.008959512
21	0xbca0a9c1	-0.019612195
22	0x3cf8d5a7	0.030375315
23	0xbcf266ea	-0.029590089
24	0xbc53df0a	-0.012931595
25	0xbd86487a	-0.065567926
26	0xbd2c01ba	-0.041993834
27	0xbd31f737	-0.043448653
28	0xbd0a6627	-0.033788826
29	0xbd1d12ac	-0.038347885
30	0x3cf01bd9	0.029310154
31	0xbd1d250d	-0.038365413
32	0x3c833484	0.016016252
33	0xbcf0bd40	-0.029387116
34	0x3d2464da	0.040135242
35	0xbc83f63f	-0.01610863
36	0x3ca1313e	0.0196768
37	0xbd4efd4a	-0.050534524
38	0x3d431d2a	0.047635235
39	0x3af8a468	0.0018969895
40	0x3ceafca1	0.028684916
41	0xba64f80c	-0.00087344716
42	0x3ce2b200	0.027672768
43	0x3a6f1cbe	0.00091214094
44	0x3b60baef	0.0034291109
45	0x3d5762af	0.052584346
46	0x3d7c6634	0.061620906
47	0x3c317a42	0.010832371
48	0x3cad2b7f	0.021138905
49	0x3ce07f09	0.027404325
50	0x3b8a4076	0.00421911
51	0x3ceb49b8	0.028721675
52	0xbd2249f5	-0.039621312
53	0xbd202c6e	-0.03910487
54	0xbaba31c3	-0.0014205504
55	0x3c8d5554	0.017252602
56	0x3d45587f	0.0481801
57	0xbc84250a	-0.016130943
58	0x3add7c11	0.0016897937
59	0xbd3f2f70	-0.0466761
60	0xbc4b8865	-0.012422656
61	0xbba78f65	-0.0051135295
62	0x3d0e8ec5	0.034804124
63	0x3d3c2685	0.045935173

classifier.3.weight f4 [10, 64]
0	0x3e21d82f	0.15805124
1	0xbdd27413	-0.10276046
2	0x3e3b0941	0.18265249
3	0xbe3ea77e	-0.1861858
4	0xbe748536	-0.23878941
5	0xbcf74f68	-0.030189231
6	0xbe014e58	-0.12627542
7	0xbd976d91	-0.07393945
8	0x3c60b013	0.013713854
9	0xbe78c696	-0.24294505
10	0x3b09628b	0.0020963277
11	0xbdba80eb	-0.091066204
12	0x3e1b1b33	0.15147094
13	0x3d94b65c	0.07261345
14	0xbcfbeb50	-0.030751854
15	0x3e2e136b	0.16999595
16	0x3e16ecdb	0.1473879
17	0xbd12606b	-0.035736483
18	0xbd40db0c	-0.0470839
19	0xbe5ebae2	-0.21750978
20	0x3ca8fd66	0.020628642
21	0x3d00bee7	0.03143206
22	0xbd8f4cc6	-0.06997065
23	0x3e4387d1	0.19094779
24	0xbe1ccbbe	-0.15312096
25	0x3dd18b1b	0.102316104
26	0x3da0d16b	0.07852443
27	0xbcfa702c	-0.030571066
28	0x3dbf009e	0.093262896
29	0x3d37775e	0.04479157
30	0xbdd3c0ce	-0.10339509
31	0x3d245450	0.04011947
32	0xbcef2a07	-0.029194845
33	0xbdfd2e13	-0.123623036
34	0xbe6c8dc5	-0.23100956
35	0x3c7617c5	0.015020316
36	0x3d8cfd71	0.068842776
37	0xbd698d03	-0.057019245
38	0x3c97c64c	0.018527173
39	0xbe10151e	-0.14070556
40	0xbdf53020	-0.1197207
41	0xbbdb491c	-0.006692065
42	0x3d41ca2e	0.047311954
43	0x3dccc6fb	0.0999889
44	0x3d937537	0.07200091
45	0x3c6c6da3	0.014430436
46	0xbdc3e79e	-0.09565662
47	0xbe0162ba	-0.12635317
48	0x3dc1e24b	0.0946699
49	0x3d52a8c0	0.051430464
50	0xbde8234f	-0.113348596
51	0xbe2ddb19	-0.1697811
52	0xbca5fb5d	-0.02026146
53	0x3e11a6ca	0.14223781
54	0x3e1d5645	0.1536494
55	0x3bc4c73a	0.006005195
56	0xbdf3f3b7	-0.11911719
57	0x3dced832	0.1009983
58	0xbd43dc6f	-0.047817644
59	0x3d9ffaf4	0.078115374
60	0xbdb7d19b	-0.08975526
61	0xbcb43eb5	-0.022002557
62	0xbb716046	-0.0036831065
63	0x3c0e3389	0.008679279
64	0xbe233997	-0.15939938
65	0x3d1b61b9	0.037934992
66	0xbe3412ae	-0.1758525
67	0xbd456cad	-0.048199344
68	0x3d064061	0.03277624
69	0xbd0ad730	-0.033896625
70	0x3ddc4cc4	0.107568294
71	0x3e1494e9	0.1450993
72	0xbe4e602c	-0.20153874
73	0x3e3f5f26	0.1868864
74	0x3df2ca5e	0.11855005
75	0x3c6090a1	0.013706357
76	0x3e1592fa	0.14606848
77	0xbe365de5	-0.17809255
78	0x3d05b3da	0.032642223
79	0xbe4f825e	-0.20264575
80	0xbe0cb4d2	-0.13740852
81	0xbdd3cca6	-0.10341768
82	0xbcf34f8b	-0.029701015
83	0xbd5aa7b3	-0.053382587
84	0x3dc481cd	0.0959507
85	0x3d65ac9a	0.05607281
86	0xbe9c705a	-0.30554467
87	0x3c9323a3	0.017961329
88	0xbe24f48c	-0.16108912
89	0xbe651dec	-0.22374696
90	0xbe5e28b3	-0.21695213
91	0xbca5c5df	-0.020235954
92	0xbccd7497	-0.025080008
93	0xbe93b90a	-0.2885211
94	0xbde33b1e	-0.1109526
95	0x3cf81280	0.030282259
96	0xbe50cf85	-0.20391662
97	0x3d43ea57	0.047830906
98	0x3dbbc2ee	0.09168039
99	0x3b3cb160	0.0028792247
100	0x3e08fb75	0.13377173
101	0x3e155cc8	0.14586174
102	0x3e039737	0.12850653
103	0x3e597a6c	0.21238106
104	0x3e2ec441	0.17067052
105	0x3e2fb746	0.17159757
106	0x3db6eb55	0.08931605
107	0x3d40f999	0.047113035
108	0xbdc3483b	-0.09535261
109	0x3e57cce3	0.21074252
110	0x3e48da37	0.19614492
111	0xbe70d28e	-0.2351782
112	0x3ced3d84	0.028959997
113	0x3dc669b5	0.09688131
114	0xbd8974d2	-0.06711735
115	0x3e18da74	0.14927083
116	0x3ecc00ac	0.39844263
117	0x3d2682bd	0.040652025
118	0xbdab7cd6	-0.0837342
119	0xbb684946	-0.0035444065
120	0x3db09ec9	0.08624036
121	0xbe533546	-0.20625791
122	0xbdcb6468	-0.0993126
123	0x3da86a5e	0.08223413
124	0xbdf0b535	-0.117533125
125	0xbd3ecdfa	-0.046583153
126	0x3e606329	0.21912827
127	0x3c90531a	0.01761775
128	0xbd6fedb9	-0.05857632
129	0xbd2b39d5	-0.0418032
130	0x3e336612	0.17519405
131	0x3db17f7b	0.08666893
132	0x3e10c145	0.14136226
133	0xbd8f9d5d	-0.070124365
134	0xbd8b4ccb	-0.068017565
135	0xbdf9c9f7	-0.12196725
136	0xbe01b4ee	-0.12666675
137	0xbd808a07	-0.062763266
138	0xbda70b9b	-0.081565104
139	0x3e18d703	0.1492577
140	0xbda9bb26	-0.08287649
141	0xbd8c6877	-0.068558626
142	0x3dd1a399	0.10236282
143	0xbd8d7ae6	-0.06908207
144	0xbd185f20	-0.037200093
145	0xbd5eb303	-0.054369938
146	0x3d8357b5	0.06413213
147	0xbd86e9a7	-0.065875344
148	0x3e20ce60	0.15703726
149	0x3e2a5c98	0.16636884
150	0x3c940559	0.018068956
151	0xbd843875	-0.06456081
152	0x3d956037	0.07293742
153	0x3e24e8fc	0.16104501
154	0x3dfcb623	0.12339427
155	0x3d58f808	0.052970916
156	0xbcd63ea3	-0.026152914
157	0x3d51f063	0.05125464
158	0xbda12fcc	-0.07870445
159	0x3d004088	0.03131154
160	0xbe227459	-0.15864696
161	0xbcb218c2	-0.021740321
162	0xbe1f4a40	-0.15555668
163	0xbcf41f2f	-0.029800026
164	0xbe274762	-0.16335824
165	0x3e32da78	0.17466152
166	0xbdde9079	-0.108674
167	0x3e1b6654	0.15175754
168	0x3e02f161	0.12787391
169	0xbe80d28d	-0.25160637
170	0xbd58d838	-0.052940577
171	0xbd7a0982	-0.061044224
172	0x3dd1a93b	0.10237356
173	0xbdc9f80f	-0.098617665
174	0xbd6581f1	-0.056032125
175	0x3ccefc26	0.025266718
176	0xbd9460d6	-0.072450325
177	0xbdc85160	-0.09781146
178	0xbda3a8bb	-0.07991167
179	0xbe429d4f	-0.19005321
180	0x3d383163	0.044968974
181	0x3e1147df	0.14187573
182	0x3c6b06d5	0.014344891
183	0xbde30092	-0.11084093
184	0x3e0b2a8f	0.13590454
185	0x3db696ed	0.089155056
186	0xbe03cf7f	-0.12872122
187	0xbc5bcbdd	-0.013415304
188	0x3d9e9b2a	0.07744439
189	0x3e06c6d1	0.1316178
190	0xbe433c94	-0.19066077
191	0x3dc40a2d	0.095722534
192	0xbe04f87b	-0.12985413
193	0xbd0f8722	-0.035040982
194	0xbd1dac67	-0.038494494
195	0x3de0a9a2	0.10969855
196	0xbdd4f637	-0.10398524
197	0xbdd79bf9	-0.10527796
198	0xbe203f27	-0.1564909
199	0x3dcfb9fb	0.10142895
200	0x3ba26feb	0.0049571893
201	0xbda9964c	-0.0828062
202	0xbdb79962	-0.08964802
203	0x3da48930	0.08033979
204	0x3d345cd2	0.044033833
205	0x3e094d85	0.13408478
206	0xbd33968d	-0.04384475
207	0xbd9d2016	-0.076721355
208	0x3e05c45e	0.1306319
209	0xbd4509c4	-0.048105016
210	0x3d06eb7c	0.03293942
211	0x3d817ccd	0.06322632
212	0xbe2cbdc4	-0.16869265
213	0x3e0725db	0.13198034
214	0xbcabe879	-0.020984875
215	0x3dec6768	0.11543161
216	0xbd858723	-0.06519916
217	0xbdf784e0	-0.12085891
218	0x3dbe3ba6	0.09288721
219	0xbd25ea7f	-0.040506836
220	0xbddc50ae	-0.10757576
221	0x3beecc2e	0.0072875237
222	0xbd5d99d0	-0.054101765
223	0xbde435c0	-0.111430645
224	0x3d40d2f7	0.04707619
225	0xbbc7924a	-0.006090437
226	0xbc693ec1	-0.014236153
227	0xbd1c55dc	-0.03816782
228	0x3d821792	0.06352152
229	0x3d3fc7d5	0.046821434
230	0xbdc96bc6	-0.09835009
231	0x3db405e3	0.08790185
232	0x3da4b380	0.080420494
233	0xbddb6a67	-0.10713654
234	0xbdd37586	-0.1032515
235	0xbddbfd8d	-0.1074172
236	0x3e237f87	0.15966617
237	0x3c6a4d74	0.014300693
238	0xbdf0fe61	-0.11767269
239	0xbe0f31d6	-0.13983855
240	0xbdd1b6e3	-0.10239961
241	0x3cde38b8	0.027126655
242	0x3e0497b2	0.12948492
243	0x3c980f32	0.018561933
244	0xbe0024f5	-0.12514098
245	0x3db0351f	0.08603882
246	0x3c544b5b	0.012957419
247	0xbd2c393d	-0.042046774
248	0xbc088393	-0.008332151
249	0x3e4167c0	0.18887234
250	0x3d174dfe	0.036939614
251	0x3d838717	0.06422251
252	0x3d943c39	0.07238049
253	0xbe388fc0	-0.18023586
254	0xbde3aa78	-0.11116499
255	0xbe6fdf00	-0.23424911

classifier.3.bias f4 [10]
0	0x3d1b26b1	0.037878696
1	0x3d8514a6	0.06498079
2	0xbd8c37bf	-0.0684657
3	0xbc800540	-0.015627503
4	0xbdd7f9c7	-0.10545688
5	0x3e03e523	0.12880377
6	0xbc948407	-0.018129362
7	0xbd53a479	-0.051670525
8	0x3da76c22	0.081749216
9	0x3de1edba	0.11031671
