debate-mnist/models/batch256-lr1e-3/judge_4px.pth (torch, 157033 bytes, 8 tensors)

features.0.weight f4 [16, 1, 3, 3]
00000000: 36ec 71be 9a49 f7be bf5e a4be cd27 e83e
00000010: 110d 303e 2594 2d3f 5319 28bf acdb 19bf
00000020: 9ddb f63e 1632 10bc 5718 3d3f c649 413f
00000030: 552c 5c3d 18c7 96be 3bcc b93e 5854 cbbe
00000040: 0904 293d c5a2 ba3b c951 b4bd 673d 18bf
00000050: 5675 84be 88ff 103e d531 49bf 40ca de3e
00000060: 0296 5b3f 2c44 0ebf 2524 a9be 9ee1 9d3e
00000070: 8584 63be 49a0 ee3e f329 9ebe 5804 3f3f
00000080: 59a3 083d f9e5 ef3e 3bac 46be 1ceb 2abe
00000090: e589 9a3b 0f86 13be 450b 70be cfb8 d9bb
000000a0: 7477 d6be b11d f53e a805 dbba 4c3c adbe
000000b0: 1b9e b4be 1daa 473f c7a6 3ebc 34dd 09bf
000000c0: 18b0 ac3e 4891 a53e 907e a9bb 0ced f7bd
000000d0: 0795 d53e ac53 ae3e 710f 8bbd 2dd3 acbe
000000e0: 3d58 433e 944f 903e d935 99be 9f3e 443f
000000f0: dd71 3dbf f5b0 d7be ed64 dbbe 29c1 713f
00000100: 1a67 a4be 2332 173f 35c9 dcbe 5cd4 b2be
00000110: 3e99 34be c48b fe3e 557b c1bc 3b6b 22bd
00000120: 94b9 debe 4622 84bd 932d f73e a372 70be
00000130: 865d 353f cc31 88be 7738 28be c40a 6c3e
00000140: 2d63 33be 18ae cfbd 61d6 86be 3146 183e
00000150: 5fbc 82be d345 d3be b71f cb3e 2c5f 5a3e
00000160: 7073 823f 3c6c 9dbc bc6c 9ebe 9a88 273f
00000170: 8fdb 90be 2f57 2d3f d1fe 8bbe b906 9dbe
00000180: be2c ebbe f761 c9be 7569 a63d 29c1 f93d
00000190: 7477 06be 49b8 0cbf 2fc5 bfbe 07dc 5b3f
000001a0: 8e01 78be bc93 f4be 2fae 2f3e 4c73 f3bd
000001b0: 1032 22be acbb d73e f1e9 43bf 35a0 173e
000001c0: c201 77be 01f5 173f f2bb 083e ee99 0bbe
000001d0: 1f0e 7ebe 046b ecbe 8d5f 753d 7b17 33be
000001e0: 5963 f7be cca9 14bf c099 ee3e 0e7e 1b3f
000001f0: 18ce 833c e497 b1be 0427 123f 3f96 2a3f
00000200: 4135 4cbe d2ea a53e 17a7 a8bd af12 dabd
00000210: 0424 033e 6cdf 703d e2d2 87bd 9372 a63d
00000220: 698c ebbe 3bb1 e5be cfef 0c3f bdc6 293f
00000230: bf87 66be 98cd c8bd cd9f c1be 0811 8a3d
-0.23625264 -0.4829834 -0.32103536 0.45342866 0.17192484 0.67804176 -0.6566364 -0.6010082
0.48214427 -0.008801004 0.73865265 0.75503194 0.053753216 -0.2944877 0.36288628 -0.39712787
0.041263614 0.005695673 -0.08804662 -0.5946869 -0.2587077 0.14159977 -0.7859166 0.4351368
0.8577577 -0.5557277 -0.3303539 0.30836195 -0.22218521 0.46606663 -0.3089138 0.74616003
0.033358905 0.46855143 -0.19401638 -0.1669125 0.0047161453 -0.14406608 -0.23441799 -0.0066443454
-0.4188801 0.47874215 -0.001671006 -0.33835065 -0.35276875 0.7799395 -0.0116364425 -0.53853154
0.337281 0.32337403 -0.005172558 -0.1210576 0.4171526 0.34048212 -0.067900546 -0.33754864
0.19076629 0.28185713 -0.29923895 0.7665805 -0.74001867 -0.42127195 -0.42850438 0.94435364
-0.3210991 0.5906088 -0.4312226 -0.34927642 -0.17636582 0.49716008 -0.02361838 -0.039653044
-0.4350096 -0.0645185 0.48276958 -0.2348123 0.7084583 -0.26600492 -0.1642779 0.23050982
-0.17518301 -0.101406276 -0.26335433 0.14870526 -0.2553434 -0.4126421 0.39672634 0.21325368
1.0191479 -0.01921665 -0.30942333 0.6544281 -0.2829251 0.67711157 -0.27342847 -0.3066919
-0.45932573 -0.39332554 0.08125583 0.121950455 -0.13131505 -0.54968697 -0.37455127 0.8588261
-0.24219343 -0.47768962 0.1715629 -0.118872255 -0.1583941 0.4213537 -0.7652884 0.14807208
-0.24121764 0.5935822 0.13352945 -0.13632938 -0.24810074 -0.46175396 0.059905577 -0.17489426
-0.48317984 -0.5807159 0.46601677 0.6073922 0.016089484 -0.34686196 0.57090783 0.6663551
-0.1994219 0.32405716 -0.08234995 -0.10648095 0.12806708 0.05880682 -0.066320196 0.08127322
-0.46005562 -0.4486178 0.5505342 0.66318876 -0.2251272 -0.09804839 -0.3781723 0.0674153

features.0.bias f4 [16]
00000000: 8133 93ba 6e80 96bc f3ad c4bb 957e 63be
00000010: ff09 a53e 5df9 8dbe 4385 0b3c 3891 40be
00000020: 2c0f 4dbd 86df e5bd 1314 353d 90a4 29bd
00000030: 41ac c0bd 1f08 993d 467c cb3d ca13 263e
-0.0011230559 -0.018371787 -0.0060021817 -0.22216256 0.3223419 -0.27729312 0.008515659 -0.18805397
-0.050063297 -0.11224274 0.044208597 -0.041416705 -0.09407855 0.07472252 0.09935813 0.16218486

features.3.weight f4 [32, 16, 3, 3]
00000000: 8ed7 fdbd 2396 9b3d 9bc0 473e 91be 173e
00000010: 6a9b 1f3e 8aad 503e e388 243d f730 d4bc
00000020: d6fc 26be 1b1f a43d 13bf 04be eea3 e8bd
00000030: 600b ffbc 791b b5bb eaba 043e 2862 4f3e
00000040: 29a2 f93d fcaa 593d b7ba b13e bd08 f6bd
00000050: 2c2e 0e3e f2e4 753e 3ab1 ab3e 1046 863e
00000060: 7659 453d 0cbb 563e f88d 443e 963a 373e
00000070: 851a 4bbe b67b 753e 7496 123e 09dc 983e
00000080: f2c3 333e 8502 093e fb31 923d 3963 0f3e
00000090: eb8b a9be f4c5 1bbe 31f7 9abe 39e0 debc
000000a0: 2c36 dbbc 22eb 0dbe 12f0 17be 7437 b5be
000000b0: 3db2 20be 8b97 75bd 6ae4 8c3e 603e 623e
000000c0: daf4 b83e 6731 333e 4891 c43e e48b 743e
000000d0: 5271 b13e 760b ec3d 09fb 2bba 91f7 4cbd
000000e0: 5a6b 6f3d fb9a fb3d cf51 193e 7e1a 893d
000000f0: 4b8e a6bc d7f2 09bd 79ba 403d 8730 d83d
00000100: 2626 9ebe 2f19 1d3e 9945 1f3e 8630 11be
00000110: 4691 9a3e e477 843e 3ba9 e23e bb78 aa3e
00000120: 479e 8d3d 5e19 cd3d b105 093d 445d 1e3e
00000130: 7a94 8c3e 04f5 6c3d 631a 683e b6f7 3e3a
00000140: cc1f 3d3e 0e59 e2bd cafb 07be 2e43 6ebd
00000150: b293 223e eb7c d53e 9fd7 603d 1196 973e
00000160: 0f3d 643d 2ab4 253d 8961 acbd 7918 04be
00000170: 8219 12be f8e2 3e3e 7735 4d3c a025 903d
00000180: 7e6f ab3b 6081 123e 7ba7 78bd c676 0c3e
00000190: c698 643e 626f cb3d 6eeb 4f3e a03a cf3e
000001a0: 4475 543e e2c5 b83d 2172 283e 9712 4abd
000001b0: 4470 3c3e 39f3 0c3e 9872 4f3e d6bd 583d
000001c0: a51b 9b3e a791 043e 6bf7 be3e ca0b e33d
000001d0: c4d5 ca3c f256 febd 9aa7 52be d9ba d3bd
000001e0: 16a5 243e 0a78 2e3e 5c6b a63d dae1 353c
000001f0: 3be8 da3d 4360 4ebd e01a 813d 5e44 22be
00000200: 49fe 5abe 8c02 e7bc 5d80 35be 0ccb d93a
00000210: 0beb a03d 0b65 9d3d e259 223c 9933 fbba
00000220: 6ca9 1cbe 14ea 75bd 73bb 473d bb2c 003e
00000230: fa52 693d 503a b9bd 8361 2b3d acb2 46be
00000240: e056 7c3c cbef d53c 9ab9 bfbd f62b 7dbd
00000250: baa4 b1bd 2109 aebd 982d d3bb be5f 2abb
00000260: 5dcb 52bd 23f9 10bd 7222 493b c265 35bd
00000270: 5a96 273d d386 8abd 1853 113d 22fa 5b3b
00000280: eabb 21bd b556 243d 9a57 18bd 548f 73bd
00000290: eed2 723d daf1 81bc 14b3 6bbd d35a 92bd
000002a0: 6557 d4bc 4696 c739 ee88 be3c 0c93 81bc
000002b0: d0c4 f63b a6bf 9bbd 6feb b13d 162f b2bc
000002c0: d0d4 dbbc daec cbbc 06b0 e5bc c6cb a53b
000002d0: 4d04 863c e66a 0d3c 09fd d13c e332 8ebd
000002e0: 839f 25bd 8131 d43c a813 96bd 5291 b6bd
000002f0: 7c26 c4bd a0e4 5fbd 8f1d 8dbd 28be 74bd
00000300: 6be7 4abd 68c7 263c f186 ab3b 5336 783c
00000310: 97cf 8ebd c3e9 c6bd afcf aabd ea16 efbd
00000320: 571b 83bd b160 2c3c 8f31 c8bd fc29 b23c
00000330: 9c07 b0bd 70a1 443c 2c27 93bc 80f3 ee3b
00000340: 003a 9fbc 5061 89bb 2e9e a93d 7f15 90bd
00000350: 80ef 80bb 3e22 f63c c869 32bc b085 9fbd
00000360: 1883 8ebd 6c3e 9dbd 4cd2 923c f330 88bd
00000370: db62 823d 8335 b2bd ca73 1a3d ab33 803d
00000380: 8514 393d e85b 16bc 861e 5d3d 4030 b5ba
00000390: a5a1 4f3c 3cf8 8a3c 980d c03c 20f1 643d
000003a0: f326 82bd 03b6 583d 1a81 13bd 1a93 dfbc
000003b0: 521b 85bd c5aa c0bd 47fc 90bd dccb 2bbd
000003c0: 7e95 273d bea7 a4bd 2010 d1bd a641 663d
000003d0: 73cb 08bd 550a 973d 8a24 3bbd c747 48bd
000003e0: 09c5 78bd 98c2 95bd 386a 6abc 8b62 cabd
000003f0: f8d8 563c 3e09 97bd 6861 56bc 0890 ae3c
-0.123946294 0.07596996 0.19507067 0.14818789 0.1558663 0.203787 0.040169608 -0.025902255
-0.16307387 0.080137454 -0.12963514 -0.11359392 -0.031133354 -0.0055269566 0.12961927 0.20252287
0.12189133 0.05314158 0.34712765 -0.120133854 0.138848 0.24013117 0.3353365 0.26225328
0.04818102 0.2096979 0.19194782 0.17893443 -0.19834335 0.23972973 0.14315206 0.29855374
0.17555216 0.13379867 0.07138439 0.14002694 -0.3311456 -0.15212232 -0.30266717 -0.027206527
-0.02675923 -0.13859227 -0.14837673 -0.3539387 -0.15692993 -0.059958976 0.27518016 0.22094107
0.36124307 0.17499314 0.3839209 0.23881489 0.3465677 0.115256235 -0.00065605395 -0.050040785
0.058451988 0.122854196 0.14972614 0.06694506 -0.020331522 -0.033678856 0.047052834 0.10556131
-0.3088848 0.15341638 0.15553893 -0.14178666 0.3018896 0.2587272 0.44269738 0.33295235
0.06914955 0.10014604 0.033452693 0.15465266 0.2745703 0.057850853 0.22666316 0.00072848366
0.18469161 -0.11052142 -0.13279644 -0.058169536 0.15876654 0.41696867 0.054893132 0.2960668
0.055722293 0.04045502 -0.08417041 -0.1289996 -0.14267543 0.18641269 0.012524954 0.070384264
0.0052317968 0.14307165 -0.060706597 0.13717183 0.22323903 0.09933354 0.20304653 0.40474415
0.20747858 0.09022118 0.16449787 -0.049334135 0.18402201 0.13764657 0.20258558 0.052915417
0.3029453 0.12946187 0.3729814 0.11086233 0.024760135 -0.12418927 -0.20571747 -0.10338373
0.160786 0.17037979 0.08125946 0.0111012105 0.10688826 -0.05038477 0.06303954 -0.15846393
-0.21386065 -0.028199457 -0.17724748 0.0016616299 0.07857331 0.07685288 0.009909125 -0.0019165158
-0.15299004 -0.060037687 0.04876275 0.12517063 0.0569639 -0.09044325 0.04184104 -0.19404095
0.015401572 0.026115319 -0.093615726 -0.061809503 -0.08673997 -0.08497835 -0.006444644 -0.0025997008
-0.051463474 -0.035393845 0.0030690697 -0.044286497 0.04091487 -0.06763997 0.035479635 0.0033565839
-0.03948585 0.040121753 -0.03719292 -0.05946286 0.05928319 -0.015862394 -0.05754383 -0.071462296
-0.02592058 0.000380682 0.023258653 -0.015817188 0.007530786 -0.076049134 0.086874835 -0.021750968
-0.026834875 -0.024893213 -0.028038036 0.005059692 0.016359473 0.008631444 0.025633352 -0.069432996
-0.040435325 0.025902512 -0.07327968 -0.089144364 -0.09577653 -0.054661393 -0.068904035 -0.05975166
-0.049537104 0.010179378 0.005234592 0.015149671 -0.06973188 -0.09712555 -0.08340394 -0.116742924
-0.06401699 0.0105211 -0.097750776 0.021748535 -0.085952014 0.01200138 -0.017963015 0.007292211
-0.019436836 -0.0041925088 0.082821235 -0.0703535 -0.0039348006 0.030045625 -0.010889478 -0.07789171
-0.06958598 -0.07677922 0.017922543 -0.06649961 0.063665114 -0.08701613 0.03770808 0.06259855
0.045185585 -0.009177186 0.053984188 -0.0013823584 0.012672816 0.01696407 0.023443982 0.055894017
-0.06355085 0.052907955 -0.036011793 -0.027291823 -0.064993516 -0.09407572 -0.07079368 -0.041942462
0.04091405 -0.08039807 -0.10208154 0.05621495 -0.03339715 0.073750176 -0.045689143 -0.048896577
-0.060734782 -0.073125064 -0.014307551 -0.09882077 0.013113253 -0.0737481 -0.013084747 0.021308914

features.3.bias f4 [32]
00000000: 8d01 54be 8590 e4bd 7f04 adbd 1447 593c
00000010: da28 64bd 7c77 1fbe dc11 17be 6444 4bbe
00000020: bdd0 57bd a06d 74be f07b 5bbd 7b8f 13be
00000030: c6c8 42bd f3a5 26be ae79 3cbe 9845 adbb
00000040: 3743 13be 9f6f 7abd 6826 433d 7bd8 dcbd
00000050: ce43 58be 3e7d b3bd 97b6 db3c 2e93 b7bd
00000060: 10af 34be bd3c a63d 57fc b6bd 1d14 37be
00000070: 76c1 b3be 8c3a 0cbe fc55 efbd 33c1 1bbe
-0.20703717 -0.111603774 -0.08448123 0.013261575 -0.05570302 -0.15572923 -0.14752907 -0.19850308
-0.052689303 -0.23869944 -0.053584993 -0.14410202 -0.047554754 -0.16274242 -0.18405792 -0.0052878372
-0.14381109 -0.061141606 0.04764405 -0.10783478 -0.21119615 -0.087641224 0.026820464 -0.08963619
-0.17644906 0.08117054 -0.08934849 -0.17878766 -0.35108536 -0.13694209 -0.11686322 -0.15210418

classifier.1.weight f4 [64, 512]
00000000: 7f8c cb3c ca4a b9bc 689f 56bd 1bef 053c
00000010: ea7a 233d cf4d 67bc 97d2 7e3b ae4d cb3b
00000020: d92f 483c c785 faba bd4c 1abd 75ca 69bd
00000030: ca06 4f3c 486f 0a3d 054c ce3c b77a 41bd
00000040: dded 053d e8eb 91bb a2c7 b23c b19a c8bc
00000050: 52ae b13c fc7b 343c 80f6 11bb dc92 44bc
00000060: eb49 093d 8555 163d 02a3 973c 1087 6a3c
00000070: f708 e9bc d62a 03bd 576c ffbc d804 4a3c
00000080: df8b 113c 2971 63bd 994b a8ba c085 cabc
00000090: e07a 68bd ce84 cabc 8b9f 083d 79d7 ea3c
000000a0: 40fb e3bb 0eb6 88bb 4012 47bd bc0d c3bc
000000b0: d646 8ebc 00ac 23bc 95bf 8fbb b0b5 d73b
000000c0: c1ce 1abd e799 f13c 3d6d adbc 075f 27bd
000000d0: f7b1 873c c36c 0a3d bfad b53c 9352 90bc
000000e0: 71ae 6a3c b843 0abd 316b 39bc 9cd3 9ebc
000000f0: 9b50 44bd 9f05 40bd 6446 b7bb 94aa e43c
00000100: a8e6 5cbd 8dea 62bc 0637 3ebd 743d 2a3c
00000110: 4a08 973c 8261 ab3c c8fa 06bd 851a 453b
00000120: 1f4b 353c c5b1 5d3c 0114 1a3d 27b3 81bc
00000130: 8bea 84bc c671 09bd 2bd5 9e3c f1e2 cdbc
00000140: 313c f83c be22 14bd a5eb e8bc 57e7 2ebd
00000150: 4a18 3fbd 8317 a83b 6d8a 79bc abb7 34bd
00000160: d686 4d3c f5e2 34bd e9f9 12bd 76ca d6bb
00000170: 2272 4b3c 77b5 9c3c 8a96 473c f8c9 6c3b
00000180: 0b67 34bd 30d6 e83c 5184 bd3c b656 023c
00000190: 938c b1bc 60d9 bf3c 00a5 b9ba 44a4 54bd
000001a0: f4ac 59bc 00fb 0dbd 8164 1c3c 0f46 0fbc
000001b0: 51ae 3cbc a251 d83c 8dbf a0bc 0444 ac3b
000001c0: e0e9 0cbd b691 d1bb ef77 42bc fa2a ce3c
000001d0: 30cd 3e3b 686a a5bc 28bd 26bd 6522 cf3c
000001e0: e96b 2dbd afad 25bc 4203 33bc 7f16 213b
000001f0: 6d64 34bd 4543 b13b 6bab ab3c 4837 acbc
00000200: b31b 38bd b131 78bc 9498 373c ba87 023b
00000210: b515 073d e780 c03c c1f0 143d 6219 6a3c
00000220: 1cdf c8bb 4c5d 05bd c44e 18ba 47c8 cb3c
00000230: 4731 b33b 3009 4a3c c698 303c f312 f13c
00000240: 6ac2 7abc 957c 45bd 02fd b5bc 6f75 febc
00000250: c3b4 813c 730c 58bd d563 833c 4208 19bd
00000260: 5c5b 63bd 1e09 733c fdcc 2b3d 57a9 e53c
00000270: e198 323c 857e f6bb 5a78 aebc cdd8 1f3c
00000280: 58b4 42bd af29 2ebd 358d 3abd 5a5e 6f3c
00000290: 6ae2 6bbd 23c6 3ebd a70b f4bc 5788 d43c
000002a0: cffe a2bc 3de3 4dbd 9a73 333c f163 8c36
000002b0: 523e 89bc 9c33 723c ae20 4a3c 1398 853c
000002c0: 75cb 323c c959 1c3c 09ea 52bd 0e42 49bd
000002d0: cbbb b63c c021 f23c 933b 42bd c48f 30bc
000002e0: c3cc 1bbc c11e b9bb af35 123d 88e0 6b3a
000002f0: b8ba 80bc 5240 6ebd 4d11 aabc 8021 4b3c
00000300: b300 d43c 8896 febb f615 e23c 9aca ef3b
00000310: 872b 433c 376d 09bc de8a 5739 b00a bcbb
00000320: 296a a83b 1729 163d 340d 0a3d a71f 003d
00000330: 05f6 08bd 0bd3 3fbd 18bf 16bd bf95 c8bc
00000340: 9225 1ebd 1787 1f3d e3ce 4abc 0287 dbbb
00000350: 22a1 823b c798 093d d2e8 ad3c 08bb cbbc
00000360: dd83 24bd dcfd 59bc 3505 ba3c b393 693b
00000370: 8139 d93c ff37 02bd b8fd 60bc caa2 a3ba
00000380: a7fd 863b 58c0 06bd 4bdd 833c 1146 a13c
00000390: 68c6 21bd 472a afbc f84d 9dbc d8ae 6fbc
000003a0: 70b0 6dbd c5da 813c 02dc 2ebd cc86 c73b
000003b0: 03d1 073c bbec b8bc b109 c6bc b825 973c
000003c0: c9e3 453c bd5a 30bd b796 f5bb 7790 0fbd
000003d0: 4c96 9dbc 5fa5 72bc 5c79 c33c 67b5 b93c
000003e0: 15f0 203c 337d 723c ff56 233b d3c7 f83b
000003f0: 0447 68bd 95fb 843c 7cee cd3c 4bb1 6abc
0.024847267 -0.02261867 -0.052398115 0.008174683 0.03991214 -0.014117672 0.0038882846 0.0062043285
0.012218439 -0.0019113355 -0.03767084 -0.057077844 0.012635896 0.033797532 0.025182733 -0.04723617
0.032697547 -0.004453171 0.021823708 -0.024487825 0.021689568 0.011015888 -0.002227217 -0.011997905
0.03351776 0.03670265 0.018510345 0.014314428 -0.028446658 -0.032023273 -0.03117959 0.012330256
0.0088834455 -0.05552784 -0.0012839913 -0.02472198 -0.056757808 -0.02472153 0.033355277 0.028667198
-0.0069574416 -0.0041720932 -0.04860139 -0.02381026 -0.017367762 -0.009989738 -0.004386852 0.006582938
-0.037794832 0.029492332 -0.021170253 -0.04086211 0.016564352 0.03379513 0.022177575 -0.0176175
0.014323817 -0.033755988 -0.01131706 -0.019388013 -0.047928434 -0.04688036 -0.005593108 0.02791337
-0.05393091 -0.013849867 -0.046439193 0.010390628 0.01843657 0.020920519 -0.032954007 0.0030075621
0.011065274 0.013531153 0.037616733 -0.015832497 -0.01622512 -0.03355577 0.019388756 -0.025132628
0.030302139 -0.036165945 -0.028432677 -0.04270109 -0.046654023 0.005129756 -0.015230757 -0.044120472
0.012544354 -0.044161756 -0.035882864 -0.006554897 0.012417348 0.019129498 0.012181887 0.0036131125
-0.044043582 0.028422445 0.023134382 0.007955244 -0.021673476 0.023419082 -0.0014163554 -0.05191447
-0.013285864 -0.0346632 0.009545446 -0.008744731 -0.01151617 0.026406113 -0.019622589 0.0052571315
-0.034402728 -0.006395544 -0.011869415 0.025166977 0.0029114 -0.02019234 -0.040707737 0.025284955
-0.04233924 -0.01011221 -0.01092607 0.002458006 -0.044041086 0.0054096305 0.020955762 -0.021022454
-0.04494829 -0.015148566 0.011205811 0.0019917325 0.032979686 0.023498965 0.036362413 0.014288278
-0.0061301123 -0.032559678 -0.0005810077 0.024875773 0.005468521 0.012331292 0.0107786115 0.029427981
-0.015305141 -0.048214514 -0.02221537 -0.031061856 0.015833264 -0.052746248 0.016038815 -0.03736139
-0.05550705 0.014833717 0.04194354 0.02803485 0.010900707 -0.0075224065 -0.021297622 0.009756279
-0.04753527 -0.04252022 -0.04554482 0.0146098975 -0.057588972 -0.046575677 -0.029790713 0.025943918
-0.019896893 -0.05026554 0.0109528545 4.18396e-06 -0.01675335 0.014782812 0.012336893 0.016307866
0.010912766 0.009542891 -0.051492725 -0.04913526 0.022306344 0.029557109 -0.047420096 -0.010776464
-0.009509268 -0.005649418 0.035695728 0.00089979963 -0.015714034 -0.05816681 -0.020760203 0.012398124
0.02587924 -0.0077694096 0.027598362 0.007317853 0.011912233 -0.008387855 0.0002055573 -0.0057385787
0.0051396084 0.03666028 0.033703998 0.031280186 -0.033437748 -0.046832126 -0.036803335 -0.024485467
-0.03861005 0.03894719 -0.012378427 -0.006699444 0.0039864937 0.033592965 0.021229181 -0.024869457
-0.040164817 -0.013305154 0.022707561 0.0035641014 0.026516678 -0.031791683 -0.013732366 -0.0012484428
0.004119593 -0.032898277 0.016096732 0.01968673 -0.039495856 -0.021382464 -0.019202217 -0.014629088
-0.058029592 0.015851388 -0.042690285 0.006089067 0.008289578 -0.02257382 -0.024174543 0.018450603
0.012078234 -0.043055285 -0.0074947733 -0.03504988 -0.019236706 -0.014809935 0.02386158 0.022669507
0.009822865 0.014800358 0.002492368 0.0075921803 -0.05670835 0.016233245 0.025138132 -0.0143244965

classifier.1.bias f4 [64]
00000000: 9a34 30bd 558a dcbc 1c93 733c 9c26 76bc
00000010: 7c3b bebc 701f 703c d40c 293d 3436 2dbd
00000020: e162 a43d da28 943d 80b9 423e bf21 233d
00000030: f597 8ebb c8f4 1bbd b25a f63b a101 f63c
00000040: 6e9b f23b e238 173e 66f0 34bd 0366 42bd
00000050: c365 cdbc 06e4 34bd d3e3 003e ee3b 083e
00000060: 4be6 ccbb 2dac c0bc 8217 23bb 2ede 453d
00000070: 6f4f 3e3d 725e 813c 9a49 fd3c a3ef 40bd
00000080: ae86 68bd 0571 29bb cf64 653d 5958 553c
00000090: e208 0ebd 0f64 ea3c 4274 3cbd 79e8 903a
000000a0: d9c8 663c 166e b5bb 945c 693d ea97 113d
000000b0: 3452 0fbd 89ca cb3d cb89 9dbc 198e 32bc
000000c0: 6316 cb3c 20c8 e0bc 9ac7 493d 6e1a 683d
000000d0: 4d41 40bb f9a1 e0ba 7223 abbc 4e35 31bd
000000e0: 834a 8cbc c720 8cbd 366c 27bd 65cf 0e3e
000000f0: 8dc6 2ebd 97cb 593e 2a35 02bd cfa2 0fbb
-0.043018915 -0.02692143 0.014866617 -0.015023854 -0.023221724 0.014655933 0.041272 -0.04228802
0.08026672 0.07234354 0.19016075 0.039827105 -0.004351611 -0.03807524 0.007518136 0.030030074
0.0074037826 0.14767793 -0.044174574 -0.047460567 -0.025072938 -0.044162773 0.12586908 0.13304111
-0.006253039 -0.0235196 -0.0024885838 0.04830759 0.046462473 0.015792105 0.030918885 -0.047103535
-0.056769066 -0.0025854718 0.05600434 0.013021552 -0.03467644 0.028612165 -0.04600931 0.001105561
0.014085972 -0.005536805 0.056973055 0.035545267 -0.034990504 0.0995074 -0.019230744 -0.0108981365
0.024790948 -0.027439177 0.04926262 0.05666583 -0.0029335797 -0.0017138115 -0.020890925 -0.043263726
-0.017125374 -0.06842189 -0.040874682 0.13946302 -0.04266982 0.2126907 -0.031788982 -0.002191711

classifier.3.weight f4 [10, 64]
00000000: 7c5b bbbd e23a 96bd c0d0 853c c9bc 80bd
00000010: 7fd9 af3d 87c9 6f3d 130c cb3b 00ce e8bb
00000020: 6bbd 303e 254c b2bd 3d40 66bd 1b27 edbd
00000030: 30e1 393e 0909 c1bd 60bb 31bd 1245 ca3d
00000040: baad 223c 2ee7 2dbe b187 c93d 533a e9bd
00000050: 8581 bd3d 1896 ad3c a856 38be b701 07be
00000060: 127d c83d f955 503e a27d e53d e7c6 ebbd
00000070: c0b4 d83c 8c7f d6bd b281 79bd 8988 2e3c
00000080: 5573 9c3b 138e 4f3d 31b0 30be d236 be3d
00000090: 5b06 043c b4ce 373e 566a 39bc a9db 703e
000000a0: f024 d73d f55b 163d b170 33be a26a 8fbe
000000b0: 903a 67bc 9e14 24be c7f1 13bd c3c0 df3d
000000c0: e737 a33d 5088 bebd a1ae dabd 5bd4 9abd
000000d0: 4d82 5f3c 6bb6 883d 0da0 d9bd 20f3 373e
000000e0: 9ca3 8d3d e155 4dbd 492d c8bd 2c80 97bc
000000f0: 5e22 40bd 4ca1 b3be e99d 8a3d a3b7 b3bd
00000100: 05a0 e2bc aa6d 49bc ee1d 65bd 7099 06be
00000110: 9e4e a0bd 5436 2c3d 8782 f73a e796 9d3d
00000120: e5fd f8bd 92f2 ba3c 2f02 8c3e 6a86 173f
00000130: 9d44 ba3d bf0b ec3c c791 f8bc 35ab eabe
00000140: 691d 8cbc 5441 803e 54d8 cbbd 4d5f 873d
00000150: 7f1b 6cbd 65ea 75bc d2af b33e aced 043e
00000160: 5cc1 01bc 1123 213e e64d d7bd 1b5d f0be
00000170: 7f98 3a3e 3814 77bd 2d46 3fbe 4170 e53d
00000180: bac6 02be f76f 3f3c 631a 49be d994 8b3c
00000190: 337e ef3c a37b a7be 136e febc 5bc2 41be
000001a0: e8fb e43d ddbb 0d3e e315 2d3e d01d be3d
000001b0: 3fe6 bd3d 2bca 21be 1cd6 863d bc12 bcbd
000001c0: 7514 ea3c 900d c63c 346e 463d 8099 6c3d
000001d0: 08e4 a93c 5bd0 093d e79c 9ebd 7ab6 2cbe
000001e0: 60c7 3fbd 4db5 9e3d 9335 ee3d fa08 64be
000001f0: 8e21 523c d7f0 9ebd 5804 44bf daf8 bdbd
00000200: a65e 76bd 993a 963d 677c 6ebd 4330 f23c
00000210: bae6 e53c b7d9 ad3d 2d63 803d ad13 043d
00000220: b6b5 3fbe ef31 38bd dd3a 52be a884 53be
00000230: 467f 903d b3c1 e83c 15e6 06be 69d3 903d
00000240: 6592 04bd 3b38 afbd c932 c03d 4358 e43c
00000250: 7fd3 e2bc fe54 d4ba 85b6 1dbd e91f fb3d
00000260: 56b7 efbd 4664 cd3d ef85 0c3d 42b4 acbd
00000270: b36c 70be 72dd 67bd 0934 a8bd 96ce 8f3d
00000280: 47a2 243e eb28 a5bd c13b 06be 4d50 ee3d
00000290: 1fee 243e cf1d c93d e772 0fbd 1d87 94bc
000002a0: 8773 b33d c292 943e 10c3 203d 3d6c fc3d
000002b0: 99e9 f0bd 48ed cd3d df68 cbbb 5f9c b73d
000002c0: 4262 3cbe 1954 a73d 87e1 18bd e88d 343e
000002d0: 57a7 c4bd f061 47be fada 893d 3a89 e43d
000002e0: bea3 a23c 8d96 8abd b4d9 84bd 6fbc 3ebe
000002f0: d1f4 a8bc 28b9 4abe 45f1 c6bb b871 a63d
00000300: 7932 583d 33f1 053e 37b4 57be 3cae 693d
00000310: 84bb b03c 950b a53d 85c4 12be 8c92 163d
00000320: 0d56 8abd 7a08 8e3b 9133 a9bd 3910 f8bd
00000330: d897 8a3d 6b84 35bc a82b 01bd 2192 0abe
00000340: 5b87 4ebd 6f59 e53d 7cf1 ea3d 9a41 eb3d
00000350: c72e a1bd d0de 8dbc 1377 8fbd 9c8a bfbd
00000360: 9d7b b5bb 2da3 87bd bf3e eebc d431 933c
00000370: 9c08 6abe 719a 8f3d 76a3 36bd d198 aabd
00000380: f88e 9abc b961 d2bc 7892 083e d58f c9ba
00000390: 03da d73d eb02 1ebe cdf9 c13d 065b 103e
000003a0: c77b 43bd 03b9 1ebe 5413 83bc 6174 e13d
000003b0: 0122 e3bd 12f6 c93d b569 603d cdc7 d7bd
000003c0: dc08 373b 30a2 88bd 9461 68be d07f 8b3e
000003d0: e6d4 133d 8b53 263e c1da db3d 6d58 393e
000003e0: afdb af3c 3da9 2fbd b273 05be 5af1 70bd
000003f0: 2a65 9b3d d346 e5bb b68e 24bc 964b f2bc
-0.09148309 -0.0733545 0.016334891 -0.06286008 0.08586406 0.0585418 0.0061965077 -0.0071046352
0.17259757 -0.0870593 -0.056213606 -0.115797244 0.18152308 -0.094255514 -0.043391585 0.09876455
0.009929115 -0.1698272 0.09840334 -0.113880776 0.092532195 0.021189734 -0.18001807 -0.13184248
0.0978948 0.20345296 0.11205603 -0.11512547 0.026453376 -0.104735464 -0.060914703 0.01065267
0.004774491 0.050672602 -0.17254712 0.092878 0.008058156 0.17949945 -0.011316856 0.23521294
0.10505092 0.03670879 -0.17523457 -0.28011042 -0.0141130835 -0.1602349 -0.03611925 0.10925438
0.07969647 -0.09303343 -0.10677839 -0.07560035 0.013641906 0.066754185 -0.106262304 0.17963839
0.06915972 -0.05013073 -0.097742625 -0.018493734 -0.046907775 -0.35083997 0.067684 -0.0877526
-0.027664194 -0.012294212 -0.055936746 -0.1314447 -0.07827495 0.042044 0.0018883505 0.07694798
-0.121578015 0.022820745 0.27345416 0.59189475 0.09095118 0.028814195 -0.03034295 -0.45833746
-0.017103868 0.2504984 -0.09953371 0.06609974 -0.05764341 -0.015009497 0.35095078 0.1298129
-0.007919636 0.15736033 -0.10512905 -0.46946034 0.18222235 -0.060322016 -0.18679114 0.11203051
-0.1277112 0.011684409 -0.19638972 0.01703875 0.029234981 -0.32711515 -0.031058347 -0.18921797
0.1118086 0.13841195 0.1690288 0.0928303 0.092724316 -0.15799777 0.06583807 -0.09183261
0.028574208 0.024176389 0.04844494 0.057763577 0.020738617 0.03364597 -0.077447705 -0.16866484
-0.046821 0.07749424 0.11631312 -0.2226905 0.012825383 -0.0776078 -0.7656913 -0.0927598
-0.060148858 0.07335395 -0.058224108 0.029564029 0.02806412 0.084887914 0.06268916 0.032245327
-0.18721661 -0.044969495 -0.20530267 -0.20656073 0.070555255 0.028412675 -0.13173707 0.07071573
-0.032366175 -0.08555647 0.093846865 0.027874118 -0.02768874 -0.0016199646 -0.038504142 0.12261946
-0.117048904 0.10028891 0.034307417 -0.08432819 -0.23478965 -0.05660767 -0.0821305 0.07021825
0.16077529 -0.08064445 -0.13108732 0.1163641 0.16106461 0.09820139 -0.03502169 -0.018130833
0.087622695 0.29018217 0.039248526 0.12325332 -0.11763305 0.100550234 -0.00620757 0.08965372
-0.18396857 0.08170337 -0.037324455 0.17632258 -0.0960223 -0.19470954 0.067312196 0.111589864
0.019853469 -0.067669965 -0.06486836 -0.18626569 -0.02062455 -0.19797194 -0.006071242 0.08127159
0.05278251 0.13080291 -0.2106484 0.05705093 0.02157379 0.0805885 -0.14332779 0.03676085
-0.06754694 0.0043345066 -0.08261789 -0.12112469 0.06767243 -0.011078934 -0.031535774 -0.13532306
-0.050422054 0.11198699 0.11471841 0.11487122 -0.0787025 -0.01731816 -0.070051335 -0.093526095
-0.0055384175 -0.0662292 -0.029082654 0.017968096 -0.22854847 0.07011879 -0.044589482 -0.08329929
-0.018867001 -0.025681363 0.13337123 -0.0015377948 0.10539629 -0.154308 0.09471474 0.14097223
-0.047725465 -0.15500264 -0.016000427 0.11008526 -0.1109047 0.09861387 0.05478831 -0.10536156
0.0027928865 -0.0667156 -0.22693473 0.2724595 0.036091708 0.16242807 0.10735083 0.18100138
0.021467058 -0.042886008 -0.13032416 -0.05882392 0.07587655 -0.0069969683 -0.010043791 -0.029577058

classifier.3.bias f4 [10]
00000000: ed2e d8bd 3ff5 d63d 7d30 2fbe e6ff 923d
00000010: cfc3 6bbd 05f0 863d 3844 babd 60d5 5fbb
00000020: 1397 2a3b 0002 2c3e
-0.105558254 0.10495996 -0.1710834 0.07177715 -0.057559785 0.06588749 -0.09095043 -0.003415428
0.0026029989 0.16797638
