debate-mnist/models/batch256-lr1e-3/judge_6px.pth (torch, 157033 bytes, 8 tensors)

features.0.weight f4 [16, 1, 3, 3]
0	0x3d007aa4	0.03136696
1	0xbd59a7ed	-0.053138662
2	0xbc46b86d	-0.0121289315
3	0x3e1459d3	0.1448739
4	0xbd253bcb	-0.040340226
5	0x3edd5371	0.43227723
6	0x3e657c2f	0.22410654
7	0xbe51b4bb	-0.204791
8	0x3f733c72	0.9501411
9	0xbe747361	-0.23872139
10	0xbef652f1	-0.48110154
11	0x3db1a2b8	0.08673614
12	0x3efc292c	0.49250162
13	0x3f64eb50	0.8942156
14	0xbe0ff7a6	-0.14059314
15	0xbeb0dda8	-0.3454411
16	0xbeeb54ff	-0.45963284
17	0xbe81343f	-0.25235173
18	0xbcba518e	-0.022743966
19	0x3f166091	0.587411
20	0x3f1add45	0.6049388
21	0xbe66fe33	-0.22557907
22	0xbe84fdce	-0.25974888
23	0xbe5ee743	-0.21767907
24	0x3bec5f4c	0.0072135087
25	0x3e820f29	0.2540219
26	0x3eb627af	0.3557715
27	0xbe1a82ae	-0.15088913
28	0x3e1c5e63	0.1527038
29	0xbeafcf38	-0.34337783
30	0x3f68f83d	0.9100378
31	0xbf214351	-0.6299334
32	0xbe9c16bf	-0.30486104
33	0xbeb92b83	-0.3616601
34	0x3e3c0070	0.18359542
35	0xbe06a444	-0.131486
36	0xbf160e25	-0.5861533
37	0x3f7fc9e3	0.9991743
38	0x3e701879	0.23446836
39	0xbf4b3578	-0.7937846
40	0xbe73fc5f	-0.2382674
41	0x3ddcb780	0.10777187
42	0xbedd054f	-0.43168113
43	0xbea6e43b	-0.32596
44	0x3d85e6d8	0.065381706
45	0x3d26fd80	0.0407691
46	0x3f39854b	0.72469014
47	0xbeca3b8c	-0.39498556
48	0x3ec0d254	0.37660468
49	0x3eab3272	0.33436924
50	0xbe8ecb20	-0.27889347
51	0x3d494d91	0.04914624
52	0xbe3395ab	-0.17537563
53	0xbe33a6e0	-0.17544127
54	0xbea97b9a	-0.33102113
55	0xbea39b41	-0.31954387
56	0x3dd79efb	0.1052837
57	0xbeeb4c0c	-0.45956457
58	0xbf20e378	-0.6284709
59	0x3f357ad4	0.70890546
60	0x3f41d359	0.75713116
61	0xbf30145b	-0.6878106
62	0xbef76023	-0.48315534
63	0xbe1a4b02	-0.15067676
64	0xbd8199c4	-0.063281566
65	0x3e871e1e	0.26390165
66	0xbed44970	-0.41462278
67	0x3f439fda	0.7641579
68	0xbf0d7dd3	-0.5527012
69	0x3e0bd230	0.13654399
70	0xbeb54a19	-0.35408095
71	0x3eb36aa3	0.35042295
72	0x3e4ffc70	0.20311141
73	0x3e37b027	0.1793829
74	0x3ee3e609	0.4451144
75	0xbb0d1213	-0.0021525666
76	0xbe2a18a4	-0.16610962
77	0xbdccbd82	-0.09997083
78	0xbe9fea3b	-0.3123339
79	0xbec176f2	-0.3778606
80	0xbe36f8a3	-0.17868285
81	0x3ea44c05	0.32089248
82	0xbd3973db	-0.045276504
83	0xbef6a5b8	-0.48173308
84	0x3e2bbd45	0.1677142
85	0x3f39d53c	0.72590995
86	0xbea1f78a	-0.3163417
87	0xbeadc65c	-0.339404
88	0xbe2e60a8	-0.17029059
89	0x3e9774bc	0.2958125
90	0xbe239a0a	-0.1597673
91	0xbe1c1269	-0.15241398
92	0xbed44fb0	-0.41467047
93	0xbe44cd5e	-0.19218966
94	0x3f38d394	0.7219784
95	0x3ed8247b	0.42215332
96	0x3e83964e	0.2570061
97	0x3e3dcc44	0.18534952
98	0xbdbe9a26	-0.09306745
99	0xbdc83a07	-0.09776693
100	0x3e3e5ee0	0.1859088
101	0x3f0be599	0.54647213
102	0x3e0f3ff7	0.13989244
103	0xbf4dbb11	-0.80363566
104	0xbeb6d53c	-0.3570956
105	0xbe9136f3	-0.28362235
106	0x3ed5ef71	0.41784242
107	0xbeb4b8c3	-0.35297212
108	0x3e9df0c6	0.30847758
109	0xbe7e6a80	-0.24845314
110	0x3f2b6d24	0.6696341
111	0xbeaa7234	-0.33290255
112	0x3f1e5889	0.61853844
113	0xbd8cf4ba	-0.068826154
114	0xbdad7c7e	-0.084710106
115	0xbdb7d7f6	-0.08976738
116	0xbe48fd3a	-0.19627848
117	0x3f585f9a	0.84520876
118	0xbed8d566	-0.4235031
119	0x3f0e0ca3	0.5548803
120	0x3dec103c	0.11526534
121	0xbedd95fe	-0.43278497
122	0xbcaa5240	-0.020791173
123	0x3e894166	0.26807708
124	0xbda20f4d	-0.07913075
125	0xbd7d5eae	-0.06185787
126	0x3e594dc6	0.21221074
127	0xbb6eac49	-0.0036418608
128	0xbe66f221	-0.22553302
129	0xbe014bdc	-0.12626594
130	0x3ec1d5d1	0.3785844
131	0xbeda5862	-0.42645556
132	0xbe105807	-0.1409608
133	0x3f596d09	0.84932
134	0xbeba3a8f	-0.36372802
135	0xbe1009c1	-0.14066221
136	0x3b3875d4	0.0028146403
137	0x3e227f4c	0.15868872
138	0xbf29ab6c	-0.66277194
139	0xbe8132b3	-0.25233993
140	0x3f70495b	0.9386193
141	0xbf08514a	-0.5324904
142	0x3e97279f	0.29522416
143	0x3e52281c	0.20523113

features.0.bias f4 [16]
0	0xbd2f25e7	-0.042760756
1	0xbd49fc45	-0.04931285
2	0xbe5f6a84	-0.21817976
3	0x3e279839	0.16366662
4	0xbd1fa29f	-0.038973447
5	0xbd29aea8	-0.04142633
6	0xbd4fae2f	-0.050703224
7	0xbdbd761b	-0.092510425
8	0x3ed4efdd	0.4158925
9	0x3e036a5f	0.12833546
10	0xbd9ce507	-0.07660871
11	0xbb4aea1d	-0.0030962296
12	0xbe5fc2b4	-0.21851617
13	0xbdf27a6c	-0.11839756
14	0xbe058d0e	-0.1304209
15	0x3d303fa4	0.043029442

features.3.weight f4 [32, 16, 3, 3]
0	0x3d8c0673	0.068371676
1	0x3dfcf87c	0.12352082
2	0x3db8dd9e	0.09026645
3	0xbe1980bf	-0.14990519
4	0xbdbfcb76	-0.09364979
5	0xbd88314e	-0.06650029
6	0x3e029350	0.12751508
7	0x3e425d26	0.18980846
8	0xbea94b1e	-0.33065122
9	0x3e28d16d	0.1648614
10	0x3df6ad84	0.12044814
11	0x3ea60b6a	0.32430583
12	0xbebd5ba4	-0.3698398
13	0xbf21f37e	-0.63262165
14	0x3e7310cd	0.23736878
15	0xbe978bd7	-0.29598877
16	0xbd85e888	-0.065384924
17	0xbe3d1dff	-0.18468474
18	0x3c8312c0	0.016000152
19	0xbdbd1397	-0.09232252
20	0x3c2bea52	0.010492878
21	0x3c61460b	0.01374961
22	0x3d7a3ccb	0.061093133
23	0x3e892b74	0.26790965
24	0xbe527ad6	-0.2055467
25	0xbd8c06c0	-0.06837225
26	0xbcf7e196	-0.030258935
27	0x3e2523c5	0.16126926
28	0x3ccbc897	0.024875922
29	0x3e35395f	0.17697667
30	0xbdfedc9c	-0.12444422
31	0xbdc6414f	-0.096804254
32	0x3d17d009	0.037063632
33	0x3d047505	0.03233816
34	0xbe6378fc	-0.2221412
35	0x3df59d75	0.11992923
36	0xbd221ff6	-0.03958126
37	0x3c7fc5f8	0.015611164
38	0x3e85ddc9	0.2614577
39	0x3d1124c5	0.035435457
40	0xbe3612eb	-0.17780654
41	0x3ed326cb	0.41240534
42	0xbd74df89	-0.059783492
43	0xbd085ec7	-0.03329351
44	0x3c3d811c	0.011566427
45	0x3b4bb36f	0.0031082293
46	0xbde44ab1	-0.11147059
47	0xbcee0ff2	-0.029060338
48	0xbdc09e39	-0.094051786
49	0xbe3884cc	-0.18019408
50	0x3eecde38	0.4626329
51	0xbe0341f6	-0.12818131
52	0xbe7ca203	-0.24671178
53	0x3c91d861	0.017803373
54	0xbcc5ecbd	-0.024160737
55	0x3d90b052	0.070648804
56	0x3e2a14aa	0.16609445
57	0xbde150ec	-0.11001763
58	0xbd883aff	-0.066518776
59	0x3e260d57	0.16216026
60	0x3c3e61c9	0.0116199935
61	0xbd63aca8	-0.05558458
62	0xbe883e9a	-0.2661026
63	0xbd5826f0	-0.05277151
64	0x3c607dc1	0.013701857
65	0x3e12a10c	0.14319247
66	0x3c962b5b	0.01833122
67	0xbe89fe91	-0.2695203
68	0x3e5b6919	0.2142681
69	0xbe436d0d	-0.19084568
70	0xbdc277c5	-0.094955005
71	0xbe2ed764	-0.17074353
72	0x3dfc7fa0	0.1232903
73	0xbd411e8c	-0.047148272
74	0x3d12399f	0.035699483
75	0x3d120df7	0.03565785
76	0xbd1e0f4a	-0.0385888
77	0x3d81423f	0.063114636
78	0x3d2f5bb4	0.042812064
79	0xbd6c6a55	-0.057718594
80	0x3e194c33	0.14970474
81	0x3d8a36f0	0.0674876
82	0x3dc1e9ca	0.0946842
83	0x3de16e7b	0.110074006
84	0xbd8f25ec	-0.06989655
85	0xbe6a42f4	-0.22877103
86	0x3e920ca6	0.28525275
87	0xbb48a34d	-0.0030614913
88	0xbe02bb10	-0.12766671
89	0x3c41a7d5	0.011819799
90	0xbd342b75	-0.043986756
91	0x3cc2ceaa	0.023780186
92	0x3e18ff36	0.14941105
93	0xbd0cb4e1	-0.034352187
94	0xbebb0cc8	-0.3653319
95	0x3eb25db4	0.34837115
96	0xbe3512ad	-0.17682905
97	0xbda76a9a	-0.081746295
98	0xbe7f403f	-0.24926852
99	0xbce55e53	-0.027999079
100	0xbe4c24a5	-0.19935854
101	0x3e399504	0.18123251
102	0xbe32a21d	-0.17444654
103	0xbe0efddb	-0.13964026
104	0x3df0ea0f	0.11763393
105	0x3d8d4b40	0.068991184
106	0x3b6d3c28	0.0036199186
107	0x3cecdc1d	0.028913552
108	0x3d655cee	0.055996828
109	0x3da0427b	0.0782518
110	0x3e2829c0	0.16422176
111	0x3e00330d	0.12519474
112	0x3d2c8ecc	0.04212837
113	0x3e81bb28	0.253381
114	0xbe804aa3	-0.25056943
115	0xbdc74da2	-0.09731604
116	0xbe31b097	-0.1735252
117	0x3d2ba692	0.0419069
118	0xbd0d94aa	-0.034565605
119	0x3e354ef1	0.17705895
120	0xbce2c425	-0.02768142
121	0xbd813950	-0.063097596
122	0x3e642800	0.22280884
123	0xbdab5931	-0.08366621
124	0xbe8df5fa	-0.27726728
125	0xbb5e47c0	-0.0033917278
126	0xbac57868	-0.0015065791
127	0xbe08d3a3	-0.13361983
128	0x3f01dcf2	0.5072776
129	0xbea068d1	-0.3132997
130	0xbf1dd9fc	-0.6166074
131	0x3e5677f0	0.2094419
132	0xbd490d2c	-0.049084827
133	0xbd504964	-0.05085124
134	0xbde175cd	-0.11008797
135	0xbdba02c1	-0.090825565
136	0x3d04a430	0.032383144
137	0x3dc31aac	0.09526572
138	0xbdc61d0a	-0.096735075
139	0x3c5ba99b	0.013407136
140	0x3e5776c8	0.21041405
141	0xbe559794	-0.20858604
142	0x3e11fd50	0.14256787
143	0xbe4fcd12	-0.20293072
144	0xbca4408f	-0.020050315
145	0x3d5e556c	0.054280683
146	0x3d70de95	0.05880602
147	0x3dc89809	0.097946234
148	0xbd353077	-0.044235673
149	0x3e8129d6	0.2522723
150	0xbe1fae61	-0.15593864
151	0x3c4de4d0	0.01256676
152	0x3d00657d	0.031346787
153	0xbe81129e	-0.25209516
154	0x3e221ab7	0.15830503
155	0xbe52d822	-0.2059026
156	0xbf000747	-0.50011104
157	0x3e8256df	0.25456902
158	0x3d35d505	0.044392604
159	0x3df55ba8	0.11980373
160	0xbe104aa1	-0.14090969
161	0xbd762099	-0.06008968
162	0xbe132bd5	-0.1437219
163	0x3e887dee	0.26658577
164	0xbe761f4a	-0.24035373
165	0x3dc6300b	0.09677132
166	0x3e97cdcc	0.29649198
167	0xbdd04546	-0.10169463
168	0x3e204486	0.1565114
169	0x3de588c4	0.112077266
170	0xbdb77b7a	-0.08959098
171	0xbe10dc5b	-0.14146559
172	0x3e14e16f	0.14539121
173	0x3db8aa72	0.09016885
174	0xbe54071d	-0.20705839
175	0x3e07a665	0.13247068
176	0xbd82d794	-0.063887745
177	0x3d7a75c2	0.06114746
178	0xbd97d002	-0.07412721
179	0xbd1311a6	-0.035905503
180	0xbe6d77e1	-0.23190261
181	0x3e8feb7d	0.2810935
182	0xbe79d2dd	-0.24396844
183	0x3c8116ed	0.015758002
184	0x3e411dda	0.18859044
185	0xbc3d171d	-0.011541155
186	0x3cd98ecb	0.026557347
187	0x3e3e9dfa	0.18614951
188	0x3d21ce66	0.039503478
189	0xbe83f733	-0.25774536
190	0x3f094b4d	0.53630525
191	0x3cb6b95e	0.022305187
192	0xbe9a9991	-0.30195287
193	0x3e9719d9	0.29511908
194	0xbc54cfed	-0.0129890265
195	0x3e792372	0.24329928
196	0x3ccc154a	0.024912495
197	0xbc6dc39c	-0.014511969
198	0xbde05f02	-0.10955621
199	0x3e2eadde	0.17058513
200	0xbdc68199	-0.096926875
201	0x3d46ad10	0.04850489
202	0x3e68b819	0.22726478
203	0x3b6ad315	0.003583138
204	0x3e438c89	0.19096579
205	0xbe23de28	-0.16002715
206	0xbd538b75	-0.05164667
207	0xbe654553	-0.22389726
208	0x3e7d591b	0.24741022
209	0xbe91f256	-0.285052
210	0x3dbb17e9	0.0913542
211	0x3e828e2c	0.25499094
212	0x3dd864a1	0.105660684
213	0x3e07dd32	0.13267973
214	0xbe668c81	-0.22514535
215	0x3dbeb97e	0.093127236
216	0xbd8acfb2	-0.06777896
217	0xbe1dbfbd	-0.15405174
218	0xbe23134c	-0.1592533
219	0xbcc89d77	-0.024489148
220	0xbe6ccd0b	-0.23125093
221	0xbe25c5da	-0.16188756
222	0xbda3274d	-0.079664804
223	0xbd705b46	-0.058680795
224	0x3cad19be	0.021130439
225	0xbe037bd8	-0.12840211
226	0x3e835a79	0.25654963
227	0xbe04ad41	-0.12956716
228	0xbd99d4b4	-0.07511273
229	0x3dbefb49	0.093252726
230	0xbd2c0443	-0.04199625
231	0x3d0d2e37	0.034467902
232	0xbd1f2589	-0.038854156
233	0xbd96f724	-0.07371357
234	0xbe1ff2ac	-0.15619916
235	0x3e7939de	0.24338481
236	0xbe742c52	-0.23845032
237	0x3c8eda57	0.017438097
238	0x3e8ffe78	0.28123832
239	0xbc5a1832	-0.013311433
240	0x3e98d25d	0.29847994
241	0xbe2a42bc	-0.1662702
242	0xbc633d78	-0.013869636
243	0xbda44b94	-0.08022228
244	0x3e96a88e	0.29425472
245	0xbe2919ec	-0.16513795
246	0x3d9108b4	0.07081738
247	0x3e6be4d2	0.23036507
248	0x3dd94952	0.10609688
249	0x3ddb7afe	0.10716818
250	0xbc078253	-0.008270818
251	0x3d8af0ed	0.06784234
252	0xbd9f01d2	-0.07764019
253	0x3e2e7263	0.17035823
254	0xbd771753	-0.060324978
255	0xbe03322f	-0.12812112

features.3.bias f4 [32]
0	0x3d047168	0.032334715
1	0xbdda52a6	-0.10660295
2	0xbe823803	-0.2543336
3	0x3d1a18a3	0.03762115
4	0xbcf397ae	-0.029735412
5	0xbe033464	-0.12812954
6	0xbd099705	-0.03359129
7	0xbe351485	-0.17683609
8	0xbc875cea	-0.016523797
9	0xbd73b5fc	-0.059499726
10	0xbe6133c8	-0.21992409
11	0xbd898a8e	-0.0671588
12	0xbe1b91b0	-0.15192294
13	0xbd99b8e3	-0.075059675
14	0xbdd8441d	-0.105598666
15	0xbe268ef2	-0.16265467
16	0xbe16cb4a	-0.14725986
17	0xbe1887a1	-0.14895488
18	0xbe3396b9	-0.17537965
19	0xbd4c85c3	-0.049932253
20	0xbda23211	-0.07919706
21	0xbe0868d5	-0.1332124
22	0xbddb9830	-0.10722387
23	0xbdd5b9e9	-0.1043585
24	0xbd955d5c	-0.072931975
25	0xbdd5404d	-0.10412655
26	0xbd3febbf	-0.046855684
27	0xbd22bf3e	-0.039733164
28	0xbe7bc158	-0.24585474
29	0x3d48e94d	0.049050618
30	0xbd5e309f	-0.054245587
31	0x3c9712ca	0.018441577

classifier.1.weight f4 [64, 512]
0	0xbcce60c5	-0.025192628
1	0x3da1abe8	0.07894117
2	0x3cc3d756	0.023906391
3	0x3c845c32	0.016157243
4	0xbde4ff74	-0.11181536
5	0x3d42e242	0.047579058
6	0x3d8c7b2e	0.06859432
7	0x3e0e9501	0.13924028
8	0x3dacfe28	0.08446914
9	0xbd209901	-0.039208416
10	0x3adc47ff	0.0016806124
11	0x3e309e47	0.17247878
12	0xbdc20f34	-0.09475556
13	0x3cbe6454	0.0232412
14	0x3dc2f7ba	0.09519906
15	0x3aeccf00	0.0018067062
16	0xbe11ba7a	-0.14231291
17	0xbe9f376c	-0.3109697
18	0xbe0918e0	-0.13388395
19	0xbc88d2a1	-0.016701998
20	0xbe0e3284	-0.13886458
21	0xbbd55269	-0.006510068
22	0xbdd014fc	-0.101602525
23	0xbce201e3	-0.02758879
24	0x3e41e763	0.18935923
25	0xbd6ab92d	-0.057305504
26	0x3e114813	0.1418765
27	0x3d51e134	0.05124016
28	0xbe53a64b	-0.20668904
29	0xbe555616	-0.2083362
30	0x3cc35559	0.023844408
31	0x3dd35b83	0.10320189
32	0x3d2ba2c1	0.04190326
33	0x3dd452f0	0.103673816
34	0xbd0ef14a	-0.03489808
35	0x3e1f8150	0.15576673
36	0xbd5697a4	-0.05239071
37	0xbd94ef31	-0.07272185
38	0xbd3a4f53	-0.045485806
39	0xbc1afe54	-0.009460051
40	0xbc9194fe	-0.01777124
41	0xbd1cc908	-0.038277656
42	0xbcaec368	-0.021333411
43	0xbd22e6c0	-0.03977084
44	0xbdd871eb	-0.10568603
45	0x3c837fc9	0.016052144
46	0x3dc6e2a6	0.097111985
47	0x3e41a768	0.18911517
48	0xbd32ed91	-0.043683592
49	0x3d9e6805	0.07734684
50	0x3d0bbfb6	0.034118377
51	0xbd3bb6f7	-0.045828786
52	0x3e6a3b5c	0.22874206
53	0x3d75292d	0.05985372
54	0x3e55bb93	0.20872335
55	0x3e8c2b19	0.2737663
56	0x3de58db8	0.11208671
57	0xbcefcef2	-0.029273484
58	0xbddf2db4	-0.10897389
59	0xbd55f299	-0.052233312
60	0x3d35e910	0.04441172
61	0x3b7bd5e0	0.003842704
62	0xbd617baa	-0.055049576
63	0xbdc44034	-0.09582558
64	0x3c5304d9	0.012879574
65	0xbe7294da	-0.23689595
66	0x3d194ddb	0.037427764
67	0xbef89c04	-0.4855653
68	0x3e3b03f3	0.18263225
69	0xbdc02af5	-0.093831934
70	0xbc4a94eb	-0.012364606
71	0xbda91e0c	-0.08257684
72	0xbdac83a9	-0.0842355
73	0xbdaec6ba	-0.08533998
74	0xbb374335	-0.0027963642
75	0x3ccafbb1	0.024778219
76	0x3ee8251e	0.45340818
77	0x3e29503c	0.16534513
78	0x3dbc9154	0.09207407
79	0xbe116709	-0.14199461
80	0xbddcc1f4	-0.10779181
81	0xbe28e89e	-0.16494986
82	0xbc12e6f3	-0.008966195
83	0xba390811	-0.0007058392
84	0x3c22b4d3	0.009930807
85	0x3da1416f	0.078738086
86	0xbdf83bab	-0.12120756
87	0xbdb834cc	-0.08994445
88	0x3ca64d50	0.020300537
89	0xbcc504c1	-0.024050118
90	0x3e2cf9df	0.16892193
91	0xbe657bfc	-0.22410578
92	0xbcc33c81	-0.023832561
93	0x3d9a8d5c	0.075464934
94	0xbb47c373	-0.0030481487
95	0x3e8976ad	0.26848355
96	0xbdc3946d	-0.09549794
97	0xbe25b604	-0.16182715
98	0xbde59419	-0.11209888
99	0xbd89b2b1	-0.06723536
100	0x3ee51f55	0.44750467
101	0xbc0e33bd	-0.008679328
102	0x3d3860ab	0.045014065
103	0x3d18d276	0.037310086
104	0xbe9bb991	-0.30415013
105	0xbdfbab5b	-0.12288543
106	0xbd08b72e	-0.03337782
107	0xbbf14e27	-0.007364053
108	0x3e28566e	0.1643922
109	0x3e87feb6	0.26561517
110	0x3e7f5c87	0.2493764
111	0x3ed42334	0.41433108
112	0xbcfc55a2	-0.030802552
113	0xbd55253f	-0.052037474
114	0xbdaac2df	-0.0833795
115	0xbd16066b	-0.036627214
116	0xbd06a4f4	-0.032872155
117	0xb9ed6af7	-0.00045283858
118	0xbd3c6c11	-0.046001498
119	0x3d009939	0.031396125
120	0xbcf7d65d	-0.030253584
121	0xbe1c8d19	-0.152882
122	0x3d05e3f8	0.03268811
123	0xbc841f9c	-0.016128354
124	0x3e788c52	0.24272278
125	0xbe8bf1a9	-0.2733281
126	0x3d854630	0.06507528
127	0xbd2a1b0c	-0.0415297
128	0xbc025060	-0.007953733
129	0x3c80f007	0.015739454
130	0x3d447492	0.047962733
131	0x3c21cc93	0.009875434
132	0x3d2daf1d	0.04240333
133	0xbceab94d	-0.028652811
134	0xbc89b0fd	-0.016808027
135	0xbd5a865d	-0.053350795
136	0xbd25fd68	-0.04052487
137	0xbc209685	-0.009801512
138	0x3d3089fe	0.04310035
139	0xba5a6685	-0.00083313166
140	0x3d257c4a	0.040401734
141	0xbcdbbfbf	-0.02682483
142	0x3c82be0c	0.015959762
143	0xbccb5301	-0.024819853
144	0x3d68c5ee	0.056829385
145	0x3d8221fd	0.06354139
146	0xbdaabb8f	-0.08336555
147	0x3d3be1e0	0.045869708
148	0x3d9a4d09	0.075342245
149	0xbd82ed10	-0.06392872
150	0x3db17bc0	0.086661816
151	0xbb7f0567	-0.0038913132
152	0x3d8cd8a4	0.068772584
153	0xbdf14f43	-0.11782696
154	0xbaeefc07	-0.0018233069
155	0x3c1159b5	0.0088714855
156	0x3e86880b	0.26275668
157	0x3cc9fa3c	0.024655454
158	0x3e70bbfd	0.23509212
159	0xbd892306	-0.06696133
160	0xbe1e1cda	-0.15440693
161	0xbeda0938	-0.42585158
162	0xbeb63899	-0.35590056
163	0xbeae34ef	-0.3402476
164	0xbd0dd321	-0.034625176
165	0x3d0c4a17	0.034250345
166	0x3d23e8a6	0.040016793
167	0x3d5cd5fd	0.053915013
168	0x3dc306d7	0.09522789
169	0xbcc614f4	-0.024179913
170	0xbe122a5b	-0.1427397
171	0x3db0cec4	0.086331874
172	0xbe75a005	-0.23986824
173	0x3a4d2652	0.00078258396
174	0xbd7aeb6b	-0.06125967
175	0xbd979a20	-0.07402444
176	0xbe3c9e9d	-0.18419881
177	0xbdae1b70	-0.08501327
178	0x3e434a0b	0.19071214
179	0xbd2940c2	-0.041321523
180	0xbcc9eb03	-0.024648195
181	0x3e2d7026	0.16937312
182	0x3d904497	0.070443325
183	0x3d860b50	0.065451264
184	0x3e92c94e	0.28669208
185	0xbc4c9791	-0.012487308
186	0xbc52bcb5	-0.012862374
187	0xbd13b6f9	-0.03606317
188	0x3dab6785	0.08369354
189	0x39a1d133	0.0003086418
190	0xbd3bd380	-0.045856
191	0xbcff17bd	-0.031139249
192	0xbd19bd41	-0.037534002
193	0xbe0737fc	-0.1320495
194	0x3d63d5fa	0.055623986
195	0x3db52d23	0.088465
196	0x3dccc9c9	0.09999425
197	0x3d85986f	0.06523215
198	0xbdbdbb08	-0.09264189
199	0xbd8c1ae9	-0.0684107
200	0xbd1844d6	-0.037175022
201	0xbc8a9a8e	-0.0169194
202	0xbd4a461e	-0.049383275
203	0xbebf73ce	-0.3739304
204	0xbe8dc4a8	-0.276891
205	0x3e2d908d	0.16949673
206	0x3e66fb2f	0.22556756
207	0x3eb952c9	0.36195973
208	0xba1807c4	-0.0005799497
209	0xbe2ec0d8	-0.17065752
210	0xbd3b0f09	-0.045668636
211	0x3d2d8462	0.04236258
212	0x3d9c7376	0.0763921
213	0x3d25cf79	0.040481064
214	0xbc23f6c0	-0.01000756
215	0xbcfee2ac	-0.031113945
216	0x3dcb3f53	0.099241875
217	0xbd36a864	-0.044594184
218	0x3e5175a1	0.20455028
219	0xbc06f7dd	-0.008237806
220	0x3bc0b98c	0.005881494
221	0xbd0026ec	-0.03128712
222	0x3dc3819a	0.09546204
223	0x3e5e0052	0.2167981
224	0xbdfccbe1	-0.12343574
225	0xbe0b0316	-0.13575396
226	0x3d6c7d50	0.057736695
227	0x3daf3d5c	0.08556625
228	0x3e0aac4c	0.13542289
229	0x3d8ab44f	0.067726724
230	0x3cd99d47	0.026564253
231	0x3cc0c4d9	0.023531364
232	0x3cc1dde2	0.023665372
233	0xbdec1d40	-0.115290165
234	0x3dc645fd	0.09681318
235	0xbe19ab40	-0.15006733
236	0xbd732b7e	-0.05936765
237	0x3e0faa68	0.14029849
238	0x3da4c482	0.080452934
239	0x3df3d84e	0.11906491
240	0x3e4b5ef6	0.19860443
241	0xbdb89b64	-0.090140134
242	0x3c92590a	0.017864723
243	0x3da77b8a	0.0817786
244	0x3e228f20	0.1587491
245	0xbcd431c0	-0.025902629
246	0xbcd8447a	-0.02639984
247	0xbb90a4a1	-0.0044141565
248	0x3dd6f81d	0.104965426
249	0xbdac756c	-0.08420834
250	0x3d855cf0	0.06511867
251	0xbe305e0a	-0.17223373
252	0xbe0e73de	-0.13911387
253	0x3ca09aa7	0.019604994
254	0x3e8d7f31	0.27636102
255	0x3ef42d01	0.47690585

classifier.1.bias f4 [64]
0	0x3d204977	0.03913256
1	0xbba94f6f	-0.00516694
2	0xbc55b4e5	-0.013043617
3	0x3daac9fe	0.08339308
4	0x3e0b2da9	0.13591637
5	0xbc906c09	-0.01762964
6	0xbc90f6f7	-0.017695887
7	0xbd4de3b5	-0.050265986
8	0x3d6823b0	0.05667466
9	0x3dbc538f	0.09195625
10	0xbc2f0538	-0.010682397
11	0xbd00d069	-0.031448755
12	0x3d93b932	0.072130576
13	0x3c9c58df	0.019085346
14	0x3d7f4239	0.062319014
15	0xbb4aa1f7	-0.0030919292
16	0x3dda1a47	0.10649543
17	0x3da2c3ce	0.07947503
18	0x3dba2bd2	0.09090389
19	0x3d086af7	0.033305135
20	0xbc997165	-0.018730829
21	0xbd4859f7	-0.048913922
22	0xba54b787	-0.0008114506
23	0x3cfd5a57	0.030926866
24	0x3c07666a	0.0082641635
25	0x3cf5bffc	0.029998772
26	0x3d0a0019	0.0336915
27	0x3cbf3434	0.023340322
28	0xbd6af9bd	-0.057367075
29	0xbceba17a	-0.028763521
30	0x3dfe7df5	0.12426368
31	0x3e33e55b	0.17567961
32	0xbd74eaca	-0.059794225
33	0xbd1d42f6	-0.038393937
34	0xbd2b6528	-0.041844517
35	0x3d2bc8b5	0.041939456
36	0xbc53f6fc	-0.012937304
37	0xbd1a5345	-0.03767707
38	0xbd3d3b31	-0.046199027
39	0x3c2c9ef6	0.010535946
40	0x3d93693f	0.071978085
41	0xbb038d98	-0.002007341
42	0xbce068f3	-0.027393794
43	0x3db4af54	0.08822504
44	0xbd3b4331	-0.045718376
45	0xbd779757	-0.060447063
46	0xbb424ad9	-0.0029646663
47	0x3e1b4cfb	0.15166084
48	0x3d93c01d	0.07214377
49	0x3e05bc9f	0.13060234
50	0x3cb3df83	0.021957165
51	0x3e2a180a	0.16610733
52	0x3c0963c0	0.008385599
53	0xbd1d3fe6	-0.038391016
54	0x3cee26f6	0.029071312
55	0x3c723f3f	0.014785587
56	0x3c416d7f	0.011805891
57	0xbd399191	-0.04530484
58	0x3d2ec5cb	0.0426691
59	0x3cce9afd	0.025220389
60	0x3b12c1fa	0.002239345
61	0x3bd4bc45	0.00649217
62	0xbc6cddba	-0.014457161
63	0xbb7da4d9	-0.0038702993

classifier.3.weight f4 [10, 64]
0	0xbd1f59e3	-0.038904082
1	0x3d5b5e94	0.053556994
2	0x3dc4c833	0.096084975
3	0x3dd0996c	0.10185513
4	0xbd08a70f	-0.033362444
5	0xbd404a3c	-0.046945795
6	0xbd83ce65	-0.06435851
7	0x3d44a1cf	0.048005875
8	0x3d88eb11	0.0668546
9	0xbe292609	-0.16518416
10	0x3de6b503	0.11264994
11	0xbdc3a8e4	-0.09553698
12	0xbc8fb903	-0.017544275
13	0x3d87dea7	0.066342644
14	0x3d8b29d8	0.067950904
15	0x3cb0484c	0.021518849
16	0x3e316bd2	0.17326286
17	0x3cb95b90	0.022626668
18	0xbe1a35bd	-0.15059562
19	0x3e151467	0.14558564
20	0xbddc2d4b	-0.107508264
21	0xbd329a4f	-0.04360419
22	0xbe0d431b	-0.1379513
23	0x3e42f97c	0.19040483
24	0x3df8fec7	0.1215797
25	0x3c699fb2	0.014259266
26	0x3de4b4d3	0.11167302
27	0xbca9992d	-0.020702923
28	0xbd0ed83c	-0.034874186
29	0x3a174f74	0.00057720323
30	0xbe2d3d67	-0.16917954
31	0xbeb94757	-0.3618724
32	0xbda97ffc	-0.08276364
33	0xbd4aca1e	-0.04950916
34	0x3d9680c2	0.07348777
35	0x3e66797e	0.22507283
36	0x3b8167e3	0.003949152
37	0xbbe3c274	-0.006950671
38	0xbddf6235	-0.109074034
39	0x3e0395b4	0.12850076
40	0x3db5ad72	0.08870973
41	0x3cfc9de5	0.030837009
42	0x3d4bfbf7	0.04980084
43	0xbe35abe9	-0.1774136
44	0x3e1944ee	0.14967701
45	0x3e2186c7	0.1577407
46	0x3d392e09	0.04520992
47	0xbe8cebf7	-0.27523777
48	0xbdb811d2	-0.08987774
49	0xbdb5596a	-0.08854945
50	0x3d445371	0.04793114
51	0xbea1a91b	-0.3157433
52	0xbe368092	-0.17822483
53	0xbd9471e2	-0.07248284
54	0xbb7b6cff	-0.0038364527
55	0x3d103654	0.03520806
56	0x3dd2fecc	0.10302505
57	0x3dd4fe3f	0.10400056
58	0x3e0221ab	0.12708156
59	0x3c5b17b5	0.013372351
60	0xbd28577b	-0.041099053
61	0xbe00f87b	-0.12594788
62	0xbe23f9b5	-0.16013224
63	0xbdc86716	-0.09785287
64	0xbe6a0360	-0.2285285
65	0xbddf599f	-0.10905766
66	0xbd4f8cf1	-0.05067152
67	0xbd71a807	-0.058998134
68	0xbcc39741	-0.023875834
69	0xbde6504f	-0.112457864
70	0xbda47727	-0.08030539
71	0x3caba50d	0.020952726
72	0xbe69f4a0	-0.22847223
73	0x3d6a288f	0.057167586
74	0x3c387f73	0.011260855
75	0x3d7b752f	0.06139105
76	0xbef51feb	-0.47875914
77	0x3d1dbbe3	0.03850926
78	0x3eadbd08	0.33933282
79	0x3d6d18e1	0.057885054
80	0x3e0fd829	0.14047302
81	0xbe9204a4	-0.28519166
82	0x3e3cac50	0.18425107
83	0xbe94d4d9	-0.2906864
84	0xbcafc002	-0.021453861
85	0x3d7bf851	0.06151611
86	0x3e2147fc	0.15750116
87	0xbe9c4c05	-0.30526748
88	0xbdf30410	-0.11866009
89	0x3d823f13	0.06359687
90	0xbd46a28a	-0.048494853
91	0x3e496d8d	0.19670697
92	0xbd8dab39	-0.06917424
93	0xbc1b16b0	-0.009465858
94	0xbeb79c02	-0.35861212
95	0xbe4c28f2	-0.19937494
96	0x3df61be7	0.12017041
97	0x3e100c35	0.14067157
98	0xbd67d713	-0.056601595
99	0xbe10e0a5	-0.14148195
100	0xbe39fade	-0.18162104
101	0x3e0250df	0.12726162
102	0x3dcf02ec	0.10107979
103	0x3e10265b	0.14077131
104	0xbe152a6e	-0.14566967
105	0xbd94bfdb	-0.07263156
106	0xbd02a572	-0.031896062
107	0xbbdb3873	-0.006690079
108	0xbd5a3467	-0.05327263
109	0xbeb83b98	-0.35982966
110	0x3e23e77d	0.16006275
111	0x3d347336	0.044055186
112	0x3ef7ad97	0.48374626
113	0xbf003079	-0.50073963
114	0x3cd64de0	0.02616018
115	0x3c3b4b04	0.011431459
116	0x3ed07aaf	0.407186
117	0x3db35cd5	0.08757941
118	0xbdbaa953	-0.09114327
119	0xbdebf695	-0.11521641
120	0x3e27a042	0.16369727
121	0xbde0e24a	-0.10980661
122	0xbedd9244	-0.43275654
123	0xbd836723	-0.06416156
124	0xbe056655	-0.13027318
125	0xbc8ee776	-0.017444354
126	0x3e3c798b	0.1840574
127	0x3e15725e	0.14594409
128	0xbc88a459	-0.01667993
129	0x3c853a87	0.01626326
130	0xbd8a0f75	-0.067412294
131	0xbdb46a6b	-0.0880936
132	0xbe5fbbd9	-0.21849002
133	0x3d3c84c1	0.04602504
134	0xbcbaec0f	-0.02281764
135	0x3db2e221	0.08734537
136	0xbd1a495a	-0.03766761
137	0x3d000037	0.031250205
138	0x3ce6bac2	0.028165225
139	0x3d8e8c88	0.06960398
140	0x3d03d9ba	0.032190062
141	0x3dd26f5b	0.102751456
142	0xbe6371dd	-0.22211404
143	0xbdec04a0	-0.1152432
144	0xbd8da333	-0.069158934
145	0x3d3ab5d9	0.04558358
146	0x3c67844e	0.014130665
147	0x3e46f2c8	0.19428551
148	0x3d179a5a	0.037012435
149	0xbc928317	-0.017884774
150	0x3e3b4dbc	0.18291372
151	0x3da1e0e3	0.07904222
152	0xbd8889fb	-0.06666943
153	0xbc59e011	-0.0132980505
154	0xbe64a9a6	-0.2233034
155	0x3e56d3e5	0.20979269
156	0xbddd10e4	-0.10794237
157	0x3d82555f	0.063639395
158	0x3ddfd117	0.109285526
159	0xbd847965	-0.06468467
160	0xbcfbc0d6	-0.0307316
161	0x3c67669d	0.014123586
162	0xbd49e2fc	-0.049288735
163	0xbe423850	-0.18966794
164	0xbd95acab	-0.073083244
165	0x3e641f85	0.22277649
166	0xbd24f9f8	-0.04027745
167	0xbe68ccdd	-0.22734399
168	0xbca8bed4	-0.020598806
169	0x3d74c9b8	0.059762686
170	0xbdb4da6f	-0.088307254
171	0xbc2a84dc	-0.010407653
172	0xbe05c57d	-0.13063617
173	0xbc271d05	-0.01019979
174	0x3c6c961d	0.014440087
175	0xbde29c22	-0.11064936
176	0xbe230d54	-0.15923053
177	0xbe892e85	-0.26793304
178	0xbdf6e613	-0.12055602
179	0xbe2c5175	-0.16827948
180	0xbe6f0e1d	-0.23345228
181	0xbd02afaf	-0.031905826
182	0xbdba3f7f	-0.09094142
183	0x3dac2f65	0.08407477
184	0xbdf2502d	-0.118316986
185	0x3d8234c8	0.063577235
186	0x3e46aaaa	0.1940104
187	0x3d364efa	0.04450891
188	0x3d0e1b0c	0.034693763
189	0x3dcddc11	0.1005174
190	0x3d84b7ce	0.064803705
191	0x3debe9d0	0.115192056
192	0xbdd0b6bd	-0.101911046
193	0x3db49723	0.088178895
194	0x3d286c2b	0.041118782
195	0xbd7e25a6	-0.062047623
196	0xbe7e1ffe	-0.24816892
197	0x3b98d4fb	0.004664061
198	0xbd93631e	-0.071966395
199	0xbd1a7753	-0.037711453
200	0x3e3ca69d	0.18422933
201	0x3d30617f	0.04306173
202	0x3d6c3ea6	0.057676934
203	0x3d46cc86	0.048534892
204	0xbddf3cc1	-0.1090026
205	0xbdff00e0	-0.12451339
206	0xbe0ca6dd	-0.13735528
207	0x3dd47e48	0.10375649
208	0x3c6828df	0.014169901
209	0x3de508a7	0.11183291
210	0xbdcbb775	-0.09947101
211	0x3d8e6078	0.06951994
212	0xbd198b19	-0.03748617
213	0xbd294aa5	-0.041330952
214	0x3de3baf3	0.11119642
215	0xbdfbf9b6	-0.12303488
216	0x3dbc44b3	0.09192791
217	0xbc20d35c	-0.009816017
218	0xbe6c57a6	-0.2308031
219	0x3df31efe	0.11871146
220	0x3dce414d	0.10071049
221	0x3ddcbb07	0.1077786
222	0xbdb01b80	-0.08598995
223	0x3e2a91ed	0.16657229
224	0x3d9b3ea9	0.07580311
225	0xbd51a8e6	-0.051186465
226	0xbd1a32ab	-0.037645977
227	0xbbf51971	-0.0074798395
228	0x3e88f716	0.26751012
229	0x3d1e3b24	0.03863062
230	0xbd953a39	-0.07286496
231	0x3d172848	0.03690365
232	0xbe364d92	-0.17803028
233	0x3bd33bc0	0.0064463317
234	0x3d58add3	0.052900147
235	0x3e1b74fe	0.15181348
236	0x3cf11c20	0.029432356
237	0x3ca31925	0.01990945
238	0x3e05ffa7	0.13085805
239	0x3e18bbff	0.14915465
240	0xbe29e1be	-0.1659002
241	0xbd3f4467	-0.046696093
242	0xbd6bb11f	-0.057541963
243	0x3daeb99c	0.08531496
244	0xbe243101	-0.16034319
245	0xbd9d8b13	-0.07692542
246	0x3d91435e	0.070929274
247	0xbd643f4e	-0.055724435
248	0x3de63cb8	0.1124205
249	0x3b0b2399	0.0021230935
250	0xbe053089	-0.13006796
251	0x3da89a2b	0.0823253
252	0xbd601950	-0.05471164
253	0x3d87a4af	0.06623208
254	0xbe775141	-0.2415209
255	0xbe0b11f4	-0.13581067

classifier.3.bias f4 [10]
0	0x3ae9dae9	0.001784173
1	0xbde325cb	-0.11091193
2	0x3dae79c5	0.085193194
3	0x3dab3813	0.08360305
4	0xbbef3c52	-0.007300892
5	0xbd0530b8	-0.032517165
6	0xbd1a17a6	-0.03762021
7	0xbbc769d1	-0.0060856123
8	0x3dae37c2	0.08506729
9	0xbd908f38	-0.07058567
